results/McPAS_0123_4.pth (torch, 730905 bytes, 11 tensors)

conv1.att_src f4 [1, 8, 16]
-0.087216265 -0.18354663 -0.2802238 -0.40574542 -0.21358195 0.2705421 -0.19633146 -0.18173657
-0.2756378 -0.29081658 0.45465764 0.4438289 0.17934343 -0.11121753 -0.19104277 -0.00884794
-0.06345223 -0.066590436 0.37094527 0.06954368 0.2291732 0.20462964 -0.33268508 0.49207845
-0.4337918 -0.19127814 0.017363686 0.46698236 -0.39825416 -0.24901174 0.16231772 -0.061113846
-0.40594754 -0.22946462 -0.14716339 -0.06212819 0.38746592 -0.05188183 0.040294692 0.036773082
0.4826602 -0.26729432 0.047428485 0.0658841 0.42659497 -0.22086911 0.41537157 0.3746986
-0.18756819 0.23974475 0.014560252 -0.17951356 0.22263171 0.24540552 -0.3918478 0.17021917
-0.35806727 0.36415067 -0.02305652 0.12399329 0.23018785 -0.21670191 -0.30966732 0.16399829
0.17484279 -0.2732135 -0.5117252 0.27901846 -0.05447848 0.47281465 -0.46902913 -0.49043837
0.4570499 0.35295463 0.45515764 -0.11941014 -0.25948015 -0.20458168 0.31877238 -0.47223073
0.09850709 0.38625976 -0.34586126 -0.34969106 -0.42581135 0.20371526 0.06412416 -0.35562128
0.23137784 -0.0172626 -0.20166272 0.04222812 0.42706135 0.28820786 -0.24533878 -0.4955334
-0.23097056 -0.028792782 0.38484415 0.4405808 0.3731561 -0.42754358 0.12127039 0.16588743
-0.10815651 -0.42637163 0.39001918 0.13297032 -0.22231245 -0.0036227184 -0.05490322 0.4189532
-0.19693708 -0.18760502 -0.14702463 -0.29714832 0.054706033 0.36178553 -0.20489265 0.22381131
-0.19294105 0.0075865835 -0.3223252 0.13702808 0.42161345 -0.09140115 0.22937353 0.34862423
00000000: 719e b2bd a6f3 3bbe 7e79 8fbe ddbd cfbe
00000010: 3ab5 5abe 7e84 8a3e 1d0b 49be 2719 3abe
00000020: 6620 8dbe e9e5 94be e3c8 e83e 8b3d e33e
00000030: cea5 373e 04c6 e3bd b7a0 43be f3f6 10bc
00000040: 3ef3 81bd 9160 88bd 8aec bd3e eb6c 8e3d
00000050: 61ac 6a3e 6f8a 513e b355 aabe b5f1 fb3e
00000060: f519 debe 6bde 43be 4a3e 8e3c 5018 ef3e
00000070: f8e7 cbbe effc 7ebe 9e36 263e 8352 7abd
00000080: 5bd8 cfbe c6f8 6abe 00b2 16be 217a 7ebd
00000090: ef61 c63e 0b82 54bd 0c0c 253d 5f9f 163d
000000a0: 3d1f f73e cdda 88be 5f44 423d 3eee 863d
000000b0: a86a da3e 832b 62be 95ab d43e 7fd8 bf3e
000000c0: e011 40be a67f 753e 208e 6e3c 67d2 37be
000000d0: 91f9 633e 964b 7b3e 46a0 c8be ef4d 2e3e
000000e0: 9854 b7be f571 ba3e 07e1 bcbc 32f0 fd3d
000000f0: 5db6 6b3e 1be7 5dbe b78c 9ebe 2bef 273e
00000100: fd09 333e a4e2 8bbe 6c00 03bf 82db 8e3e
00000110: d424 5fbd c314 f23e 9624 f0be bd1a fbbe
00000120: 7202 ea3e 78b6 b43e 6c0a e93e 4e8d f4bd
00000130: 95da 84be dc7d 51be 2236 a33e 3ac8 f1be
00000140: 16be c93d d7c3 c53e ba14 b1be b50a b3be
00000150: f203 dabe bc9a 503e 8753 833d fe13 b6be
00000160: 50ee 6c3e 4c6a 8dbc ac80 4ebe 65f7 2c3d
00000170: c9a7 da3e fb8f 933e 173a 7bbe 8eb6 fdbe
00000180: 8c83 6cbe d7de ebbc 4b0a c53e ce93 e13e
00000190: 510e bf3e fee6 dabe 9c5c f83d 65de 293e
000001a0: 2981 ddbd 624d dabe 98b0 c73e 5f29 083e
000001b0: e0a5 63be 216b 6dbb 33e2 60bd 0981 d63e
000001c0: e0a9 49be 881b 40be a08d 16be d323 98be
000001d0: 6f13 603d f43b b93e 61cf 51be cb2e 653e
000001e0: 5792 45be e098 f83b cf07 a5be 1751 0c3e
000001f0: b8dd d73e 8730 bbbd e5e0 6a3e e07e b23e

conv1.att_dst f4 [1, 8, 16]
-0.44644016 -0.43266848 -0.05007944 0.060593717 -0.44377407 -0.22674842 0.26204583 0.15228957
-0.4059299 -0.24334617 0.36340627 0.12536977 0.27828455 0.2226248 0.09850501 -0.1569662
-0.52842486 0.31118774 0.29345638 -0.2147089 0.4324564 0.22928743 0.48505953 0.089257665
0.2104345 -0.28790113 -0.24095912 0.39963758 -0.2974249 -0.5559422 0.36261272 -0.4562792
-0.38066807 0.047058098 -0.14447689 -0.4838512 0.07238556 -0.22126684 -0.19797935 0.5243196
-0.36135146 0.37505758 0.14733365 0.50511265 0.3168503 -0.31227824 -0.4567926 -0.45457456
-0.30434796 0.34250355 0.42845777 -0.4074536 -0.32812127 0.14581555 0.067040004 -0.4646438
0.26485953 0.24092482 -0.25683382 -0.3827695 0.475745 0.14795187 -0.02850664 0.39506948
-0.036737148 0.30442798 -0.46949348 0.058169585 0.13525185 0.3906549 0.43034685 0.26464456
0.1746543 -0.29703528 -0.4113549 0.10165703 -0.27211818 -0.5125829 0.5090452 -0.21740487
-0.60159546 -0.17426637 0.19472422 -0.20125934 -0.46502972 0.48276877 -0.55711 0.412738
0.32023922 -0.23831709 0.16728872 0.24502765 0.47593716 -0.15650858 -0.2978557 0.131918
-0.04855264 0.4988683 -0.24107969 0.14950168 -0.4006321 0.027792808 -0.51579255 0.19216548
0.40304735 0.23960243 0.26677194 0.33999726 -0.29470828 0.51306146 -0.5077967 -0.23208036
0.12013829 -0.32576615 -0.40640628 -0.062841564 0.037587527 -0.04146608 -0.4893721 -0.23877987
-0.009200694 0.33387238 -0.5091868 -0.20632721 -0.10743458 -0.10049575 -0.45622918 -0.23261368
00000000: ce93 e4be b986 ddbe 1920 4dbd 1e31 783d
00000010: 5b36 e3be bd30 68be df2a 863e ccf1 1b3e
00000020: 0bd6 cfbe bd2f 79be 6310 ba3e ef60 003e
00000030: 507b 8e3e c1f7 633e ffbc c93d bfbb 20be
00000040: da46 07bf 0054 9f3e ea3f 963e a6dc 5bbe
00000050: ed6a dd3e 53ca 6a3e b959 f83e b9cc b63d
00000060: 247c 573e c767 93be fdbd 76be 4c9d cc3e
00000070: 1448 98be 3a52 0ebf 60a8 b93e 6d9d e9be
00000080: ede6 c2be febf 403d c0f1 13be 58bb f7be
00000090: e13e 943d c693 62be 19bb 4abe cf39 063f
000000a0: 0f03 b9be 8c07 c03e a2de 163e 104f 013f
000000b0: 343a a23e efe2 9fbe b8e0 e9be ffbd e8be
000000c0: 7fd3 9bbe a05c af3e d15e db3e c29d d0be
000000d0: 83ff a7be ac50 153e 454c 893d cbe5 edbe
000000e0: ab9b 873e ffb4 763e b97f 83be 5dfa c3be
000000f0: d994 f33e b280 173e c286 e9bc 8c46 ca3e
00000100: b179 16bd fcdd 9b3e 7361 f0be 3b43 6e3d
00000110: 767f 0a3e eb03 c83e 6c56 dc3e 7e7f 873e
00000120: 94d8 323e 0215 98be 1c9d d2be 9031 d03d
00000130: 1353 8bbe a238 03bf c950 023f 629f 5ebe
00000140: 2902 1abf e272 32be c965 473e ee16 4ebe
00000150: 6018 eebe 782d f73e c39e 0ebf 6552 d33e
00000160: 65f6 a33e 6509 74be bc4d 2b3e 87e8 7a3e
00000170: 09ae f33e c943 20be 8b80 98be 8315 073e
00000180: 22df 46bd aa6b ff3e 98dd 76be f816 193e
00000190: a71f cdbe bead e33c fb0a 04bf 07c7 443e
000001a0: 395c ce3e 575a 753e 5596 883e 1f14 ae3e
000001b0: 01e4 96be ff57 033f f7fe 01bf 79a6 6dbe
000001c0: 100b f63d d2ca a6be 7c14 d0be 14b3 80bd
000001d0: 61f5 193d 56d8 29bd fb8e fabe b682 74be
000001e0: 82be 16bc 52f1 aa3e 115a 02bf 7147 53be
000001f0: a906 dcbd b7d0 cdbd df96 e9be 4832 6ebe

conv1.bias f4 [128]
0.013310615 -0.004842965 0.008674722 0.004557785 -0.00829063 0.0035173502 -0.017377954 0.0017698619
-0.0031246906 0.002876927 0.016103698 0.09736074 0.010812675 0.003486606 -0.0227981 0.011864334
0.006983914 -0.0027423764 -0.024721948 0.0020707136 0.001200936 -0.0041540237 -0.0030558836 -0.008023024
0.054735214 0.033229668 0.0015414231 0.017229814 -0.0034411948 0.0053708935 -0.0017229113 -0.00096396013
0.014504863 0.028540125 0.018413115 0.0021749942 -0.016578894 -0.001871302 0.0026058464 0.008247026
0.007525079 -0.0011158515 -0.006157445 0.0068681906 0.011544605 0.01303249 0.007611164 -0.012783621
0.041866116 0.0012515758 0.00043759082 0.005473964 0.0060269157 -0.009168931 0.008321738 0.021874858
0.005220506 0.004694627 0.011316721 0.0060286084 -0.0025400114 -0.035384893 0.016348355 -0.011748102
-0.001680906 0.015543893 0.0167949 0.014735566 0.004601227 -0.02573882 -0.00492586 0.011346767
0.0010181018 0.0033331502 0.0038994376 0.020567728 -0.0035746964 0.0070040557 -0.0073334402 0.016396934
0.015901882 0.008834908 0.0028182764 -0.004277905 0.014876826 0.03236058 -0.01830637 0.03275607
-0.0059504965 0.014780268 0.005559253 0.0163758 0.023385258 0.015748214 0.01945365 0.009218232
0.006588104 0.0044308323 0.0049264682 0.0003052254 -0.006034326 -0.01256718 0.014345761 0.0041579283
-0.0010834791 0.01598045 0.00036319203 -0.006003851 0.012902509 0.018754933 0.02394667 0.01744199
0.015957797 -0.0051186094 -0.011683987 0.03016452 0.009040408 -0.023553107 -0.0076948935 -0.010829509
0.013160965 0.004635828 0.024294607 -0.012641569 0.026433244 0.001885834 -0.0053811823 0.0004999857
00000000: c414 5a3c bcb1 9ebb 6c20 0e3c 7959 953b
00000010: 6cd5 07bc 5883 663b 365c 8ebc b6fa e73a
00000020: 9cc7 4cbb d38a 3c3b e7eb 833c 1165 c73d
00000030: a527 313c 8b7f 643b 15c3 babc a062 423c
00000040: 51d9 e43b 71b9 33bb af85 cabc cfb4 073b
00000050: ba68 9d3a 7a1e 88bb 3845 48bb 0073 03bc
00000060: 0832 603d d51b 083d 9409 ca3a 8a25 8d3c
00000070: ab85 61bb 52fe af3b 4fd3 e1ba 45b2 7cba
00000080: cea5 6d3c fbcc e93c 1ad7 963c 598a 0e3b
00000090: 76d0 87bc 7a46 f5ba d9c6 2a3b 891e 073c
000000a0: f094 f63b c341 92ba 64c4 c9bb 8f0e e13b
000000b0: 9525 3d3c 3a86 553c 1267 f93b 6572 51bc
000000c0: ce7b 2b3d ea0b a43a 726c e539 f05e b33b
000000d0: 6f7d c53b 4939 16bc e657 083c e732 b33c
000000e0: c710 ab3b 63d5 993b c569 393c a28b c53b
000000f0: 5276 26bb c0ef 10bd fcec 853c 1c7b 40bc
00000100: d951 dcba d0ab 7e3c 7595 893c 726d 713c
00000110: e4c5 963b 38da d2bc 1c69 a1bb cae7 393c
00000120: d471 853a fb70 5a3b b58d 7f3b a77d a83c
00000130: 7445 6abb 4782 e53b 5b4d f0bb dd52 863c
00000140: aa44 823c 4ac0 103c d5b2 383b ab2d 8cbb
00000150: eebd 733c 878c 043d 3ef7 95bc 3b2b 063d
00000160: 62fc c2bb f028 723c 652a b63b 8b26 863c
00000170: 7192 bf3c 6602 813c 435d 9f3c 1108 173c
00000180: 06e1 d73b 8430 913b 366e a13b a906 a039
00000190: 98bb c5bb 93e6 4dbc 7c0a 6b3c 3b3f 883b
000001a0: 8703 8eba 6fe9 823c cf6a be39 f4bb c4bb
000001b0: 0c65 533c f2a3 993c cf2b c43c 81e2 8e3c
000001c0: edb9 823c 02ba a7bb 326e 3fbc 951b f73c
000001d0: 381e 143c 72f2 c0bc 7225 fcbb 416e 31bc
000001e0: 17a1 573c 25e8 973b 7c05 c73c 951e 4fbc
000001f0: 888a d83c 172e f73a a154 b0bb 7911 033a

conv1.lin.weight f4 [128, 768]
-0.06771918 -0.076924026 0.045427755 0.043420065 -0.08130789 -0.080190584 0.048600566 -0.06775145
0.07902582 -0.070356816 0.046514936 -0.08954826 0.013285945 0.00017805649 0.058125664 0.037208535
-0.06616637 0.016236158 -0.0254409 0.053063586 0.02818189 0.0815578 -0.04470928 0.043327093
-0.013149176 0.00092392095 0.006470336 -0.028812211 0.02575701 -0.03624538 0.08284375 -0.053844735
-0.056758072 0.056968603 0.013731312 0.028339593 0.006035433 -0.05739933 0.042391926 0.0031839993
0.027785432 -0.02519089 -0.074069835 0.062721 -0.056891818 -0.067760736 0.030619655 0.0046884194
0.0679708 0.0035698435 -0.058256984 -0.07710478 -0.049373515 -0.09415283 0.07692315 0.039565727
-0.018828824 0.0025745896 0.088878594 0.08696485 -0.042981707 -0.0032902937 -0.03287145 -0.029474989
-0.03567852 -0.08333992 0.027463106 0.06638511 -0.009820125 0.0007822214 -0.06671341 -0.043203335
-0.08134253 0.06824571 0.0033388971 -0.026359545 -0.031157605 -0.10674755 -0.016368143 -0.02647743
0.018109709 0.056808315 -0.049862474 0.041645966 -0.08882871 -0.024214698 -0.037586957 0.059605863
-0.05520436 -0.031018725 -0.02320599 -0.13433617 -0.06792547 0.046741538 -0.058412313 -0.08699896
-0.046153914 0.03598968 -0.052385803 -0.054411795 -0.0063208835 -0.03999012 0.006972411 0.010442942
-0.008678912 0.07003459 -0.09975006 -0.069784015 0.08659696 -0.009354325 0.022759978 0.02214117
-0.014255796 0.019011213 0.020444747 0.038957957 0.03311887 0.030908175 0.09008544 0.054209117
-0.096223 -0.0076035657 0.04748452 0.016652163 -0.15405782 -0.13115722 0.022947317 0.030487178
-0.14080445 -0.07400013 -0.020550113 0.060984053 -0.06471444 -0.024946056 -0.006828956 0.06848999
-0.020070938 0.030121451 0.086501345 -0.11284882 0.03882667 0.046531435 -0.12041414 -0.05057366
0.045347936 -0.005941904 -0.04358695 -0.04413082 0.11042569 -0.082042485 -0.049279947 0.034975745
-0.033707906 0.017841464 -0.09228369 -0.019402444 -0.0006023821 0.02622662 0.047678 0.07968069
0.032641646 -0.051061027 -0.0058538825 -0.010208127 -0.051596805 -0.0820891 -0.05870566 0.04768264
0.082179464 -0.01668032 -0.006225242 0.0069118766 0.0010398534 0.073666826 0.029357683 0.01994335
-0.010697526 0.02261019 0.0139325475 0.0419161 0.05138688 0.015503447 -0.003280465 -0.06076937
-0.05896525 0.06282023 -0.019577472 0.066142805 -0.0032017585 0.04357728 -0.031541444 -0.011710323
-0.064165674 0.0042051207 -0.0691938 -0.016787326 -0.024378926 -0.073187776 -0.049331967 0.04965718
0.021875825 -0.08480635 0.123569705 -0.009867561 0.054377913 0.030357061 0.038966015 0.09255504
-0.029855778 -0.07921445 -0.038975872 0.021501387 -0.033257317 0.09124796 0.040288277 0.08590838
-0.0728693 -0.03174913 -0.01586739 -0.07802875 0.08080487 0.110144384 -0.010512563 -0.005300125
0.10714185 0.048313588 -0.06753748 0.015006673 0.018830698 -0.097250625 0.010462342 -0.10213335
0.021841744 0.029402446 -0.030749526 -0.057499446 -0.010582413 0.035086665 0.034068327 0.0427658
0.04637784 0.045357067 0.050101504 0.089196175 0.0147568 -0.0011578817 -0.04066812 -0.06006282
-0.00029849506 0.04546311 -0.00076088484 0.020241309 -0.13540177 0.023612974 0.055598795 0.06836076
00000000: 5ab0 8abd 588a 9dbd 7412 3a3d 3dd9 313d
00000010: c084 a6bd f63a a4bd 6311 473d 46c1 8abd
00000020: 4ad8 a13d 3c17 90bd 7286 3e3d 1465 b7bd
00000030: 4bad 593c adb4 3a39 2d15 6e3d fa67 183d
00000040: 3c82 87bd b101 853c 6f69 d0bc 3459 593d
00000050: b5dd e63c c707 a73d 1421 37bd c077 313d
00000060: a46f 57bc 4933 723a 1d05 d43b 9607 ecbc
00000070: 5d00 d33c 0976 14bd fca9 a93d 4c8c 5cbd
00000080: 277b 68bd e957 693d 4cf9 603c 6f28 e83c
00000090: e2c4 c53b 8f1b 6bbd 28a3 2d3d a5aa 503b
000000a0: 469e e33c 205d cebc edb1 97bd de73 803d
000000b0: 6507 69bd 24c6 8abd 12d6 fa3c 50a1 993b
000000c0: 4634 8b3d 09f4 693b e09e 6ebd 1ce9 9dbd
000000d0: e23b 4abd 33d3 c0bd e289 9d3d ac0f 223d
000000e0: e83e 9abc 72ba 283b fb05 b63d a11a b23d
000000f0: 960d 30bd f8a1 57bb 37a4 06bd 8875 f1bc
00000100: a423 12bd 1fae aabd 4ffa e03c ebf4 873d
00000110: 97e4 20bc fd0d 4d3a 0aa1 88bd fbf5 30bd
00000120: ea96 a6bd 68c4 8b3d 66d1 5a3b f9ef d7bc
00000130: 3c3e ffbc 769e dabd 7c16 86bc 32e7 d8bc
00000140: d05a 943c d6af 683d 983c 4cbd f694 2a3d
00000150: d4eb b5bd e75d c6bc c8f4 19bd 4725 743d
00000160: f81d 62bd fb1a febc 7d1a bebc 6c8f 09be
00000170: 821c 8bbd 0e74 3f3d c041 6fbd 832c b2bd
00000180: e30b 3dbd ea69 133d 7f92 56bd e7de 5ebd
00000190: 6a1f cfbb aecc 23bd d378 e43b e018 2b3c
000001a0: ff31 0ebc 4c6e 8f3d c249 ccbd ecea 8ebd
000001b0: bf59 b13d e242 19bc 2273 ba3c 6661 b53c
000001c0: 2491 69bc 67bd 9b3c be7b a73c 6192 1f3d
000001d0: a7a7 073d 2433 fd3c b77e b83d 610a 5e3d
000001e0: 9010 c5bd 5527 f9bb 217f 423d 1e6a 883c
000001f0: 55c1 1dbe 144e 06be 03fc bb3c 3fc0 f93c
00000200: 0b2f 10be 618d 97bd b658 a8bc 6aca 793d
00000210: 0189 84bd ac5b ccbc 6fc5 dfbb 7b44 8c3d
00000220: cf6b a4bc 43c1 f63c 9e27 b13d 481d e7bd
00000230: b708 1f3d bf97 3e3d b09b f6bd 5326 4fbd
00000240: c2be 393d 4eb4 c2bb 3b88 32bd 85c2 34bd
00000250: dd26 e23d e405 a8bd c5d9 49bd ba42 0f3d
00000260: 4d11 0abd 4328 923c 3bff bcbd e0f1 9ebc
00000270: 2ee9 1dba 35d9 d63c 024a 433d a12f a33d
00000280: 3fb3 053d 5e25 51bd edd1 bfbb fd3f 27bc
00000290: 2c57 53bd 541e a8bd 5975 70bd df4e 433d
000002a0: b54d a83d 2ba5 88bc 1dfd cbbb 067d e23b
000002b0: b14b 883a a2de 963d 867f f03c 3d60 a33c
000002c0: ad44 2fbc 0139 b93c 5745 643c 37b0 2b3d
000002d0: 0d7b 523d 2b02 7e3c 12fd 56bb 4ee9 78bd
000002e0: 8c85 71bd e5a7 803d ef60 a0bc e175 873d
000002f0: 98d4 51bb 177e 323d 9a31 01bd a8dc 3fbc
00000300: 4b69 83bd 1ccb 893b 7bb5 8dbd 9385 89bc
00000310: 50b6 c7bc 79e3 95bd 5110 4abd 5465 4b3d
00000320: ee34 b33c f4ae adbd 1d12 fd3d 8dab 21bc
00000330: 60bb 5e3d 5faf f83c d49a 1f3d 7f8d bd3d
00000340: 1b94 f4bc 303b a2bd 2aa5 1fbd ad23 b03c
00000350: d338 08bd 36e0 ba3d 5205 253d bcf0 af3d
00000360: 803c 95bd 600b 02bd 54fc 81bc 8acd 9fbd
00000370: 067d a53d 6193 e13d e33c 2cbc acac adbb
00000380: 306d db3d 78e4 453d 1751 8abd 8cde 753c
00000390: d642 9a3c 562b c7bd 3e6a 2b3c 4a2b d1bd
000003a0: 75ed b23c 66dd f03c 6ee6 fbbc 8a84 6bbd
000003b0: db61 2dbc 09b7 0f3d 3b8b 0b3d 312b 2f3d
000003c0: b1f6 3d3d 55c8 393d 3c37 4d3d 7cac b63d
000003d0: 81c6 713c 10c4 97ba 9d93 26bd 6e04 76bd
000003e0: 547f 9cb9 8737 3a3d 1e76 47ba 1ad1 a53c
000003f0: c3a6 0abe ff6f c13c 90bb 633d ba00 8c3d

conv2.att_src f4 [1, 8, 16]
0.41660798 -0.1703762 0.3927116 0.32653132 -0.50503576 -0.037827395 0.31050336 -0.2217432
0.21893732 0.41983217 -0.081131436 0.1326786 -0.19782545 0.36238638 0.34501648 -0.41843164
-0.015891504 0.5058016 0.12769435 0.44202408 -0.44952703 0.067705296 0.30059883 0.4027526
0.23174523 -0.28313273 0.17129596 0.118817225 -0.08019253 0.13854253 -0.47398046 0.45472646
0.05866348 -0.04086639 -0.33516288 0.36735177 0.36161244 -0.13105285 -0.14920175 0.19108263
0.40122834 0.4537758 0.17443678 0.09875764 -0.4644999 0.1758182 0.1552046 -0.30127648
-0.3143186 -0.28747907 0.43743524 -0.28493372 0.08026671 0.45574373 -0.43002585 0.089187145
-0.025064183 -0.10663389 0.35772192 -0.0891807 0.32072958 0.42196432 -0.07338027 -0.20231113
-0.20709068 -0.08240126 -0.19627334 -0.28859702 0.50356346 0.41395703 0.34278747 -0.18587537
0.45830485 0.450579 -0.07563234 -0.1259882 -0.004021773 0.26068208 0.09046019 -0.35121486
0.43720025 0.43540373 -0.3576152 0.34290358 0.102369495 -0.47387478 -0.31086317 0.3740609
-0.16593276 0.4212153 -0.430486 0.35726565 -0.2799554 -0.2047314 0.04043402 -0.2990446
-0.2680702 -0.32679403 0.020482084 -0.17340818 0.29892352 -0.4277978 0.39130992 0.17430907
-0.10488796 -0.13858476 -0.26777396 0.071051866 0.3606535 0.26070803 0.4302831 -0.1789587
0.16801003 0.49481294 0.46571293 -0.1932359 -0.25384182 -0.33601907 0.476112 0.4318578
-0.14896545 0.401385 -0.39148384 0.36205885 0.07062844 0.2508666 -0.115723535 0.0897068
00000000: a44d d53e 1977 2ebe 7f11 c93e 1d2f a73e
00000010: 064a 01bf e6f0 1abd 4cfa 9e3e a610 63be
00000020: 1b31 603e 3ef4 d63e 3d28 a6bd e6dc 073e
00000030: c192 4abe b58a b93e 00a6 b03e ac3c d6be
00000040: e62e 82bc 377c 013f 4fc2 023e fb50 e23e
00000050: 6828 e6be 13a9 8a3d 17e8 993e 9735 ce3e
00000060: 9f4e 6d3e c6f6 90be 3568 2f3e 7256 f33d
00000070: fb3b a4bd 18de 0d3e 91ad f2be e8d1 e83e
00000080: 1e49 703d 8463 27bd 789a abbe 8815 bc3e
00000090: 4425 b93e b832 06be 58c8 18be 2aab 433e
000000a0: cd6d cd3e 4d55 e83e 8e9f 323e 7241 ca3d
000000b0: eed2 edbe b009 343e f4ed 1e3e e940 9abe
000000c0: 5eee a0be 7530 93be 83f7 df3e d5e2 91be
000000d0: df62 a43d 3e57 e93e 592c dcbe c0a7 b63d
000000e0: 6753 cdbc de62 dabd 5427 b73e 5fa4 b6bd
000000f0: ab36 a43e b50b d83e 6548 96bd a62a 4fbe
00000100: 940f 54be fec1 a8bd e1fb 48be fdc2 93be
00000110: 89e9 003f 2df2 d33e d781 af3e 1d56 3ebe
00000120: efa6 ea3e 4ab2 e63e 21e5 9abd 0d03 01be
00000130: 14c9 83bb 1f78 853e 3143 b93d 6fd2 b3be
00000140: b6d8 df3e 3ded de3e 5719 b7be 0f91 af3e
00000150: 19a7 d13d b79f f2be 7529 9fbe e984 bf3e
00000160: 47ea 29be 88a9 d73e a968 dcbe 86eb b63e
00000170: 5056 8fbe 1ca5 51be 259e 253d 601c 99be
00000180: 7f40 89be 8c51 a7be 0bca a73c ea91 31be
00000190: 810c 993e 5008 dbbe c659 c83e 147e 323e
000001a0: 80cf d6bd 2ae9 0dbe ab19 89be a483 913d
000001b0: 93a7 b83e 867b 853e 114e dc3e f340 37be
000001c0: d20a 2c3e 1f58 fd3e ed71 ee3e a2df 45be
000001d0: 8ef7 81be b10a acbe f4c4 f33e 771c dd3e
000001e0: 668a 18be 5682 cd3e 9270 c8be c75f b93e
000001f0: a5a5 903d 9671 803e 7600 edbd 33b8 b73d

conv2.att_dst f4 [1, 8, 16]
0.2448305 -0.3003818 -0.4815966 -0.2706905 -0.0010854804 -0.4406819 -0.44263202 0.4311932
0.06887604 -0.46062642 0.26022726 0.21428633 -0.39712578 0.08710056 0.043030966 -0.45525154
-0.19256571 -0.20317018 -0.42225885 0.36149126 0.013049706 -0.2811407 0.41778776 -0.33049947
0.16833802 0.3407572 0.102919325 0.10443191 -0.6136414 0.08330934 -0.48272532 0.23189677
-0.31433192 0.6261374 -0.14620893 0.024593009 0.39248383 -0.061074495 0.020031841 -0.09085611
0.3591365 0.55271834 0.38272092 0.18345204 0.18106233 -0.13991235 0.4888981 -0.1167029
-0.22089215 0.3594262 -0.18140237 -0.11812855 -0.13558449 0.085159086 0.29851007 0.03125856
-0.23333092 -0.47888955 0.282391 0.001056073 0.26288483 -0.28733236 -0.48312017 -0.23701453
0.4539007 -0.23149496 -0.23259903 0.33994994 -0.4111944 -0.05792067 -0.028927816 -0.19199893
0.35979497 -0.32945228 -0.31365907 -0.26079065 -0.34762594 -0.07507547 -0.17597911 0.08834267
0.050725147 0.20884855 -0.1690731 -0.20971002 -0.50159425 0.3072942 -0.2104126 0.33272302
0.54715866 -0.26286444 -0.42711413 0.078489766 0.11178005 0.48574087 0.22641134 -0.2280892
-0.102304555 0.14531754 0.39387128 0.2896863 0.017516831 -0.3276638 0.23532674 -0.19287671
-0.004873072 -0.19034733 -0.0741162 -0.2854244 -0.39172038 -0.4602607 0.09200934 -0.13808143
0.36715707 0.35719526 0.4418244 0.39411613 -0.26576322 -0.3915278 -0.05846561 0.2742976
0.1958893 0.34004158 -0.21799885 0.39796498 0.51315045 -0.0031290827 0.0013955045 -0.30683947
00000000: d9b4 7a3e a5cb 99be d493 f6be f297 8abe
00000010: ae46 8eba 0fa1 e1be aaa0 e2be 5bc5 dc3e
00000020: e20e 8d3d 3ad7 ebbe 823c 853e e06d 5b3e
00000030: 1254 cbbe c761 b23d 3d41 303d bb16 e9be
00000040: f22f 45be d80b 50be 5032 d8be 6215 b93e
00000050: 6fce 553c adf1 8fbe 47e8 d53e 3a37 a9be
00000060: cd60 2c3e ba77 ae3e 5ec7 d23d 66e0 d53d
00000070: 9a17 1dbf 169e aa3d c627 f7be 5976 6d3e
00000080: 1df0 a0be 8a4a 203f cbb7 15be 4777 c93c
00000090: a4f3 c83e 4029 7abd d119 a43c c512 babd
000000a0: bde0 b73e f37e 0d3f fff3 c33e dada 3b3e
000000b0: 6768 393e 2f45 0fbe da50 fa3e ee01 efbd
000000c0: 8d31 62be b606 b83e 8bc1 39be 62ed f1bd
000000d0: a9d6 0abe e367 ae3d 50d6 983e fa08 003d
000000e0: 4dee 6ebe 0331 f5be 8e95 903e ee6b 8a3a
000000f0: d798 863e 3a1d 93be 875b f7be f0b3 72be
00000100: ac65 e83e 040d 6dbe 712e 6ebe eb0d ae3e
00000110: 1388 d2be 393e 6dbd 07fa ecbc 5e9b 44be
00000120: 0c37 b83e f8ad a8be ec97 a0be 5a86 85be
00000130: 07fc b1be 2bc1 99bd de33 34be 00ed b43d
00000140: 2cc5 4f3d 65dc 553e 8021 2dbe 39be 56be
00000150: 7b68 00bf aa55 9d3e 6776 57be ac5a aa3e
00000160: 9712 0c3f 2b96 86be b4ae dabe 3ebf a03d
00000170: f0ec e43d 07b3 f83e 60d8 673e 3790 69be
00000180: 0d85 d1bd 1fce 143e 7fa9 c93e c351 943e
00000190: 757f 8f3c 8dc3 a7be 7ef9 703e 7981 45be
000001a0: 4aae 9fbb 69ea 42be 3cca 97bd 2623 92be
000001b0: 938f c8be 4aa7 ebbe 656f bc3d 3865 0dbe
000001c0: 03fc bb3e 4ce2 b63e cf36 e23e 97c9 c93e
000001d0: 1e12 88be 5576 c8be a379 6fbd bc70 8c3e
000001e0: 3497 483e ee19 ae3e 173b 5fbe 11c2 cb3e
000001f0: d45d 033f 4c11 4dbb 5ce9 b63a 101a 9dbe

conv2.bias f4 [128]
0.017447755 -0.012560496 0.06742445 0.05292344 -0.013037405 -0.020519974 0.009190622 0.06682534
0.09184816 0.016791567 0.020984948 0.112238824 -0.00027244078 0.0044896123 0.09397351 -0.00938032
0.01368064 0.054086115 0.053338714 0.044188876 -0.0068580327 0.0072724284 -0.025559364 -0.006151053
0.027465282 0.0074490686 -0.0013185776 0.0008051567 0.010577296 0.017862342 0.01225145 0.012548186
-0.0019204516 0.007867414 -0.027840843 0.037903134 0.021595275 0.0009061942 0.0071264296 0.00789572
0.042115975 0.0024665997 0.045578934 0.013497619 -0.039997894 -0.0063978867 0.057801433 -0.017864278
0.0069271396 0.013235668 -0.0105919335 0.02529415 -0.005990765 0.1525967 0.019110695 0.01367323
0.004485338 0.016550602 0.034428593 0.019420963 0.11183717 0.0054275007 0.01255852 -0.0028817751
0.030814612 0.007863014 0.008713733 -0.007314372 -0.0315628 0.0065329187 -0.016325563 0.007317236
0.020713694 0.13714185 0.0141794365 0.01040142 0.009328332 0.0078738835 -0.029578166 0.017821463
-0.0074615916 0.04519469 0.011254236 -0.007477107 -0.0017310962 0.031198388 -0.02044693 -0.0006543177
-0.015528293 0.008404459 0.004565419 -0.005511959 0.037968736 0.012464653 0.004332317 -0.0031115387
-0.0007217255 -0.01159327 -0.011005518 0.003975663 -0.01742649 0.039570704 0.027143566 -0.0035247775
0.023529602 -0.016052548 0.026997427 0.004040798 0.07162247 0.006532563 0.025742017 0.009770214
-0.019643141 0.015539703 0.27069873 -0.014835299 -0.0041383635 -0.0068947934 0.01458346 -0.006381548
0.005476247 -0.018431773 0.008386823 0.023540974 0.026453188 -0.020072179 -0.0069979974 0.0005312528
00000000: 98ee 8e3c 8aca 4dbc d415 8a3d 40c6 583d
00000010: d79a 55bc 8119 a8bc 4394 163c b9db 883d
00000020: e31a bc3d 788e 893c a0e8 ab3c 78dd e53d
00000030: 62d6 8eb9 991d 933b 2f75 c03d eaaf 19bc
00000040: c324 603c 6789 5d3d b279 5a3d 65ff 343d
00000050: 59b9 e0bb 8d4d ee3b df61 d1bc c68e c9bb
00000060: dffe e03c 5117 f43b 1fd4 acba 2711 533a
00000070: 654c 2d3c 0c54 923c 4eba 483c e896 4d3c
00000080: aab7 fbba 53e6 003c 7b12 e4bc 5140 1b3d
00000090: 93e8 b03c aa8d 6d3a d384 e93b 0d5d 013c
000000a0: cd81 2c3d ada6 213b fab0 3a3d 1e25 5d3c
000000b0: d5d4 23bd 5da5 d1bb 32c1 6c3d 1b58 92bc
000000c0: 0ffd e23b 6ada 583c ca89 2dbc ad35 cf3c
000000d0: 2e4e c4bb 4f42 1c3e 088e 9c3c af05 603c
000000e0: bef9 923b 2195 873c ff04 0d3d b618 9f3c
000000f0: e30a e53d 2dd9 b13b 40c2 4d3c 2adc 3cbb
00000100: ed6e fc3c dfd3 003c 0cc4 0e3c 66ad efbb
00000110: ff47 01bd 1812 d63b 30bd 85bc 6dc5 ef3b
00000120: c4af a93c ea6e 0c3e de50 683c b86a 2a3c
00000130: dcd5 183c 7601 013c e94d f2bc 51fe 913c
00000140: 5e80 f4bb 111e 393d b063 383c 8502 f5bb
00000150: f3e5 e2ba c393 ff3c 5280 a7bc 8486 2bba
00000160: 626a 7ebc dbb2 093c 8399 953b aa9d b4bb
00000170: 1b85 1b3d 8b38 4c3c 1cf6 8d3b f5ea 4bbb
00000180: 2e32 3dba b3f1 3dbc 7d50 34bc 4746 823b
00000190: 00c2 8ebc e414 223d 2f5c de3c f4ff 66bb
000001a0: 27c1 c03c a280 83bc b529 dd3c ac68 843b
000001b0: cdae 923d 1c0f d63b ece0 d23c 3f13 203c
000001c0: a7ea a0bc 3d9a 7e3c 0699 8a3e c10f 73bc
000001d0: 1c9b 87bb b8ed e1bb 77ef 6e3c 4e1c d1bb
000001e0: 1772 b33b 3bfe 96bc e368 093c 00d9 c03c
000001f0: 5bb4 d83c 696e a4bc 754f e5bb c643 0b3a

conv2.lin.weight f4 [128, 128]
-0.16689634 -0.13529295 0.02183377 0.00092240894 -0.11886132 -0.06654423 -0.22561467 0.0011302734
0.05166022 -0.14401059 -0.07893059 0.241342 -0.2081459 0.16071583 -0.086614534 -0.040343367
-0.15245466 -0.12654719 0.04078039 -0.15668738 0.0444259 0.1356191 0.019982481 -0.16173226
-0.13350251 0.033210423 -0.03931886 0.0030346403 -0.113637164 -0.080896266 -0.004276916 -0.12109354
0.033093285 -0.002316671 -0.02065937 -0.017477684 0.18316689 0.096455164 -0.14395204 0.15280469
0.027233554 0.017425587 0.122839116 -0.25909156 0.03981354 -0.16753045 0.114280194 0.029719468
0.033172943 0.12723893 -0.002748327 -0.09941683 -0.00038110148 -0.0971204 0.13365689 0.06294654
-0.06808374 0.06993282 0.0027154665 -0.121810414 0.14123206 0.13951457 0.055326007 -0.015090818
0.0396217 -0.11321077 -0.13954976 0.18388195 0.14377552 0.09287072 -0.08009016 -0.048565973
0.08965625 0.018725848 0.13425255 -0.0741472 -0.061893567 -0.036809783 -0.030778162 -0.12850404
-0.032360863 0.10406052 0.12757671 0.06120017 -0.13032806 -0.034291163 0.07393167 -0.08951173
-0.12656692 -0.03228346 -0.23795266 -0.037682954 0.07489183 0.11718987 -0.1982558 -0.12304929
0.06713512 0.034041803 -0.061234158 0.016784111 0.17840524 0.010574535 -0.12134217 -0.0023067314
0.12119832 -0.014225488 -0.019331645 0.063811205 0.006685816 -0.1749113 -0.14623304 0.03517303
0.03327058 -0.0021117162 0.10490299 -0.138839 -0.12389441 0.13351329 -0.08047803 -0.13375637
0.08093469 0.022508811 -0.18002468 -0.103142776 0.14622451 -0.030069714 -0.16886137 -0.14410393
0.05412074 0.1349301 -0.10260242 0.09405226 -0.080935575 0.06469039 -0.13637938 -0.042421944
-0.06516122 -0.13492788 -0.091970086 -0.0004761126 0.016802208 0.12620658 -0.05161935 0.15780494
-0.07516066 -0.021485722 0.06151223 -0.07697364 0.07977467 -0.042606827 0.0378427 0.04832235
0.06824442 -0.05485802 -0.06944477 -0.061628457 -0.016054433 -0.010169265 0.07671532 -1.5954673e-05
0.100475065 0.08576719 -0.07411015 0.02864818 -0.04119237 -0.16537559 0.002679576 0.095982805
-0.015954647 -0.11526111 0.02582803 0.09574006 0.037267957 0.031935778 -0.118417315 0.14079502
-0.14358987 0.0027225206 -0.06508513 -0.08498357 0.036966685 -0.055348706 -0.010981823 -0.11384224
0.15348136 -0.12606458 -0.10696669 0.13382056 0.10765209 -0.13936143 -0.1326178 -0.16347936
-0.0056815026 0.19335221 0.14917135 0.03260213 0.15642796 0.017997043 0.06953287 -0.07932776
0.04930194 0.050059024 -0.114453286 0.014362911 0.072115295 -0.031141588 0.036350626 -0.133646
-0.13130584 -0.09112891 0.16658495 0.052376516 -0.1526528 0.119188204 0.09157498 0.11858065
-0.07766527 -0.022770856 -0.012763447 0.25093403 -0.0567589 -0.14454982 0.090203516 0.13450406
0.08222227 0.050659988 -0.102041 -0.102599494 -0.13509327 0.07195465 0.11346476 0.047612816
0.07926226 0.034317635 -0.025174478 0.17667705 -0.017933745 0.104083516 0.090562135 0.13397789
-0.013854374 -0.04897606 -0.019736836 0.1240177 0.1678878 0.0523399 -0.05851974 0.047669437
-0.021656843 -0.044964757 -0.09158828 -0.05191432 0.10362755 0.03516854 -0.06901971 0.15175098
00000000: e0e6 2abe 3c8a 0abe bcdc b23c d1cd 713a
00000010: 906d f3bd 5748 88bd 8807 67be af25 943a
00000020: ab99 533d 8377 13be 5ca6 a1bd 5b22 773e
00000030: 3324 55be b192 243e f662 b1bd 163f 25bd
00000040: 131d 1cbe 9695 01be 5709 273d a872 20be
00000050: eff7 353d bcdf 0a3e 4db2 a33c 249d 25be
00000060: e2b4 08be a707 083d d00c 21bd d1e0 463b
00000070: 9aba e8bd f1ac a5bd 5f25 8cbb e4ff f7bd
00000080: d38c 073d 4ad3 17bb d73d a9bc 5c2d 8fbc
00000090: 1a90 3b3e 498a c53d 2a68 13be d578 1c3e
000000a0: e718 df3c 1bc0 8e3c 1393 fb3d a6a7 84be
000000b0: 8613 233d 1a8d 2bbe bc0b ea3d 3e76 f33c
000000c0: 5ae0 073d ec4a 023e 471d 34bb 0d9b cbbd
000000d0: 93ce c7b9 0fe7 c6bd 5add 083e 1eea 803d
000000e0: 7d6f 8bbd f038 8f3d f8f5 313b bd77 f9bd
000000f0: 239f 103e e8dc 0e3e 869d 623d 7a3f 77bc
00000100: 5d4a 223d 0cdb e7bd 22e6 0ebe 8d4b 3c3e
00000110: e439 133e 0133 be3d 4f06 a4bd 1ded 46bd
00000120: b29d b73d f366 993c 8079 093e 7dda 97bd
00000130: 1c84 7dbd dbc5 16bd 7c22 fcbc 9096 03be
00000140: d38c 04bd af1d d53d 78a3 023e 08ad 7a3d
00000150: b874 05be e474 0cbd 7d69 973d ed51 b7bd
00000160: c29a 01be a93b 04bd dda9 73be 7159 1abd
00000170: e360 993d 3e01 f03d 9203 4bbe 4401 fcbd
00000180: 237e 893d 6b6f 0b3d abd0 7abd d57e 893c
00000190: ddaf 363e d040 2d3c 3e82 f8bd 882c 17bb
000001a0: d336 f83d 0512 69bc 665d 9ebc 73af 823d
000001b0: b114 db3b f31b 33be 1dbe 15be 9811 103d
000001c0: bb46 083d b864 0abb 61d7 d63d d02b 0ebe
000001d0: 5abc fdbd b5b7 083e aad1 a4bd 6ef7 08be
000001e0: 16c1 a53d 6664 b83c 6458 38be 853c d3bd
000001f0: e1bb 153e c354 f6bc ffe9 2cbe fb8f 13be
00000200: b6ad 5d3d 1e2b 0a3e 3821 d2bd 799e c03d
00000210: 8dc1 a5bd 657c 843d 09a7 0bbe a2c2 2dbd
00000220: 3f73 85bd 892a 0abe d05a bcbd c09e f9b9
00000230: c9a4 893c 4c3c 013e d06e 53bd 9e97 213e
00000240: d5ed 99bd d302 b0bc 40f4 7b3d 5ba4 9dbd
00000250: e760 a33d 7f84 2ebd f200 1b3d a8ed 453d
00000260: bbc3 8b3d ceb2 60bd 0f39 8ebd 1f6e 7cbd
00000270: 9684 83bc fd9c 26bc ec1c 9d3d 66d6 85b7
00000280: dfc5 cd3d b5a6 af3d 10c7 97bd 97af ea3c
00000290: 55b9 28bd 3858 29be d39b 2f3b a292 c43d
000002a0: 52b3 82bc 040e ecbd 4e95 d33c 5d13 c43d
000002b0: 49a6 183d 17cf 023d c784 f2bd 922c 103e
000002c0: 3909 13be 516c 323b 5a4b 85bd de0b aebd
000002d0: 616a 173d 53b5 62bd 1bed 33bc 1f26 e9bd
000002e0: 382a 1d3e 1317 01be 5a11 dbbd 4208 093e
000002f0: b378 dc3d c3b4 0ebe f6cc 07be 2267 27be
00000300: e62b babb 1ffe 453e 60c0 183e d089 053d
00000310: a72e 203e 896e 933c 4067 8e3d 9876 a2bd
00000320: d5f0 493d b10a 4d3d 7c66 eabd 6a52 6b3c
00000330: 2fb1 933d a51c ffbc 65e4 143d 7fda 08be
00000340: 0a75 06be cba1 babd 3f95 2a3e c288 563d
00000350: 0451 1cbe f218 f43d aa8b bb3d 69da f23d
00000360: f80e 9fbd f289 babc c71d 51bc 6d7a 803e
00000370: 057c 68bd de04 14be 9fbc b83d 6fbb 093e
00000380: 2664 a83d d980 4f3d dffa d0bd af1f d2bd
00000390: e455 0abe f65c 933d 3660 e83d a805 433d
000003a0: 4054 a23d a690 0c3d b53a cebc d4ea 343e
000003b0: cae9 92bc bd29 d53d a478 b93d 8031 093e
000003c0: 75fd 62bc 1f9b 48bd 25af a1bc fefc fd3d
000003d0: c8ea 2b3e 5d62 563d 65b2 6fbd 0741 433d
000003e0: b169 b1bc f72c 38bd a392 bbbd 1ca4 54bd
000003f0: ae3a d43d e30c 103d 355a 8dbd 9c64 1b3e

mlp.0.weight f4 [256, 256]
0.0070453463 0.049254995 -0.02224718 -0.06748897 0.052504692 -0.07611655 0.02425902 -0.027340123
-0.055549424 0.032966614 -0.030162344 -0.034144647 0.00085744885 0.0037161666 -0.06719227 -0.030643256
-0.00021561359 0.043785676 -0.040160716 -0.011760131 -0.038431663 0.036001384 -0.012355175 -0.029820442
-0.038268503 -0.0420107 -0.058999263 0.02323232 -0.01393672 0.03141543 -0.005691632 0.0677544
0.05025267 0.046645544 0.00046654316 0.06703458 0.03149376 -0.007841363 0.029465104 -0.015478322
-0.08581674 0.047018755 0.027021741 0.043776013 0.05988072 -0.0044738012 -0.010396147 0.03260191
0.049118847 -0.00024471348 0.030467693 0.020123215 -0.053897563 -0.19250886 -0.077202834 0.07624343
-0.05977447 -0.03245693 0.008730693 -0.03851878 -0.01208326 0.013593582 -0.037763305 -0.011425371
-0.044645697 0.03484454 -0.0005319884 0.00043418544 -0.029390838 0.030332008 0.040903628 0.04457017
0.023835326 0.083366625 -0.01708341 -0.0070757917 -0.070930086 0.052061662 0.00633531 0.0010358578
0.034167685 0.055493668 0.009725368 0.057847876 -0.005568223 -0.0377592 0.0038991226 -0.04467196
0.034662265 -0.019486269 -0.011935439 0.048928116 0.017555134 0.029189954 -0.04592076 0.028950725
0.08156156 -0.005328394 -0.009196062 -0.00090342184 0.054627217 0.06749567 0.028871307 0.0073628123
-0.10468636 0.032377917 0.036429986 -0.037144873 -0.027132016 0.0017893255 0.03568036 0.0075161154
-0.052095205 0.050462935 -0.0903793 -0.03903982 -0.012927406 -0.03827661 0.086581156 0.014104319
0.063614495 0.05980383 -0.07226245 0.043284997 0.005207008 0.027625335 -0.0010992017 0.033389747
0.087712765 -0.038084593 0.050371926 0.02461547 0.039752744 0.0069107404 0.076794095 0.004647671
0.13886888 0.058694065 -0.022794986 0.037940048 0.03290688 -0.021050869 0.0723153 0.054565392
0.0031442363 0.0032256145 0.032034513 -0.08177546 -0.025189852 -0.07502467 0.0009045472 0.02200893
0.09336304 -0.06515717 0.048705563 -0.06287991 -0.023932874 -0.013534204 -0.07267786 -0.0024940982
-0.041555814 0.04325996 0.059285726 0.08488472 -0.05025223 0.022228992 -0.04399729 -0.07732687
0.012025942 0.024495792 0.061689377 0.06425916 -0.024047019 0.047535982 0.035611026 0.057607897
-0.003672767 0.02519825 -0.055790737 0.05149412 0.07211422 -0.050185632 0.063034095 0.09684577
0.049279112 -0.024111656 0.07622465 0.06515734 -0.012012126 0.00919375 -0.02362352 0.055814072
0.032617148 0.028099235 0.031625364 -0.014464495 0.040741418 -0.013455855 0.04473154 -0.021235833
-0.050173298 -0.02108256 0.04511024 0.0031175108 0.07321692 -0.061402127 -0.022133855 -0.05362891
0.05834892 -0.0014929805 -0.013849779 -0.024308713 0.017158968 0.0677238 -0.052422117 0.05643546
0.004248485 -0.0052387845 -0.004980465 -0.015788803 -0.026570044 0.0026073693 -0.06432545 0.035620693
0.02562043 -0.018262869 -0.047212552 0.07822845 0.07382466 0.033684373 0.03625743 0.076441765
-0.021699762 0.0053675827 0.120821625 -0.037742954 -0.011176476 0.004574147 -0.021631012 0.10582408
0.08166207 -0.04067916 0.03215656 -0.062072 0.037858117 0.054154668 -0.06713594 0.022368196
0.04268286 0.030696306 0.0842887 0.030394845 0.055532172 0.021899732 0.0156089915 0.016305646
00000000: a6dc e63b 9bbf 493d b83f b6bc a837 8abd
00000010: 290f 573d fee2 9bbd daba c63c 65f8 dfbc
00000020: cb87 63bd 0008 073d 0517 f7bc 42db 0bbd
00000030: 6bc6 603a ee8a 733b 1a9c 89bd 9107 fbbc
00000040: 5516 62b9 9c58 333d 907f 24bd 91ad 40bc
00000050: 856a 1dbd 3076 133d 5c6d 4abc 004a f4bc
00000060: 6fbf 1cbd 6913 2cbd 36a9 71bd b551 be3c
00000070: d756 64bc 77ad 003d df80 babb d2c2 8a3d
00000080: bed5 4d3d 660f 3f3d 5d9a f439 6d49 893d
00000090: 9aff 003d 0f79 00bc cd60 f13c ca98 7dbc
000000a0: b0c0 afbd bd96 403d b35c dd3c 7a4e 333d
000000b0: 7c45 753d f798 92bb 9a54 2abc 9589 053d
000000c0: d830 493d e34c 80b9 6297 f93c 71d9 a43c
000000d0: b1c3 5cbd 0b21 45be 851c 9ebd 8425 9c3d
000000e0: 13d6 74bd 8ff1 04bd 2e0b 0f3c dec5 1dbd
000000f0: def8 45bc 9eb7 5e3c b2ad 1abd 7b31 3bbc
00000100: 68de 36bd 26b9 0e3d 2375 0bba 62a3 e339
00000110: 0ec5 f0bc d57a f83c 908a 273d 368f 363d
00000120: 4d42 c33c 1fbc aa3d 82f2 8bbc 0bdc e7bb
00000130: cb43 91bd 9c3e 553d 6f98 cf3b 9fc5 873a
00000140: 6af3 0b3d 544d 633d 2657 1f3c e5f1 6c3d
00000150: a475 b6bb 64a9 1abd 6c88 7f3b f2f9 36bd
00000160: 05fa 0d3d aba1 9fbc dc8c 43bc d968 483d
00000170: c9cf 8f3c c51f ef3c 6817 3cbd 122a ed3c
00000180: bf09 a73d cf99 aebb 14ab 16bc 9dd3 6cba
00000190: cac0 5f3d 2b3b 8a3d 8583 ec3c bf43 f13b
000001a0: cd65 d6bd b59e 043d 9c37 153d 3925 18bd
000001b0: f643 debc cd87 ea3a 9225 123d bf49 f63b
000001c0: c861 55bd 39b2 4e3d c818 b9bd 38e8 1fbd
000001d0: 78cd 53bc efc7 1cbd 7651 b13d cd15 673c
000001e0: 5148 823d dcf4 743d 56fe 93bd 9c4b 313d
000001f0: 8d9f aa3b 874e e23c 1713 90ba b0c3 083d
00000200: c0a2 b33d 97fe 1bbd cb52 4e3d 62a6 c93c
00000210: c6d3 223d 7e73 e23b 3946 9d3d 7d4b 983b
00000220: a533 0e3e 3069 703d 8dbc babc 0667 1b3d
00000230: 5dc9 063d df72 acbc 0b1a 943d f67f 5f3d
00000240: 880f 4e3b d564 533b 9f36 033d e479 a7bd
00000250: f35a cebc 89a6 99bd 231f 6d3a 124c b43c
00000260: 1f35 bf3d 1f71 85bd 7c7f 473d 2fc7 80bd
00000270: e00e c4bc 91be 5dbc 21d8 94bd 0674 23bb
00000280: 6e36 2abd 5b31 313d 97d5 723d 0ad8 ad3d
00000290: 48d5 4dbd 9319 b63c 8136 34bd 8d5d 9ebd
000002a0: 7508 453c 66ab c83c 00ae 7c3d 4e9a 833d
000002b0: 41fe c4bc 17b5 423d dedc 113d 42f6 6b3d
000002c0: ceb2 70bb 8f6c ce3c d484 64bd 80eb 523d
000002d0: 9fb0 933d 738f 4dbd 0518 813d 1357 c63d
000002e0: e5d8 493d cf85 c5bc ab1b 9c3d 3671 853d
000002f0: 82ce 44bc 62a1 163c 1d86 c1bc 4c9d 643d
00000300: 8f99 053d 5e30 e63c 9989 013d 7dfc 6cbc
00000310: 79e0 263d f275 5cbc 6b38 373d c5f6 adbc
00000320: 8482 4dbd 55b5 acbc 84c5 383d 274f 4c3b
00000330: c1f2 953d cc80 7bbd 0f52 b5bc fda9 5bbd
00000340: 47ff 6e3d 1db0 c3ba 2fea 62bc 1123 c7bc
00000350: f790 8c3c c7b2 8a3d 93b8 56bd de28 673d
00000360: e036 8b3b 1caa abbb 2b33 a3bb 8557 81bc
00000370: 6ca9 d9bc 66e0 2a3b 10bd 83bd 01e7 113d
00000380: f0e1 d13c 039c 95bc f361 41bd 3d36 a03d
00000390: 6231 973d a0f8 093d ac82 143d 808d 9c3d
000003a0: b3c3 b1bc 8ce2 af3b 5471 f73d 5b98 1abd
000003b0: 8a1d 37bc bae2 953b 8533 b1bc 4cba d83d
000003c0: 713e a73d 319f 26bd 99b6 033d 363f 7ebd
000003d0: 1d11 1b3d 49d1 5d3d 917e 89bd 823d b73c
000003e0: 39d4 2e3d d276 fb3c 8e9f ac3d 9cfe f83c
000003f0: b475 633d 1167 b33c dbbc 7f3c 6b93 853c

mlp.0.bias f4 [256]
-0.06251953 -0.010590107 -0.047336925 -0.014977471 -0.07333857 -0.038130213 -0.026274627 -0.013971375
-0.07250237 0.01659108 0.036251467 0.039538503 -0.051536523 -0.023864863 -0.03963972 0.024931911
0.02454109 -0.0223612 0.016397975 0.037083 0.022784041 -0.052532718 0.03900709 -0.010225228
-0.059125427 0.022105247 0.019159203 -0.073536254 0.043839734 -0.03997496 0.053098004 -0.01461425
-0.027551051 -0.04369692 0.026712539 0.058218718 -0.03572273 0.027084041 0.06582936 -0.016664155
-0.029416129 -0.005677091 -0.043476395 0.011961199 -0.031989116 -0.0219211 -0.0081534665 0.021383543
-0.050967086 -0.07872699 -0.029474262 0.0022363977 0.03634644 -0.0018562139 -0.0405135 -0.029491058
-0.07387265 0.016148511 -0.0569095 0.001960088 0.027134415 0.050224297 -0.03896283 0.002258424
0.028790595 -0.04595965 -0.0006625589 0.048623234 0.020898977 -0.033618342 -0.013559308 -0.026137706
0.021889154 -0.05679892 -0.03061697 0.021239672 -0.011432113 0.027714 -0.023486463 -0.008491739
-0.04377697 -0.011031183 0.053216264 0.0008053339 -0.017167287 0.045102898 -0.0394265 -0.032687157
0.005423375 0.059892528 -0.04854923 -0.023136847 -0.030921465 -0.041504778 -0.0038078146 -0.03983492
0.013113132 -0.013947362 -0.008821932 -0.04060108 0.0056014936 0.033514656 -0.027371412 -0.06795608
-0.032863468 0.044818293 0.035056666 -0.028936148 0.0056662443 -0.044221062 -0.023983123 0.02455763
0.022285506 -0.0131651005 -0.049702022 -0.022396076 -0.048023626 -0.01530619 -0.052835613 0.023062732
-0.037632655 0.032861166 -0.029830439 -0.014098167 -0.029091522 -0.001805308 -0.038156413 0.051663686
0.0242344 -0.002921099 -0.017973006 -0.001124527 0.041272156 0.025306696 -0.0159911 0.015434576
-0.052293796 -0.022914277 -0.07053978 -0.026395336 -0.010345261 -0.0012889035 0.04695037 -0.03728081
-0.08399623 0.035641257 -0.056430925 0.03468485 -0.036437362 0.028396912 -0.06881878 -0.023543896
-0.0357294 0.055223882 -0.036632575 0.015382591 0.046979655 -0.031696018 -0.046243206 0.049496934
-0.055415668 0.020903936 -0.009630937 0.045138415 -0.06498342 0.041860756 -0.04384264 0.03953097
0.06863492 -0.0009935743 -0.077538274 -0.016270885 0.034716222 0.07496869 -0.0077796145 0.02766711
0.06525471 -0.02159747 -0.047968388 -0.0075116595 0.011970918 -0.065432 0.030600587 0.00043554185
-0.0031185572 -0.05986517 0.016534587 0.054350764 -0.05911218 -0.016489895 0.028594995 -0.039630618
-0.053937037 -0.03569696 -0.047199354 0.04113484 -0.016079063 0.010658754 -0.04400983 -0.061873112
-0.026394382 0.07789742 0.03211441 -0.03875907 0.00363011 0.012805307 0.031295493 -0.08095167
-0.017436456 0.0056216484 -0.035625406 0.0656682 -0.08861934 0.028722778 -0.029083747 0.0494826
0.050018627 -0.0393575 0.048508734 -0.009500754 -0.017095292 0.020935867 -0.004342782 -0.06669908
-0.024362987 0.029982604 -0.022848915 0.0013771247 -0.06846329 -0.035890017 -0.031002795 -0.044598628
0.022385763 -0.007608155 0.00726905 0.058364697 -0.02237572 -0.06466907 -0.018880634 0.022239508
-0.062260836 -0.041676544 0.028041022 0.008830892 -0.032376204 -0.08397102 0.00088057347 -0.06469848
0.07514816 0.019783236 0.041481104 -0.0044012857 -0.030708203 -0.04851741 -0.046345063 0.0012005939
00000000: 3d0a 80bd 2182 2dbc 5de4 41bd 1164 75bc
00000010: 8832 96bd 6d2e 1cbd e33d d7bc 32e8 64bc
00000020: 1f7c 94bd 04ea 873c 6b7c 143d 20f3 213d
00000030: f617 53bd 3f80 c3bc 425d 22bd 023e cc3c
00000040: 650a c93c d62e b7bc 0c55 863c 58e4 173d
00000050: 99a5 ba3c 8c2c 57bd e6c5 1f3d b787 27bc
00000060: 812d 72bd 1016 b53c c3f3 9c3c 2d9a 96bd
00000070: 4b91 333d c9bc 23bd 4b7d 593d 9b70 6fbc
00000080: beb2 e1bc 8bfb 32bd 41d4 da3c c076 6e3d
00000090: ff51 12bd 5adf dd3c 8bd1 863d 4483 88bc
000000a0: 18fa f0bc e406 babb 4e14 32bd e8f8 433c
000000b0: 0507 03bd e193 b3bc 1e96 05bc 8a2c af3c
000000c0: ddc2 50bd 9e3b a1bd 0274 f1bc 8790 123b
000000d0: 01e0 143d 344c f3ba 7cf1 25bd 3b97 f1bc
000000e0: 8b4a 97bd e249 843c f019 69bd d274 003b
000000f0: fe48 de3c feb7 4d3d 7d97 1fbd 1102 143b
00000100: 41da eb3c 3040 3cbd 93af 2dba 2829 473d
00000110: 5534 ab3c 63b3 09bd dc27 5ebc be1e d6bc
00000120: e250 b33c fca5 68bd 71d0 fabc d2fe ad3c
00000130: c24d 3bbc 7808 e33c af66 c0bc ef20 0bbc
00000140: 7b4f 33bd 23bc 34bc 4cf9 593d 0b1d 533a
00000150: 69a2 8cbc d1bd 383d af7d 21bd f8e2 05bd
00000160: 91b6 b13b de51 753d 8fdb 46bd 7c89 bdbc
00000170: 034f fdbc ea00 2abd 878c 79bb f129 23bd
00000180: 76d8 563c 7a83 64bc dd89 10bc 514d 26bd
00000190: bc8c b73b aa46 093d 033a e0bc 8f2c 8bbd
000001a0: d89b 06bd 6393 373d 9497 0f3d 800b edbc
000001b0: e7ab b93b 2521 35bd 4178 c4bc 152d c93c
000001c0: 1890 b63c 6fb2 57bc 5994 4bbd fa77 b7bc
000001d0: 6cb4 44bd d0c6 7abc 286a 58bd 0eee bc3c
000001e0: b324 1abd 6e99 063d f75e f4bc 00fc 66bc
000001f0: 5851 eebc 16a0 ecba e649 1cbd 4d9d 533d
00000200: 3887 c63c e96f 3fbb 203c 93bc dd64 93ba
00000210: fe0c 293d fd4f cf3c c4ff 82bc 4ee1 7c3c
00000220: 0532 56bd b9b6 bbbc 2977 90bd 083b d8bc
00000230: 2b7f 29bc 6df0 a8ba 084f 403d c3b3 18bd
00000240: 3706 acbd 91fc 113d 1d24 67bd b411 0e3d
00000250: 583f 15bd a4a0 e83c dcf0 8cbd 21df c0bc
00000260: fe58 12bd 7032 623d 0a0c 16bd 4307 7c3c
00000270: bd6d 403d afd3 01bd 8469 3dbd 4cbd 4a3d
00000280: 8afb 62bd bb3e ab3c 14cb 1dbc 0fe3 383d
00000290: 0716 85bd 2f76 2b3d 5794 33bd 3aeb 213d
000002a0: 7790 8c3d d23a 82ba 63cc 9ebd 854a 85bc
000002b0: 9932 0e3d 2f89 993d 23ec febb 23a6 e23c
000002c0: 43a4 853d 2ded b0bc 807a 44bd 5e24 f6bb
000002d0: ab21 443c 3601 86bd 15ae fa3c 7059 e439
000002e0: b560 4cbb 2e35 75bd 8b73 873c e89e 5e3d
000002f0: 9d1f 72bd d115 87bc 0d40 ea3c b753 22bd
00000300: 15ed 5cbd fa36 12bd 1c54 41bd 027d 283d
00000310: 3db8 83bc 0ea2 2e3c a743 34bd a96e 7dbd
00000320: 0839 d8bc af88 9f3d 668a 033d d5c1 1ebd
00000330: 24e7 6d3b 5acd 513c b42f 003d fdc9 a5bd
00000340: e6d6 8ebc ce35 b83b f2eb 11bd 0d7d 863d
00000350: 0e7e b5bd 084c eb3c 0a41 eebc 44ae 4a3d
00000360: 55e0 4c3d 5435 21bd 18b1 463d 0da9 1bbc
00000370: 6d0b 8cbc b281 ab3c e54d 8ebb 8799 88bd
00000380: e394 c7bc 149e f53c a62d bbbc a380 b43a
00000390: 7b36 8cbd 6901 13bd 93f9 fdbc 0dad 36bd
000003a0: 5962 b73c d44d f9bb 3631 ee3b d20f 6f3d
000003b0: 494d b7bc 3871 84bd 8fab 9abc a12f b63c
000003c0: 3805 7fbd 06b5 2abd 49b6 e53c 72af 103c
000003d0: e99c 04bd 00f9 abbd 49d6 663a a380 84bd
000003e0: 47e7 993d 7410 a23c 17e8 293d a938 90bb
000003f0: c58f fbbc 31ba 46bd 52d4 3dbd 3f5d 9d3a
