results/pMTnet_0123_4.pth (torch, 730642 bytes, 11 tensors)

conv1.att_src f4 [1, 8, 16]
0	0xbd85166c	-0.06498417
1	0xbe4ee652	-0.20205048
2	0xbe9aeedb	-0.30260357
3	0xbec2145a	-0.37906152
4	0xbe63ec84	-0.22258192
5	0x3e8b6a8d	0.2722973
6	0xbe2eb287	-0.1706029
7	0xbe06d5ef	-0.13167547
8	0xbea26c40	-0.31723213
9	0xbe7d9d53	-0.24767046
10	0x3ef0fefa	0.47069532
11	0x3eccbc70	0.39987516
12	0x3e5ca7db	0.21548407
13	0xbdcbf6b1	-0.09959162
14	0xbe13c147	-0.14429198
15	0xbce9a417	-0.028520627
16	0xbde5e4c3	-0.112252735
17	0xbd114785	-0.035468597
18	0x3e9b8b69	0.303798
19	0x3d756e2b	0.059919517
20	0x3e711b87	0.23545657
21	0x3e0c72da	0.13715687
22	0xbe9d9eb6	-0.3078515
23	0x3ef4e94f	0.4783425
24	0xbec3b6c9	-0.38225392
25	0xbe866d66	-0.2625534
26	0x3cf7b403	0.030237203
27	0x3ef2d029	0.4742444
28	0xbed1442b	-0.4087232
29	0xbe5702d6	-0.20997176
30	0x3e2e487b	0.17019837
31	0xbd3bb77f	-0.045829292
32	0xbe7d92ee	-0.2476308
33	0xbe402f93	-0.18768148
34	0xbe035a76	-0.12827477
35	0xbda1936e	-0.07889448
36	0x3e60bc65	0.21946867
37	0xbd2ef4ba	-0.04271386
38	0x3c370c09	0.011172303
39	0x3dcb9ad1	0.09941638
40	0x3eed3b12	0.4633413
41	0xbe9b798a	-0.30366164
42	0x3d565105	0.05232336
43	0x3e113632	0.1418083
44	0x3eb8a3d3	0.36062488
45	0xbe53cabf	-0.2068281
46	0x3ecf7807	0.4052126
47	0x3e8beb58	0.2732799
48	0xbe4bfb2a	-0.1992003
49	0x3e6f6ca6	0.2338129
50	0xbd3481b6	-0.044069014
51	0xbe67c982	-0.22635463
52	0x3e5c61ec	0.21521729
53	0x3e88a1ac	0.26685846
54	0xbeca8c52	-0.3956018
55	0x3e1a0783	0.15041928
56	0xbe971801	-0.295105
57	0x3ed4783d	0.41497985
58	0x3ad30449	0.00160993
59	0x3e142859	0.14468516
60	0x3e76fe4a	0.24120441
61	0xbe5d1304	-0.21589285
62	0xbe8e246a	-0.27762157
63	0x3e29f282	0.16596416
64	0x3e1dd8d1	0.1541474
65	0xbe857b46	-0.26070613
66	0xbeab75df	-0.33488366
67	0x3e9048ca	0.28180534
68	0xbe0a3ec5	-0.13500507
69	0x3edfff09	0.43749264
70	0xbeede2c9	-0.46462086
71	0xbef3eaa2	-0.47639948
72	0x3edacccc	0.42734373
73	0x3eb136ef	0.34612224
74	0x3e9b3ed1	0.30321363
75	0xbe409e3d	-0.18810363
76	0xbe842b16	-0.25814122
77	0xbe4f9bae	-0.20274231
78	0x3eae4be3	0.34042272
79	0xbef9651b	-0.4870995
80	0x3daa9267	0.08328705
81	0x3ebd95a6	0.37028235
82	0xbeb0bd03	-0.34519204
83	0xbec4be31	-0.38426355
84	0xbee2208a	-0.4416545
85	0x3e2e6ff3	0.17034893
86	0x3e06ee7d	0.13176914
87	0xbeb7b2a1	-0.3587847
88	0x3e4e1450	0.20124936
89	0xbbd5e36e	-0.006527356
90	0xbe70fbde	-0.2353358
91	0x3d900234	0.0703167
92	0x3ee2efe4	0.44323647
93	0x3e9368b9	0.28790835
94	0xbe21502f	-0.15753244
95	0xbefaa462	-0.4895354
96	0xbe827336	-0.25478524
97	0xbdc228d5	-0.09480444
98	0x3eba87bc	0.36431682
99	0x3eb6a2c4	0.35671055
100	0x3e9a9e22	0.3019877
101	0xbe9cc083	-0.30615625
102	0x3e149f69	0.14513935
103	0x3e26f373	0.16303806
104	0xbd89bdd0	-0.06725657
105	0xbecb3c40	-0.39694405
106	0x3e9d640a	0.30740386
107	0x3de83d47	0.11339813
108	0xbe86e78f	-0.2634854
109	0xbc6fe216	-0.014641305
110	0xbd14f997	-0.03637084
111	0x3ec3a2cd	0.38210145
112	0xbe3fecd3	-0.18742685
113	0xbe605bb5	-0.21909983
114	0xbe09f772	-0.13473299
115	0xbe8c73dc	-0.27432144
116	0x3d36b72c	0.04460828
117	0x3e98537d	0.29751197
118	0xbe252d83	-0.16130643
119	0x3e524043	0.20532326
120	0xbe197047	-0.14984237
121	0x3d2692c3	0.040667307
122	0xbe940d9c	-0.28916633
123	0x3df00446	0.11719565
124	0x3e81c993	0.253491
125	0xbddae29b	-0.10687753
126	0x3e4b247d	0.19838138
127	0x3ea5384d	0.32269517

conv1.att_dst f4 [1, 8, 16]
0	0xbebc72f0	-0.3680644
1	0xbe85f545	-0.26163688
2	0xbd8ea426	-0.069649026
3	0x3d510c87	0.051037338
4	0xbea8d2f9	-0.3297346
5	0xbe4525a8	-0.19252646
6	0x3e158b0d	0.14603825
7	0x3ddb138f	0.1069709
8	0xbead681b	-0.3386849
9	0xbe1bb692	-0.15206364
10	0x3e84ef48	0.25963807
11	0x3dbe422a	0.092899635
12	0x3e49bcb9	0.19700898
13	0x3e1bd86e	0.1521928
14	0x3ddd5f22	0.10809161
15	0xbe08f37c	-0.13374132
16	0xbdbbf4a0	-0.09177518
17	0x3da06312	0.07831396
18	0x3d973af6	0.07384293
19	0xbe2576fc	-0.1615867
20	0x3ec490b3	0.38391647
21	0x3e374244	0.17896372
22	0x3e90b5cb	0.28263697
23	0x3dbb93ea	0.09159072
24	0x3e01c73b	0.12673657
25	0xbe4716df	-0.19442318
26	0xbdcde6f1	-0.10053814
27	0x3e779e3f	0.2418146
28	0xbcdc763f	-0.026911853
29	0xbe4c6768	-0.19961321
30	0x3e860595	0.26176134
31	0xbe21400e	-0.15747091
32	0xbe8a0c8d	-0.269627
33	0x3d632698	0.055456728
34	0xbdb84b15	-0.08998696
35	0xbebf48cb	-0.37360224
36	0x3d62abe7	0.05533972
37	0xbdf4afe5	-0.11947612
38	0xbe3c1366	-0.18366775
39	0x3ecb8e3e	0.3975696
40	0xbe9b8f7d	-0.3038291
41	0x3ea141d6	0.3149554
42	0x3d9f3dbf	0.07775449
43	0x3ef8903a	0.48547536
44	0x3e88960f	0.26676986
45	0xbe44a2af	-0.19202684
46	0xbed52ced	-0.41635838
47	0xbe96d53c	-0.2945956
48	0xbc9f433f	-0.019441245
49	0x3e1d6d12	0.15373638
50	0x3e21ff36	0.15820011
51	0xbe674a54	-0.22586948
52	0xbe5a1ed7	-0.21300827
53	0x3de514b0	0.111855865
54	0xbc8db37d	-0.0172975
55	0xbe32fd6b	-0.17479484
56	0x3df8546e	0.12125479
57	0x3d99423d	0.07483337
58	0xbe9e9b9c	-0.30978096
59	0xbdee54b3	-0.11637249
60	0x3e271a51	0.16318633
61	0x3b817323	0.003950493
62	0x3cd39d2f	0.025831787
63	0x3e8f0990	0.27936983
64	0xbc43cb82	-0.0119503755
65	0x3d8a3e0a	0.06750114
66	0x3b46475f	0.0030254943
67	0xbbf10424	-0.00735523
68	0xbc4749cf	-0.012163593
69	0x3d946499	0.0724575
70	0x3d6e1a48	0.058130533
71	0x3d8d1e97	0.068906
72	0xbcf4a7e5	-0.029865215
73	0xbdb8ce9a	-0.09023781
74	0xbe077e19	-0.13231696
75	0xbc2683e7	-0.010163284
76	0xbd81c1de	-0.06335805
77	0xbee99635	-0.4562241
78	0x3ed7da5a	0.42158777
79	0xbde72bc3	-0.11287644
80	0x3c54f01f	0.012996702
81	0x3cdccc1e	0.0269528
82	0x3e72c04c	0.23706168
83	0xbb1e0e6f	-0.002411749
84	0xbe1b38d2	-0.15158394
85	0x3e0aeab3	0.13566093
86	0xbebca746	-0.3684637
87	0x3ddad5df	0.10685324
88	0x3e9de648	0.30839753
89	0xbbac5668	-0.005259324
90	0xbb6c77fa	-0.0036082254
91	0x3e9702ba	0.29494268
92	0x3ddf3c1e	0.10900138
93	0x3c5bb719	0.013410353
94	0xbdda5c85	-0.10662178
95	0x3dfaf4d4	0.122537285
96	0xbcf843a0	-0.030305684
97	0x3ecce598	0.40018916
98	0xbe053997	-0.1301025
99	0x3d99853a	0.07496114
100	0xbeb021e4	-0.34400856
101	0xbcef82b1	-0.029237123
102	0xbeae9cd0	-0.34104013
103	0x3dff861b	0.124767505
104	0x3dfc9a25	0.12334088
105	0x3dd2be0d	0.102901556
106	0x3da82e93	0.08212008
107	0x3e3292c9	0.17438807
108	0xbd57e3f4	-0.052707627
109	0x3ebfcf49	0.37462834
110	0xbee3de52	-0.44505554
111	0xbe38d754	-0.18050891
112	0x3d1556d9	0.036459778
113	0xbe86720a	-0.2625888
114	0xbe9e1129	-0.30872467
115	0xbd942587	-0.0723372
116	0x3d6a8c46	0.05726268
117	0x3c8f96d6	0.017527979
118	0xbe88864f	-0.2666497
119	0xbe28feef	-0.165035
120	0x3d834db9	0.06411309
121	0x3eb80c26	0.3594677
122	0xbeb525b6	-0.35380334
123	0xbe2414a9	-0.16023506
124	0xbc81e4b1	-0.015856119
125	0xbd817c22	-0.063225046
126	0xbea72056	-0.32641858
127	0xbe451972	-0.19247988

conv1.bias f4 [128]
0	0x3c95e130	0.018295854
1	0x3b804b44	0.0039152224
2	0x3aa8f190	0.0012889374
3	0x3c577fb2	0.0131530035
4	0x3d020ab3	0.031748485
5	0xbb87ca90	-0.0041440204
6	0x3c0875ea	0.008328894
7	0xbc6bb942	-0.014387431
8	0xbb563fff	-0.0032691953
9	0x3c4a7f37	0.012359432
10	0x3ba4c1a5	0.005027967
11	0x3c3dcdbe	0.011584697
12	0xbabb502a	-0.0014290859
13	0x3c76f74a	0.015073607
14	0x3c16445d	0.0091715725
15	0x3be0d75b	0.00686161
16	0x3cc9dba1	0.02464086
17	0xbbbf815c	-0.0058442783
18	0x3c1f2697	0.00971379
19	0xbc355406	-0.011067396
20	0xbc7872b1	-0.015164063
21	0xbc105bd7	-0.008810959
22	0x3be96679	0.0071228114
23	0xbc8a6c34	-0.016897298
24	0x3ca0dade	0.019635614
25	0xbc4f674a	-0.012658903
26	0x3b8408fe	0.0040293923
27	0xbb8c779c	-0.0042867195
28	0x3ca8534e	0.020547535
29	0x3c03b1f6	0.008038035
30	0x3c45beb0	0.012069389
31	0x3c28b419	0.010296845
32	0xbc9e2591	-0.019305022
33	0xbbb08c2f	-0.005387805
34	0xbc0ac84e	-0.008470608
35	0xbc3bdab6	-0.011465719
36	0xbbe91884	-0.007113518
37	0x3b21cb7a	0.0024687932
38	0x396a39b6	0.00022337478
39	0x3d176cb3	0.036968898
40	0x3c45b9a4	0.012068186
41	0xbaaf9baa	-0.0013397832
42	0x3bab84c1	0.0052343314
43	0x3d1e2270	0.03860706
44	0x3d7be9b6	0.06150218
45	0xbc12c5a9	-0.008958259
46	0x3b55fdbf	0.0032652465
47	0x3b1cef36	0.0023946292
48	0x3b272794	0.0025505768
49	0x3c4dd846	0.012563771
50	0xbb2b2a83	-0.0026117868
51	0x3bc0c883	0.005883278
52	0x3c4c89f8	0.012484066
53	0xbc7474a5	-0.014920388
54	0x3c9c2dba	0.019064773
55	0xbc03692a	-0.008020679
56	0x3b130078	0.00224307
57	0x3c24119b	0.010013963
58	0x3a8721d4	0.0010309764
59	0x3bb83a41	0.005622179
60	0xbc2c090b	-0.010500203
61	0x3c0f3156	0.00873979
62	0x3c425879	0.011861914
63	0x3ba2900b	0.004961019
64	0xbc033a9e	-0.008009581
65	0x3c4dd523	0.012563023
66	0x3b2ebb91	0.0026662091
67	0xbb4d98bd	-0.0031371557
68	0x3b586c9b	0.0033023718
69	0xbc87b864	-0.016567416
70	0x3c2c82ae	0.010529203
71	0xbc12a907	-0.008951432
72	0x3c79b55e	0.015240995
73	0x3c52e9ba	0.012873108
74	0xbb4b5e5e	-0.003103159
75	0x3b9e472a	0.0048302608
76	0x3ca384db	0.019960811
77	0x3c4c92bc	0.012486156
78	0xbb856378	-0.0040706955
79	0x3b63dcb4	0.0034769
80	0x399d5d27	0.00030014777
81	0xbad03745	-0.0015885612
82	0x3ae52c23	0.0017484467
83	0x3a67f74e	0.0008848802
84	0x3ca44c08	0.020055786
85	0x3be41cd2	0.0069614435
86	0xbafb34ef	-0.0019165556
87	0x3b34bd2d	0.0027578578
88	0x3c451557	0.012029014
89	0x3b35bd4f	0.0027731245
90	0x3a3325da	0.00068339484
91	0x3b725aca	0.0036980384
92	0x3c04baf3	0.008101213
93	0x3c6d015c	0.014465656
94	0x3a426840	0.0007416047
95	0x3c29aad1	0.010355667
96	0x3c091788	0.008367427
97	0x3c82e7d5	0.015979687
98	0x3c3274d8	0.0108921155
99	0x3c2ac79e	0.010423569
100	0x3b87d6b2	0.0041454667
101	0x3b23d409	0.002499821
102	0x3c037698	0.00802388
103	0x3d145e12	0.036222525
104	0x3bf13379	0.0073608723
105	0xbc03e644	-0.008050505
106	0x3c8c2f06	0.017112266
107	0x3b82e17f	0.0039941664
108	0xbb55861c	-0.0032581156
109	0x3b91624f	0.004436768
110	0xbbf4f8dc	-0.0074759554
111	0x3c90b3c9	0.017663853
112	0x3c1c659a	0.009545708
113	0x3ba5f3f5	0.0050644823
114	0x3aabd8c7	0.0013110869
115	0x3b6050dc	0.0034227883
116	0x3c509f6d	0.012733323
117	0x3c1ed393	0.009693998
118	0x3c1c5a11	0.009542958
119	0x3be40b59	0.0069593606
120	0xb9e7dc21	-0.00044223762
121	0x3bcfa962	0.0063373307
122	0xbc3b0cf1	-0.01141666
123	0x3c70d04d	0.0146981
124	0x3c57e979	0.013178223
125	0xbb81f638	-0.003966119
126	0x3b806366	0.003918099
127	0x3befe5cc	0.007321095

conv1.lin.weight f4 [128, 768]
0	0x3cad7509	0.02117397
1	0xbc04e6f1	-0.008111701
2	0x3b924e00	0.0044648647
3	0x3d548aec	0.0518903
4	0x3c4dba20	0.012556583
5	0xbcbcccf9	-0.023046957
6	0x3c2edb74	0.010672439
7	0xbcb59adf	-0.022168575
8	0xbca77e6e	-0.020446029
9	0xbca7f18b	-0.020500919
10	0xbb349c4a	-0.0027558976
11	0xbd0daa54	-0.034586266
12	0x3c538534	0.012910176
13	0xbc90f051	-0.017692717
14	0x3d8f9c1c	0.070121974
15	0x3c1029f3	0.008799064
16	0xbd490fe3	-0.049087416
17	0xbca9053a	-0.020632375
18	0xbbb77c30	-0.005599521
19	0x3c47a63b	0.0121856285
20	0x3cf8a440	0.030351758
21	0x3c98b286	0.018639814
22	0xbd4f465c	-0.05060421
23	0x3c915bb0	0.017743915
24	0xbbd34161	-0.0064470028
25	0x3a5737f9	0.00082099397
26	0xbcbf3f18	-0.023345515
27	0xbbde48f4	-0.006783599
28	0x3be3fb9d	0.006957485
29	0xbce1b9a8	-0.027554348
30	0x38fa82b2	0.00011945273
31	0x3b912f39	0.004430678
32	0x3c363f70	0.011123523
33	0xbc5be470	-0.013421163
34	0xbbaf413b	-0.0053483522
35	0x3b8a52dc	0.0042213034
36	0xbcacca20	-0.021092474
37	0xbcaeee4a	-0.02135386
38	0x3cb1b45a	0.021692444
39	0xbc5e1863	-0.013555619
40	0xbcc9b97c	-0.024624579
41	0xbb1e95ce	-0.0024198177
42	0xbb0b662b	-0.0021270614
43	0x3ce81f84	0.02833534
44	0xbbbdb748	-0.005789671
45	0xbae57fc1	-0.0017509387
46	0xbb6683b2	-0.0035173711
47	0xbd020275	-0.031740624
48	0x3cd1a361	0.0255906
49	0x3b3c487a	0.0028729723
50	0xbd0bd6b2	-0.034140296
51	0xbc87655d	-0.016527826
52	0xbb30043d	-0.0026857995
53	0xbbc26ac7	-0.005933139
54	0x3d3b586b	0.04573862
55	0x3d461f2f	0.048369583
56	0xbc99d45c	-0.018778019
57	0x3bafab05	0.0053609633
58	0xbbf3dedf	-0.00744234
59	0xbb7ef13a	-0.0038901106
60	0x3ca13023	0.019676274
61	0x3c81dd4d	0.015852595
62	0xbcda853e	-0.026674863
63	0x3c8b60e8	0.017013982
64	0xbc27b938	-0.010237031
65	0x3cad8e1b	0.021185925
66	0x3c6d1ba3	0.014471921
67	0x3d1cbd06	0.038266204
68	0x3b92e6f6	0.004483099
69	0x3c4ab65c	0.012372579
70	0xbccbbf51	-0.0248715
71	0xbd347db8	-0.044065207
72	0x3ba4e3ce	0.0050320392
73	0x3cee66a4	0.029101677
74	0x3cd9f449	0.026605742
75	0xbc9f97ba	-0.019481529
76	0xbb27252b	-0.0025504332
77	0xbcbef332	-0.023309324
78	0x3bfaa4d8	0.0076490454
79	0xbcb59b12	-0.02216867
80	0x3d28c421	0.041202668
81	0xbb586eb5	-0.003302497
82	0xbca55a00	-0.020184517
83	0x3cc8a5be	0.024493095
84	0x3b813752	0.0039433623
85	0x3a29ee8b	0.0006482384
86	0x3c1a8e45	0.009433334
87	0x3b5b76c4	0.0033487538
88	0xbca1d0d0	-0.01975289
89	0x3ba37ace	0.0049890047
90	0xbce89f3b	-0.02839624
91	0x3c35d30f	0.011097684
92	0xbc63bebf	-0.013900458
93	0x3b04ebd9	0.0020282178
94	0xbd2372ba	-0.039904334
95	0xbd44bf41	-0.048033956
96	0xbbe5ae26	-0.0070092855
97	0xbc8b08fd	-0.01697206
98	0xbd6166c6	-0.055029653
99	0xbca7d002	-0.020484928
100	0x3bb4e758	0.0055207424
101	0xbc928c73	-0.017889237
102	0x39cb9cd1	0.00038836015
103	0xbc717104	-0.014736418
104	0xbb3800c5	-0.002807663
105	0x3b400cae	0.0029304433
106	0xbd82fa54	-0.063954026
107	0xbc9c60b4	-0.01908908
108	0x3d01bc09	0.031673465
109	0xba14a8c7	-0.0005670902
110	0x3cc109ca	0.023564238
111	0x3cff9b45	0.031201968
112	0xbc1ad527	-0.009450234
113	0xbb479fad	-0.0030460164
114	0xbc91263d	-0.017718429
115	0x3c13f64d	0.009030891
116	0x3d23f5c4	0.040029302
117	0x3c926ea2	0.01787502
118	0x3caf5574	0.021403052
119	0x3b87e768	0.004147459
120	0xbd567b1e	-0.052363507
121	0x3c42d26e	0.011890991
122	0xbc0a2b32	-0.00843315
123	0x3cb9bb42	0.0226723
124	0xbcc77cc8	-0.024351493
125	0xbc407823	-0.011747393
126	0x3cba8f97	0.022773547
127	0x3bcffc29	0.0063471985
128	0xbd73a8c9	-0.059487138
129	0xbc2e69ec	-0.010645371
130	0xbc9e4ac3	-0.019322759
131	0x3b95a3d0	0.004566647
132	0xbd070ddb	-0.032972198
133	0xbca3a686	-0.019976866
134	0x3cceaff6	0.02523039
135	0xbccd3199	-0.025048064
136	0xbc662983	-0.014047983
137	0x3c340cc6	0.010989374
138	0xbc835a19	-0.016034173
139	0xbce1c4e0	-0.027559698
140	0x3b8106a8	0.003937561
141	0xbbee6296	-0.007274936
142	0xbca2b958	-0.01986377
143	0xbd4916ca	-0.049094
144	0x3d0e7fbd	0.03478979
145	0x3c38ff89	0.011291393
146	0xbbc07c47	-0.00587419
147	0xbaf9b090	-0.0019049812
148	0xbb869517	-0.0041071284
149	0x3c1b8275	0.009491553
150	0xbd0d7043	-0.03453089
151	0x3d324f6f	0.043532785
152	0xbcbbcde1	-0.02292532
153	0x3c8f76b6	0.01751266
154	0xbd585c51	-0.052822415
155	0x3b9be760	0.0047578067
156	0x3c8f93b2	0.017526481
157	0xb9edbec7	-0.00045346303
158	0x3caba332	0.020951841
159	0x3cdb95f3	0.0268049
160	0x39071eda	0.00012886096
161	0xbba586f0	-0.005051486
162	0x3bb65911	0.0055648168
163	0x3c0d1068	0.008609869
164	0xbcb1f99f	-0.021725474
165	0xbc42cfbf	-0.011890351
166	0x3c8dc95b	0.017307928
167	0xbbf1bb1f	-0.007377043
168	0x3d07798e	0.033074908
169	0x3bae5f12	0.005321392
170	0x3b90411f	0.0044022943
171	0xba9ac9b1	-0.0011809376
172	0xbb9c99c6	-0.0047790734
173	0x3c8713f4	0.016489007
174	0x3bf75bc2	0.00754878
175	0x3c6afd76	0.014342656
176	0xbc49fd82	-0.012328507
177	0x3d041421	0.03224576
178	0x3cd261c6	0.025681388
179	0x3d027708	0.0318518
180	0x3d8382a8	0.06421405
181	0x3ce1323b	0.027489772
182	0xbbb247c5	-0.0054406845
183	0xbcc7b700	-0.024379253
184	0xbcb9a96e	-0.022663798
185	0x3d1d0e75	0.038343865
186	0xbc855d05	-0.016279707
187	0x3ba42e19	0.005010378
188	0xbc294ebd	-0.010333714
189	0x3b8f9111	0.004381307
190	0xbac87d45	-0.0015296122
191	0xbd8843bb	-0.066535436
192	0xbc03fd9e	-0.0080560725
193	0xbc913963	-0.01772756
194	0x3c1f3553	0.009717303
195	0xbbeee2c2	-0.007290215
196	0xbc8237de	-0.01589578
197	0x3c70e294	0.014702458
198	0xbc81f515	-0.015863935
199	0xba1fef5b	-0.00061010354
200	0x3cbf4e4b	0.023352763
201	0xbd875892	-0.0660869
202	0x3c0cd593	0.008595842
203	0xbc9c02c9	-0.019044297
204	0x3d2962e3	0.04135407
205	0xbc12710d	-0.008938086
206	0x3c6948ff	0.014238595
207	0x3c7f4cfb	0.015582318
208	0xbcaa31d7	-0.020775719
209	0xbd05cf5c	-0.032668456
210	0x3a881062	0.0010380859
211	0x3d8ffcf1	0.070306666
212	0xbc0bf0e7	-0.008541322
213	0xbb8fc940	-0.0043880045
214	0x3d65b0a3	0.056076657
215	0x3d46ee0b	0.04856686
216	0xbbf2df30	-0.00741186
217	0xbca02b55	-0.019551912
218	0xbae1dffe	-0.0017232893
219	0xbd4773eb	-0.048694532
220	0xbcade6de	-0.02122825
221	0x3bf3f781	0.0074452762
222	0xbca2e3af	-0.019883959
223	0xbc4aa8f2	-0.012369381
224	0x3c9b17ea	0.018932302
225	0x3aa38f92	0.00124787
226	0xbce71074	-0.028206088
227	0x3c99340e	0.01870158
228	0xbc284d8a	-0.010272393
229	0xbd758ec0	-0.05995059
230	0x3aabd37e	0.0013109294
231	0xbcba21f6	-0.022721272
232	0x3cb2cd29	0.021826344
233	0xbc3bdb16	-0.011465808
234	0xbc9b3463	-0.018945878
235	0xbd0324ee	-0.03201764
236	0x39112c60	0.00013844809
237	0x3c8bb046	0.017051827
238	0x3aef1895	0.0018241579
239	0x3b439b6c	0.0029847277
240	0x3cdd5191	0.027016433
241	0x3c683db0	0.014174864
242	0x3c43cc7e	0.01195061
243	0x3cfddb3a	0.030988324
244	0xbbc6910e	-0.0060597723
245	0x3bf706a0	0.0075386316
246	0xbd89defd	-0.06731985
247	0xbc722c48	-0.014781065
248	0xbcc14c99	-0.023596095
249	0xbbb6a341	-0.0055736606
250	0x3b69678c	0.0035614697
251	0x3cfaa2ef	0.03059527
252	0xbbb5fc91	-0.00555379
253	0xbbc5327b	-0.0060179806
254	0x3d21d47a	0.039509274
255	0x3ccefa6c	0.025265895

conv2.att_src f4 [1, 8, 16]
0	0x3ea18735	0.31548467
1	0xbde4e962	-0.11177327
2	0x3e964837	0.2935197
3	0x3e6d1634	0.23153001
4	0xbea51c07	-0.32247946
5	0xbd321a0b	-0.043481868
6	0x3e77e6af	0.24209093
7	0xbe596867	-0.21231233
8	0x3e21047d	0.15724368
9	0x3e75a72d	0.23989554
10	0xbdc9c475	-0.09851924
11	0x3ccdf912	0.02514318
12	0xbe43993b	-0.19101422
13	0x3e8d0f98	0.2755096
14	0x3e50753e	0.20357224
15	0xbec48fb1	-0.38390878
16	0xbccf8216	-0.025330584
17	0x3ed9e74f	0.42559287
18	0x3e0359e9	0.12827267
19	0x3ec3b5ba	0.38224584
20	0xbec178cf	-0.37787482
21	0x3d28d26a	0.04121629
22	0x3e9303fb	0.28713974
23	0x3ea80a12	0.32820183
24	0x3e36dcd9	0.17857684
25	0xbdf347db	-0.1187894
26	0x3e11dcbe	0.14244363
27	0x3dd760e7	0.105165295
28	0xbd95f555	-0.07322184
29	0x3dc75ec1	0.0973487
30	0xbef2b7ee	-0.47405952
31	0x3ea91d14	0.33029997
32	0x3cf344d3	0.029695904
33	0xbd55b51c	-0.052174672
34	0xbec67cc4	-0.38767064
35	0x3ed7135c	0.42006958
36	0x3ee5cc1c	0.44882286
37	0xbe30b707	-0.1725732
38	0xbe547d44	-0.2075091
39	0x3e5e687e	0.21719548
40	0x3ed28881	0.4111977
41	0x3ee59d38	0.4484651
42	0x3e458292	0.1928809
43	0x3e33699f	0.1752076
44	0xbee466bd	-0.44609633
45	0x3e0d8519	0.13820304
46	0x3e78de05	0.24303444
47	0xbec055b1	-0.37565377
48	0xbe992916	-0.2991416
49	0xbe6bdf24	-0.2303434
50	0x3ed1e383	0.4099389
51	0xbe8b9ca1	-0.27267936
52	0x3ddea1eb	0.10870727
53	0x3eb58602	0.35453802
54	0xbea42a0a	-0.32063323
55	0x3db24609	0.087047644
56	0xbd9d38cc	-0.07676849
57	0xbccc8600	-0.02496624
58	0x3eb01c8e	0.34396785
59	0xbd9e2879	-0.07722563
60	0x3ea082eb	0.31349882
61	0x3ec13b2c	0.37740457
62	0xbc49cd32	-0.012316989
63	0xbe020d88	-0.12700474
64	0xbdeabf53	-0.114622734
65	0xbcea8ec7	-0.028632535
66	0xbe0fc261	-0.14038993
67	0xbe83aabb	-0.25716195
68	0x3eb3308d	0.3499798
69	0x3ebfeedd	0.37486926
70	0x3eb1fc39	0.34762743
71	0xbe52d269	-0.20588078
72	0x3ec402c7	0.3828337
73	0x3edfd353	0.43715915
74	0xbd96cd60	-0.07363391
75	0xbe04bc6f	-0.12962507
76	0x3bc9c330	0.0061573014
77	0x3e4cec03	0.20011906
78	0x3d54914f	0.05189639
79	0xbeabdfb4	-0.3356911
80	0x3ea30199	0.31837156
81	0x3eb3e02a	0.3513196
82	0xbe9f5ac4	-0.31123936
83	0x3e8b09f5	0.27156034
84	0x3ddc9a44	0.10771611
85	0xbea72315	-0.32643953
86	0xbe86b4e5	-0.26309887
87	0x3e98b7aa	0.29827625
88	0xbe1b3f0e	-0.15160772
89	0x3ebc8511	0.36820272
90	0xbeb93a46	-0.36177272
91	0x3e9defe5	0.30847088
92	0xbe33361b	-0.17501108
93	0xbe338072	-0.17529467
94	0x3cba2573	0.022722935
95	0xbe6bcce8	-0.23027384
96	0xbe96c5c1	-0.2944775
97	0xbeadc922	-0.33942515
98	0x3cc00cbf	0.023443578
99	0xbe376136	-0.17908177
100	0x3e9b75e8	0.30363393
101	0xbeccb4b4	-0.39981616
102	0x3ede9ea7	0.43480417
103	0x3e30c6c9	0.1726333
104	0xbdf4712e	-0.1193565
105	0xbe1abafe	-0.15110394
106	0xbe8e802d	-0.27832165
107	0x3d55e00d	0.052215625
108	0x3eb5757d	0.354412
109	0x3e947244	0.28993428
110	0x3ee3055c	0.44340026
111	0xbe38709e	-0.1801171
112	0x3e2287fb	0.15872185
113	0x3ef35af4	0.4753033
114	0x3ed159fa	0.4088896
115	0xbe1157ad	-0.14193602
116	0xbe71e9ea	-0.23624387
117	0xbea87490	-0.3290143
118	0x3ecd1ec6	0.4006254
119	0x3ed64397	0.41848442
120	0xbe081f0c	-0.13293093
121	0x3ed802f2	0.42189747
122	0xbed171f0	-0.4090724
123	0x3eb7844d	0.35843125
124	0x3dc14bfd	0.09438322
125	0x3e870e9c	0.26378334
126	0xbdf3ee29	-0.1191066
127	0x3e0a5459	0.13508739

conv2.att_dst f4 [1, 8, 16]
0	0x3da1a455	0.07892672
1	0xbec01e0d	-0.37522927
2	0xbe9d12ee	-0.30678505
3	0xbe397d93	-0.18114309
4	0xbbac36d8	-0.0052555613
5	0xbec59676	-0.38591355
6	0xbe820b89	-0.25399426
7	0x3e405bd5	0.18785031
8	0xbc27e8aa	-0.0102483425
9	0xbef12a7a	-0.4710272
10	0x3dc90a21	0.09816385
11	0x3bceb866	0.006308603
12	0xbe32f542	-0.17476371
13	0x3b68eae1	0.003554039
14	0xbba32b71	-0.004979544
15	0xbe8de766	-0.27715605
16	0xbdc57ca0	-0.09642911
17	0xbc72c425	-0.014817272
18	0xbe64a4a3	-0.22328429
19	0x3eca55e1	0.39518645
20	0xbc66ae66	-0.014079666
21	0xbc086d40	-0.0083268285
22	0x3e4f26d6	0.20229658
23	0xbe89346b	-0.26797804
24	0x3b8a2e1c	0.0042169224
25	0x3d275862	0.040855773
26	0xbca91103	-0.020637995
27	0x3c99c6ae	0.018771496
28	0xbeb3134d	-0.34975663
29	0x3d3e1dff	0.046415325
30	0xbe305d47	-0.17223082
31	0x3e18af9c	0.1491074
32	0xbe037164	-0.12836224
33	0x3eebfe7c	0.46092594
34	0xbe09a5d0	-0.13442159
35	0x3cbdb536	0.023157697
36	0x3e1bb97b	0.15207474
37	0x3c0314a9	0.008000531
38	0x3d6c1b6d	0.057643343
39	0x3d5cdce9	0.053921614
40	0x3e1f8fbc	0.15582174
41	0x3f07e173	0.53078383
42	0x3db1eeb9	0.08688111
43	0xbbc06173	-0.005870992
44	0x3e031f53	0.12804918
45	0x3d9331d2	0.07187237
46	0x3e851e1d	0.25999537
47	0xbc2b9fb6	-0.01047509
48	0xbe219e6d	-0.15783091
49	0x3e51856c	0.20461053
50	0xbe89e8cf	-0.2693543
51	0xbcfbef7c	-0.030753843
52	0x3bd996fc	0.006640313
53	0xbcc1eb53	-0.023671782
54	0x3e881c96	0.2658431
55	0x3ab0c7c0	0.0013487265
56	0xbd9b5c7e	-0.07586001
57	0xbe830229	-0.25587586
58	0x3ed8b54f	0.42325827
59	0x3ce69577	0.028147442
60	0x3d9db545	0.0770059
61	0xbe830be7	-0.25595018
62	0xbe66cec3	-0.22539811
63	0xbd0ae48c	-0.033909366
64	0x3e687985	0.22702606
65	0xbe355c10	-0.177109
66	0xbdd4ab0b	-0.10384186
67	0x3cc8e654	0.024523892
68	0xbebd58bb	-0.36981758
69	0x3d08cf4b	0.033400815
70	0x39c499da	0.00037498662
71	0xbe12f1c3	-0.14350037
72	0x3e4d2f53	0.20037584
73	0xbdd815ae	-0.1055101
74	0xbe45bc6f	-0.19310163
75	0xbdbfbdcd	-0.093623735
76	0xbe45d40b	-0.19319169
77	0xbddd80c6	-0.10815577
78	0xbda60a5f	-0.08107447
79	0x3c9fbfb9	0.0195006
80	0xbc8d588b	-0.017254135
81	0x3d8439da	0.06456347
82	0xbde3279f	-0.110915415
83	0xbdf5fa9a	-0.12010689
84	0xbedf9160	-0.436656
85	0x3d935a5e	0.071949705
86	0xbd9d210f	-0.07672321
87	0x3eb89517	0.36051247
88	0x3ea0be4c	0.31395185
89	0xbe075d9e	-0.13219306
90	0xbe96bcb4	-0.29440844
91	0x3dec52fc	0.115392655
92	0xbc2ea6f8	-0.010659926
93	0x3e936f08	0.28795648
94	0x3d282022	0.04104627
95	0xbe11ab31	-0.1422546
96	0xbe05ec16	-0.13078341
97	0xba4aa3dc	-0.00077301054
98	0x3ec90a82	0.3926583
99	0x3e65934c	0.2241947
100	0x3e2cfb24	0.16892678
101	0xbea81fa1	-0.3283663
102	0x3e1595f0	0.14607978
103	0x3cdfc971	0.027317734
104	0xbd9509f3	-0.07277288
105	0xbe87cc1f	-0.2652292
106	0xbe83a3d6	-0.25710934
107	0xbe82d0c4	-0.255499
108	0xbecace98	-0.39610744
109	0xbe859369	-0.26089028
110	0x3d4021a8	0.046907097
111	0xbdab900a	-0.08377083
112	0x3e3c8ad6	0.18412337
113	0x3df389fa	0.11891551
114	0x3ebe0ec6	0.37120646
115	0x3e4bcbbb	0.19901936
116	0xbe8667b6	-0.26251
117	0xbeb7b59c	-0.35880744
118	0x3d9a4c64	0.075341016
119	0x3e8508f8	0.25983405
120	0x3cbef332	0.023309324
121	0x3e95bc4b	0.2924522
122	0xbe812241	-0.25221446
123	0x3e5e79fa	0.21726218
124	0x3ea23213	0.3167883
125	0xbd4424a8	-0.04788652
126	0xbc9d12a3	-0.019173926
127	0xbde25b6a	-0.11052592

conv2.bias f4 [128]
0	0x3c52f4b6	0.012875726
1	0x3b8a5a6b	0.0042222044
2	0x3b1fe2d2	0.002439667
3	0x3d0d88f0	0.034554422
4	0x3a21b1bb	0.00061681465
5	0x3c3db6f2	0.011579262
6	0xbb5a09c5	-0.0033269983
7	0x3c566d6b	0.013087611
8	0x3c545b35	0.012961199
9	0x3cb744ac	0.022371612
10	0x3c1cd960	0.009573311
11	0x3cf8acc9	0.030355828
12	0x3cd5a992	0.026081834
13	0x3c9a43cd	0.018831158
14	0x3afa3206	0.0019088394
15	0x3be35402	0.0069375047
16	0x3c481d01	0.012213946
17	0x3d0698ed	0.032860685
18	0x3d221c37	0.03957769
19	0x3d106844	0.035255685
20	0xbbbf3e2d	-0.0058362694
21	0x3b97221a	0.0046122195
22	0x3d098d69	0.033582125
23	0x3b818e94	0.003953764
24	0x3c962e9a	0.018332768
25	0x396e7425	0.00022740716
26	0x3c2c7173	0.010525095
27	0x3bae1f41	0.0053137843
28	0xbc0647d7	-0.008195839
29	0x3c6f4f3f	0.014606296
30	0xbc8979d9	-0.016781734
31	0x3bc49d41	0.0060001914
32	0x3d277f69	0.040892992
33	0x3cd4bf94	0.025970258
34	0x3ce933d6	0.0284671
35	0x3c879ef8	0.016555294
36	0xbb6da8bb	-0.0036263901
37	0x3c0009e0	0.007814854
38	0x3cc4a6c1	0.024005296
39	0xbc9e6916	-0.019337218
40	0x3cb12a8d	0.021626735
41	0xbcd740d5	-0.026276032
42	0x3d4167da	0.04721818
43	0x3ac8ae65	0.0015310763
44	0x3bb84970	0.005623989
45	0x3b0f6013	0.0021877333
46	0xbc3861cf	-0.011253788
47	0x3c632502	0.013863804
48	0xbc0504cf	-0.008118822
49	0x3ca68558	0.020327255
50	0x3b05ca8c	0.0020414917
51	0x3a12d0b4	0.0005600557
52	0x3cda7fb8	0.02667223
53	0x3a4c68f1	0.000779762
54	0x3cbae273	0.022813058
55	0x3cb42ab1	0.021993013
56	0xbc01b3db	-0.007916416
57	0x3c779347	0.015110797
58	0x3d12e426	0.03586211
59	0xbbc4511f	-0.0059911157
60	0x3d14a7bf	0.036292788
61	0x3c2afff0	0.010436997
62	0xbb6d9b6b	-0.0036255966
63	0xba4ce0ea	-0.0007815497
64	0xbcc62e81	-0.024192097
65	0xba91001a	-0.0011062652
66	0x3c743772	0.014905797
67	0x3c243801	0.010023118
68	0x3bf098bc	0.007342426
69	0x3cc4d27b	0.024026146
70	0xba12f1c7	-0.00056054856
71	0xbb2ac63b	-0.0026058096
72	0x3b6eb530	0.0036423914
73	0x3dc7a1a3	0.09747627
74	0x3d0d579c	0.03450738
75	0xbbb2bdcc	-0.0054547545
76	0x3b2620de	0.002534918
77	0x3cc498f1	0.02399871
78	0x3ccacd3f	0.024756072
79	0x3ce9f4d5	0.028559128
80	0xbc28200c	-0.010261547
81	0x3d0a6425	0.03378691
82	0x3aa800e7	0.0012817652
83	0x3bb3cbb7	0.005486931
84	0x3c3fdfce	0.011711074
85	0x3c3e73d2	0.011624293
86	0xbd024510	-0.031804144
87	0x3d164dac	0.036695167
88	0x3be67ad0	0.0070336834
89	0x3b02859c	0.0019916063
90	0xbbac6c9f	-0.005261972
91	0x3cdf8864	0.027286716
92	0x3d1381b9	0.036012385
93	0x3c2effb3	0.010681081
94	0xbba14ade	-0.004922255
95	0xbb39cec4	-0.0028352002
96	0xbabbb7aa	-0.0014321704
97	0xbb9858fb	-0.004649279
98	0x3c207a46	0.009794777
99	0xbb4751be	-0.0030413712
100	0x3d2c9a76	0.042139493
101	0xbcf18cf0	-0.02948615
102	0x3ce96d64	0.028494544
103	0x3c886704	0.016650684
104	0x3c0c6df5	0.008571138
105	0xbcca7325	-0.024713108
106	0x3c8bed01	0.017080786
107	0xbbd8ad88	-0.0066124834
108	0x3d19f3a8	0.037585884
109	0x3cb0a84e	0.021564629
110	0xbb22589b	-0.0024772051
111	0xbc71bd3b	-0.014754589
112	0x3c941ec9	0.018081086
113	0x3cab1e4a	0.020888466
114	0x3ccde23e	0.025132295
115	0xbba4222a	-0.0050089555
116	0xbc34555c	-0.011006679
117	0xbbfa584f	-0.0076399217
118	0x3ce795fb	0.028269758
119	0x3c82c6bd	0.015963906
120	0xbb14e141	-0.002271727
121	0x3d6e297f	0.058145043
122	0x3c620ca3	0.013796958
123	0xbc6407a5	-0.013917838
124	0x3c774f58	0.015094601
125	0xbd3ad0fe	-0.045609467
126	0xbbbda4b7	-0.005787458
127	0x3c88d3ce	0.016702559

conv2.lin.weight f4 [128, 128]
0	0xbde06554	-0.10956827
1	0xbca63ded	-0.0202932
2	0x3c46a1cf	0.012123539
3	0x3c8fb9d7	0.01754467
4	0xbd54f597	-0.051992025
5	0x3c49fe0a	0.012328634
6	0xbd758688	-0.059942752
7	0x3d1b52b4	0.03792067
8	0x3c7fac3c	0.015605029
9	0xbdb81ead	-0.08990226
10	0x3c3c467c	0.011491414
11	0x3cf8620f	0.030320195
12	0x3cbb6177	0.022873623
13	0x3c1323bf	0.0089806905
14	0xbc86a8d9	-0.016437935
15	0x3c4f31b8	0.012646131
16	0xbd939266	-0.07205658
17	0x3b8719d5	0.0041229525
18	0xbc3a6d45	-0.011378591
19	0x3b8519dd	0.004061921
20	0x3cb6bcaa	0.022306759
21	0x3c89e71d	0.016833836
22	0x3cdec899	0.027195262
23	0x3c1a5937	0.009420685
24	0xbcfba62b	-0.030718883
25	0xbb33c7e0	-0.0027432367
26	0xbbc20c5d	-0.005921884
27	0x3c8bd95d	0.01707142
28	0x3999ea2e	0.00029356912
29	0xbd8afc82	-0.06786443
30	0x3d0418ba	0.032250144
31	0xbdb1a638	-0.08674282
32	0xbb5c2e06	-0.0033596768
33	0xbc64e171	-0.013969765
34	0x3c00237c	0.00782096
35	0xbc4897d2	-0.012243228
36	0x3ddc8f75	0.1076955
37	0x3d2427f6	0.040077172
38	0x3a16056d	0.00057228544
39	0x3c80f912	0.015743766
40	0x3bdd5b31	0.0067552556
41	0x3c4d3190	0.012524024
42	0x3d081107	0.033219364
43	0x3b4ce89f	0.0031266583
44	0x3b2ad628	0.0026067588
45	0xbd3b6266	-0.045748137
46	0x3d2a267e	0.041540615
47	0xbbd55c90	-0.0065112785
48	0x3c57b592	0.013165848
49	0x3cb2e3e2	0.021837179
50	0xbcfd383e	-0.030910607
51	0xbc92ce62	-0.017920677
52	0xbc9a2d2b	-0.018820366
53	0x3b3383c3	0.0027391769
54	0x3daa6ade	0.083211645
55	0x3919a3ee	0.00014652286
56	0xbc1e6191	-0.009666816
57	0x3d02283a	0.031776644
58	0xbd696612	-0.056982107
59	0xbd02676f	-0.031836923
60	0x3cee7bc8	0.029111758
61	0xbbc29af2	-0.005938881
62	0xbac47830	-0.0014989432
63	0xbd3c7e18	-0.04601869
64	0x3c252320	0.010079175
65	0xbc9c74a7	-0.019098593
66	0xbc9ac2a8	-0.018891647
67	0x3d237a93	0.039911818
68	0x3dcd5a7a	0.10027023
69	0x3d34dee7	0.04415789
70	0x397b0738	0.00023939915
71	0xbdc09237	-0.09402888
72	0x3d10ec17	0.035381403
73	0x3b57837d	0.003288477
74	0x3be9c9a0	0.0071346313
75	0xbc2ccdaa	-0.010547081
76	0xbd1b41d4	-0.037904575
77	0xbbae728f	-0.005323715
78	0x3c85ba70	0.016324252
79	0xbc467f53	-0.012115317
80	0xbd4b5b2d	-0.0496475
81	0x3cfd6e52	0.030936394
82	0xba855fc5	-0.0010175636
83	0xbbbc0ff5	-0.005739207
84	0xbd0396f5	-0.032126386
85	0xbcba871c	-0.022769503
86	0x3bfa5012	0.0076389397
87	0xbc44fa3c	-0.012022551
88	0xbd213dc7	-0.039365556
89	0xbd9a54f7	-0.07535737
90	0xbda1c5a7	-0.07899027
91	0x3d070dc0	0.032972097
92	0x3d278b33	0.040904235
93	0xbd153b78	-0.036433667
94	0xbce84597	-0.028353496
95	0xbc792f19	-0.015208983
96	0xba7618b7	-0.0009387838
97	0xbc5cc5bc	-0.013474878
98	0x3ca12096	0.019668858
99	0x3bad45a1	0.0052878414
100	0x3e166ab7	0.14689146
101	0x3dbb6612	0.09150328
102	0xbd8d0344	-0.068853885
103	0x3c5c7b93	0.013457197
104	0x3dd468d6	0.10371558
105	0xbb7558da	-0.0037436993
106	0xbbf352e0	-0.007425651
107	0x3bc99ee4	0.0061529744
108	0x3cb06801	0.021533968
109	0xbd9570cd	-0.07296906
110	0xbda85952	-0.082201615
111	0x3ca48b73	0.020086026
112	0x3c168d71	0.009188996
113	0x3c924f9d	0.017860228
114	0x3c93ed8f	0.018057613
115	0xbd2a531d	-0.04158317
116	0xbcec24ea	-0.028826196
117	0x3cf77d57	0.030211134
118	0x3d1757e0	0.03694904
119	0x3bc8dc2b	0.0061297617
120	0xbc823ef9	-0.015899168
121	0x3de759e9	0.11296446
122	0xbd68f81e	-0.056877248
123	0xb8e0ccd6	-0.00010719306
124	0x3d9d80f6	0.07690613
125	0xbb87b289	-0.004141156
126	0xbdae7f3c	-0.08520362
127	0x3bfa0587	0.0076300534
128	0x3d969704	0.07353023
129	0x3cf7341c	0.030176215
130	0xbd4892b9	-0.04896805
131	0x3cd1a579	0.025591599
132	0xbd084f7c	-0.033278927
133	0x3b7dba86	0.0038715913
134	0xbd309a22	-0.043115743
135	0x3cba408e	0.02273586
136	0xbbeaeae7	-0.007169116
137	0xbde1c7b0	-0.110244155
138	0xbd11e9fd	-0.03562354
139	0x3bb3a6ae	0.0054825163
140	0x3ceb523e	0.02872574
141	0x3d02f6c4	0.031973615
142	0x3c927f43	0.017882949
143	0x3d69c71e	0.05707466
144	0xbd4ba203	-0.049715053
145	0x3b014aee	0.00197285
146	0x3d7ee38e	0.06222873
147	0xbd21e8d7	-0.039528694
148	0x3bd86c01	0.006604672
149	0xbc85285d	-0.016254598
150	0x3bb9e2ca	0.0056727873
151	0x3c5783cb	0.0131539805
152	0x3d9d14e7	0.076700024
153	0xbc5bd180	-0.013416648
154	0xbcf36a01	-0.029713633
155	0xbd62e16f	-0.05539077
156	0xbbd8f7c0	-0.006621331
157	0xbc4d971f	-0.012548237
158	0x3d6f0882	0.058357723
159	0x3cc820e0	0.024429739
160	0x3da57b1c	0.08080122
161	0x3db486a0	0.0881474
162	0xbcf5d6b1	-0.0300096
163	0xbc9f5c6d	-0.019453252
164	0xbd6698e5	-0.056298155
165	0xbd182b34	-0.037150577
166	0x3c1fbbd1	0.009749369
167	0x3d3a10c3	0.04542614
168	0x3bbb0680	0.005707562
169	0x3a0b8425	0.000532212
170	0x3b83ec26	0.004025954
171	0x3d44e977	0.048074212
172	0x3b86b44b	0.004110848
173	0x3d46122d	0.048357178
174	0x3b384190	0.002811525
175	0x3d93db3f	0.07219552
176	0xbdae0098	-0.08496207
177	0x3c1d3604	0.009595398
178	0xbd275ad0	-0.04085809
179	0xbcfd28cd	-0.030903244
180	0xbb5385ac	-0.003227572
181	0xbb5ae2c5	-0.0033399325
182	0x3bff0f40	0.0077838004
183	0xbc29f099	-0.010372304
184	0x3d47d6ee	0.048788957
185	0xbcf4cd91	-0.029883178
186	0xbd967b0d	-0.07347689
187	0x3e049525	0.12947519
188	0x3d803ab4	0.06261197
189	0xbd37b53a	-0.044850565
190	0xbc9f058d	-0.019411827
191	0xbdce94ba	-0.10086961
192	0xbcf54ae6	-0.02994294
193	0x3d805ba3	0.06267478
194	0x3cdd9234	0.027047254
195	0x3ce717e4	0.028209634
196	0x3d827e6b	0.063717686
197	0x3c20452e	0.009782119
198	0x3ca688c8	0.020328894
199	0xbd2ea587	-0.042638328
200	0xbce642f6	-0.028108101
201	0x3bca2813	0.006169328
202	0xbcb935da	-0.022608686
203	0xbd06aa2b	-0.03287713
204	0x3cc88fea	0.024482686
205	0xbcbf3824	-0.0233422
206	0x3cb0e545	0.0215937
207	0xbd460896	-0.048348032
208	0xbd97ede4	-0.07418421
209	0xbd643762	-0.05571688
210	0x3deb4b02	0.11488916
211	0x3cb69ab2	0.022290561
212	0xbdb2d938	-0.087328374
213	0x3da2e850	0.07954466
214	0x3d6c794a	0.057732858
215	0x3d9b429e	0.075810656
216	0xbc3b4f76	-0.011432519
217	0xbd0f39f5	-0.03496738
218	0xbc0b472d	-0.008500856
219	0x3d838666	0.06422119
220	0xbc972750	-0.018451363
221	0x3b407cda	0.0029371292
222	0x3d1c134d	0.038104344
223	0x3df8c018	0.12146014
224	0x3ddc7d0e	0.1076604
225	0x3c0bedf5	0.00854062
226	0xbd81b11e	-0.063326105
227	0xbd8e0af2	-0.069356814
228	0xbd5d3771	-0.05400795
229	0x3be1d6d2	0.0068920637
230	0x3ce97083	0.028496033
231	0xbbfa6f82	-0.0076426873
232	0x3c7d9cbf	0.015479266
233	0x3d3aae2d	0.045576263
234	0x3c3c610d	0.011497748
235	0x3d879336	0.06619875
236	0xbd06f571	-0.032948915
237	0x3ce38f83	0.027778393
238	0x3d282766	0.0410532
239	0xbab48839	-0.0013773508
240	0x3c152272	0.009102451
241	0xbb19d65c	-0.0023473715
242	0x3c7f6fb5	0.015590598
243	0x3d931533	0.07181778
244	0x3d91bddf	0.07116293
245	0x3d2362c2	0.039889105
246	0xbcc717a8	-0.024303272
247	0x3ba7785f	0.005110785
248	0x3d18f7d5	0.037345726
249	0xbcdbc1db	-0.026825836
250	0xbd056842	-0.03257013
251	0xbb84dbd6	-0.004054527
252	0xbb5bc9ac	-0.0033536954
253	0x3c5fffcc	0.013671827
254	0xbc914551	-0.017733248
255	0x3ce711b9	0.028206693

mlp.0.weight f4 [256, 256]
0	0x3b6c8dfb	0.003609537
1	0x3d11ca4d	0.03559332
2	0x37b23c07	2.1247206e-05
3	0xbd10bd1d	-0.035336602
4	0xbbf15dd3	-0.007365921
5	0xbd381fd4	-0.04495223
6	0xb8235f5a	-3.895103e-05
7	0xb9e1a61c	-0.00043039105
8	0x3c9ed804	0.019390114
9	0x3d588f9a	0.052871324
10	0xbca8191c	-0.020519786
11	0xbbd4ca99	-0.006493878
12	0x3d2a87c7	0.041633394
13	0x3bfc2690	0.0076950267
14	0xb568a6e9	-8.666962e-07
15	0xbcb825d2	-0.022478972
16	0x3ba8dc8c	0.0051532444
17	0x3cc2c568	0.023775771
18	0xbc8d03bc	-0.017213695
19	0xbb00f930	-0.0019679777
20	0xbb79ccf8	-0.0038116556
21	0x3c9f191b	0.01942115
22	0x3c0ae01f	0.008476286
23	0x3bdf75e0	0.0068194717
24	0xbd8d5866	-0.06901626
25	0xbcea0d14	-0.02857069
26	0xbb83218c	-0.004001802
27	0xb9dc7b0c	-0.00042053347
28	0x3b6caa05	0.0036112082
29	0x393bb84c	0.00017902366
30	0xbca5137d	-0.020150894
31	0x361d7fd8	2.3469238e-06
32	0x3d55e5ab	0.05222098
33	0x3bccc75b	0.006249351
34	0xbb95311c	-0.0045529734
35	0x3b0f0cdd	0.0021827735
36	0x3adb3e30	0.0016726907
37	0xbbfaf9c4	-0.007659169
38	0xbaf1813e	-0.0018425358
39	0x3ac57ee3	0.0015067722
40	0x3be8c85b	0.0071039624
41	0x3c71fc9f	0.014769702
42	0x3b95f0fe	0.0045758476
43	0x3c61a90c	0.013773214
44	0x3b68bb69	0.0035512096
45	0x3c1fe202	0.009758474
46	0xbb04f632	-0.0020288345
47	0x3bcdef18	0.0062846057
48	0x3b9a015e	0.00469987
49	0xbc606237	-0.013695291
50	0xbc7c5d14	-0.015403051
51	0x3aab069e	0.0013048237
52	0xbce595ef	-0.028025595
53	0xb6b9e03b	-5.5395335e-06
54	0x3ba0b37c	0.0049042087
55	0x3b706aaa	0.003668467
56	0xbca2fdf2	-0.019896481
57	0xbc27ace8	-0.010234095
58	0x39f38554	0.0004644791
59	0x3bbdc4ec	0.005791297
60	0x3a831296	0.0010000046
61	0x3c7d4bbf	0.015459954
62	0xbc67ca5b	-0.014147366
63	0xbcf03dcd	-0.029326344
64	0x3c06110c	0.008182775
65	0xbc0d0d45	-0.008609121
66	0xbce90751	-0.028445872
67	0xbc59ae16	-0.013286134
68	0x3cf2a663	0.029620355
69	0xbd1ecc8f	-0.0387693
70	0xbaa88aca	-0.0012858745
71	0x3cdf8a3b	0.027287593
72	0xbbc5f1c9	-0.006040786
73	0xbc088b58	-0.008334003
74	0xbce0d624	-0.02744586
75	0xbcc3fc05	-0.023923883
76	0xbd449c0d	-0.048000384
77	0x3cec0c62	0.028814498
78	0x3c4e2ade	0.0125834625
79	0x3ca49908	0.020092502
80	0x3bd0999b	0.0063659674
81	0x3c13a150	0.009010628
82	0x3c3fe6f4	0.011712778
83	0x3b9b168c	0.0047329124
84	0xbcb54cd0	-0.022131354
85	0xbbb83ab4	-0.0056222323
86	0xbbae0b2b	-0.00531139
87	0x3c10c0f7	0.008835069
88	0x3c10c967	0.008837081
89	0xbc4e5ba1	-0.012595088
90	0x3b6de54a	0.0036299997
91	0x3c80b4d6	0.01571123
92	0x3d05da56	0.032678925
93	0xbc9030a7	-0.017601324
94	0xbb7b98ed	-0.0038390711
95	0x3ba62133	0.0050698756
96	0x3c9d24fd	0.019182676
97	0x3c0d2a5d	0.008616057
98	0xbc3c590f	-0.011495843
99	0x3c1d2a94	0.009592671
100	0x3d06096e	0.032723837
101	0x3cd9eca4	0.026602097
102	0x3c2bbf4c	0.01048262
103	0x3c96d3fe	0.018411633
104	0xbbdfb0ca	-0.006826495
105	0x3ca8ecdf	0.020620761
106	0x3ce90910	0.028446704
107	0xbbcd019c	-0.0062562954
108	0x3c2a38de	0.010389535
109	0x3c5b2aa1	0.013376863
110	0x39e505f2	0.00043682713
111	0xbb4bd797	-0.0031103843
112	0xbbc81882	-0.006106437
113	0x3affcd9e	0.0019516235
114	0xbbc26d67	-0.005933452
115	0xbca64e22	-0.020300929
116	0x3ae68d7d	0.0017589774
117	0x3a992fad	0.0011687182
118	0x3d23072b	0.039801758
119	0xbb5f9114	-0.0034113573
120	0xbcac6baa	-0.021047432
121	0x3c2278fb	0.009916539
122	0xbc42aa55	-0.011881431
123	0xbc43d872	-0.01195346
124	0x3cb42561	0.02199048
125	0x3c73845c	0.0148631
126	0x3b8ddcfe	0.004329323
127	0x3d1f5cac	0.03890674
128	0xbc56a7c6	-0.013101524
129	0xbbf8fd1c	-0.0075985324
130	0xb51f8c86	-5.9436604e-07
131	0xbc607f6d	-0.013702256
132	0xbc552e11	-0.013011471
133	0xbc62f7dd	-0.0138530405
134	0x3b32b60c	0.0027269153
135	0xbacac39e	-0.0015469675
136	0xbc0f7b04	-0.008757357
137	0x3b578ed0	0.003289152
138	0xbcb4b8ba	-0.02206074
139	0xbc485837	-0.012228063
140	0xbc276d42	-0.01021892
141	0xbc4f40fa	-0.012649769
142	0x33909476	6.7325274e-08
143	0xbc5b0d47	-0.013369865
144	0xbc6a3bab	-0.0142964525
145	0xbc1d17a1	-0.009588153
146	0xbbcf1b9e	-0.006320431
147	0x3afe7fd3	0.0019416757
148	0xbcc90495	-0.024538318
149	0xbbc7d30e	-0.0060981577
150	0x3c1a635f	0.009423106
151	0xbb28e28e	-0.0025769803
152	0xbc845ac9	-0.016156571
153	0x3c74fbe5	0.014952634
154	0x3d1b557f	0.037923332
155	0xb9eae862	-0.00044805097
156	0x3be07098	0.0068493597
157	0xbc42123a	-0.011845166
158	0xbc503069	-0.012706854
159	0x3aa7aa01	0.0012791754
160	0xbba90d54	-0.0051590595
161	0xbca94679	-0.020663487
162	0xb8fb95e4	-0.00011996532
163	0x3d7a6ccf	0.061138924
164	0xbd18a6f5	-0.037268598
165	0xbc29ad2f	-0.010356232
166	0x3b3cf5a5	0.002883294
167	0xbcdc1399	-0.026864814
168	0x3cc5f838	0.024166211
169	0xbc5f2f96	-0.013622185
170	0x3d437725	0.047721047
171	0x3d568f61	0.05238283
172	0xbcac0b68	-0.021001533
173	0xbc26a697	-0.010171554
174	0xbc222c58	-0.009898268
175	0x3c73476e	0.014848573
176	0x39c01973	0.00036640055
177	0x3bd92292	0.0066264356
178	0xbca27128	-0.019829348
179	0x3c75c7e8	0.015001275
180	0xbd51c1f8	-0.051210374
181	0xb8f19707	-0.000115199065
182	0xbc160be0	-0.009158105
183	0xbd93e15d	-0.07220719
184	0x3a662c7c	0.00087804324
185	0xbc95076f	-0.018192021
186	0xbcdf2a69	-0.027241902
187	0x3ba53559	0.00504176
188	0xbd30a21b	-0.043123346
189	0x3dc9fbb9	0.098624654
190	0xbc834243	-0.016022807
191	0xbd24f49e	-0.040272348
192	0x3ad4902c	0.0016217283
193	0xbc1534a1	-0.009106786
194	0x3bfee9fc	0.007779358
195	0xbb4e90df	-0.0031519455
196	0x3a9be7ad	0.0011894606
197	0xbc8c5279	-0.01712917
198	0xba5df1d1	-0.00084665144
199	0xbc6cc78f	-0.014451875
200	0xbc887e11	-0.016661676
201	0xbd2cfbbc	-0.04223226
202	0xbc6ea560	-0.014565796
203	0xbc6e3dfe	-0.014541147
204	0xbc7a01a5	-0.015259181
205	0xbc7a6638	-0.01528316
206	0xbc71c3f4	-0.0147561915
207	0xbc43e9ae	-0.011957569
208	0xbc28f21b	-0.010311629
209	0xbc0b2533	-0.008492756
210	0xbce9e1b5	-0.028550008
211	0xbc90d6e5	-0.017680595
212	0xbc87eeb4	-0.016593315
213	0x3ae07b15	0.0017126525
214	0xbcc41174	-0.023934104
215	0x3caac65b	0.020846536
216	0xbc9f17c3	-0.01942051
217	0xbcca5fe6	-0.024703931
218	0xbbb29102	-0.005449415
219	0xbc96f450	-0.018427044
220	0xbbf693e3	-0.0075249537
221	0xbbf44dff	-0.007455587
222	0xbc7e8833	-0.015535402
223	0xbc854040	-0.016265988
224	0xbd2ab2ff	-0.04167461
225	0xbc9ad442	-0.01890004
226	0xba1c4452	-0.0005961108
227	0x3c4f7088	0.012661107
228	0x3d4e692f	0.05039328
229	0x3c715e1c	0.01473191
230	0xbbaada96	-0.0052140458
231	0x3d6b0faf	0.057388004
232	0xbb9f7595	-0.004866312
233	0xbc62a6a0	-0.013833672
234	0x3cd028d1	0.025410088
235	0xbd2f8906	-0.042855285
236	0x3bf58df2	0.007493728
237	0xba41bc26	-0.0007390402
238	0xb60b1e0b	-2.0730101e-06
239	0x3cbc2ef7	0.022971613
240	0xba151bc0	-0.0005688034
241	0xbc958acb	-0.018254658
242	0xbd55cf5c	-0.052199706
243	0xbcb35d03	-0.021894937
244	0x3c6c32b4	0.014416385
245	0xbc95d2bc	-0.018288963
246	0xbcd5728f	-0.026055602
247	0xbd986035	-0.07440225
248	0xbd0c9888	-0.034325153
249	0xbcffd737	-0.031230552
250	0xbb8dc030	-0.004325889
251	0xbc4a9e9e	-0.012366919
252	0xbbaeae16	-0.0053308113
253	0x3ceef03a	0.029167283
254	0xbbcf445f	-0.006325289
255	0x3c9936f9	0.01870297

mlp.0.bias f4 [256]
0	0xbd4bfcb8	-0.04980156
1	0xbbbf035a	-0.005829257
2	0xbc49905c	-0.012302484
3	0xbc254738	-0.010087781
4	0xbd3d746b	-0.046253603
5	0xbcb36c47	-0.021902217
6	0xbd4ee7be	-0.050513975
7	0x3be4b4f2	0.006979578
8	0xbd10247c	-0.035191044
9	0x3b30c272	0.0026971367
10	0x3d43f9d4	0.047845677
11	0xbb20e042	-0.002454773
12	0xbcb62456	-0.022234123
13	0x38825cea	6.21619e-05
14	0xbcd69c10	-0.026197463
15	0x3d6237e6	0.05522909
16	0x3cb414f4	0.021982647
17	0xbccfb30b	-0.025353929
18	0x3b93cb0e	0.00451029
19	0x3d653f97	0.055968847
20	0x3cbbb45c	0.02291315
21	0xbd3fb674	-0.04680486
22	0x39c41d52	0.00037405879
23	0xb8f9d45e	-0.00011912802
24	0xbcb0e81c	-0.021595053
25	0x3d57ad83	0.052655708
26	0x3b6849b8	0.003544433
27	0xbd33f37c	-0.043933377
28	0x3d61f497	0.0551649
29	0xbd404382	-0.04693938
30	0x3cffea72	0.031239722
31	0xbb9fb6c7	-0.0048740837
32	0xbcd3729b	-0.025811484
33	0xbc9cddc8	-0.019148722
34	0x3cd8243f	0.026384471
35	0xbb86a053	-0.0041084676
36	0xbb0a03f0	-0.0021059476
37	0x3d3ff744	0.04686667
38	0x3d189f82	0.037261494
39	0xbc037cb6	-0.008025339
40	0xbc9372d7	-0.017999096
41	0xbb49613c	-0.0030728122
42	0xbcae21ab	-0.021256289
43	0x3c4160cb	0.011802862
44	0xbcbad1b6	-0.022805076
45	0xbb9067b4	-0.0044068936
46	0xbc5c0762	-0.013429495
47	0x3c68fd36	0.014220526
48	0xbcad771f	-0.021174965
49	0xbd830bdc	-0.06398746
50	0xbca814d7	-0.02051775
51	0x39c2c144	0.00037146558
52	0x3cb90f33	0.022590255
53	0x3b19bf34	0.0023459913
54	0xbcb41b41	-0.021985652
55	0xbd75c1b7	-0.059999194
56	0xbd4046ad	-0.0469424
57	0x3cae636b	0.02128764
58	0x3b04b74d	0.0020250857
59	0xbbe3d404	-0.0069527645
60	0xba88eae4	-0.001044598
61	0x3bf665ae	0.0075194454
62	0xbd1064a1	-0.035252217
63	0x38968f93	7.1793e-05
64	0x3c89bad7	0.016812725
65	0xbca3618f	-0.01994398
66	0xba97625c	-0.0011549699
67	0x3d3b8cac	0.045788452
68	0x3c902aba	0.017598499
69	0xbd0cf404	-0.0344124
70	0xbb7f7f21	-0.0038985687
71	0xbd1b82f7	-0.037966695
72	0x3b0e0d44	0.0021675387
73	0xbca43621	-0.020045342
74	0xbc715857	-0.0147305345
75	0x3aeed4aa	0.0018221338
76	0xbcbd46e9	-0.023105102
77	0x3d77fe5f	0.06054532
78	0x3c47c25e	0.012192337
79	0x3cdcddd5	0.026961247
80	0xbbe63b05	-0.0070260786
81	0x3cd9219b	0.026505282
82	0x3c6fb167	0.014629698
83	0xbc8d1988	-0.017224088
84	0xbc57222e	-0.013130708
85	0x3d20cc0d	0.039257098
86	0xbc9d5dcd	-0.019209767
87	0xbca7cf02	-0.020484451
88	0x3bb86527	0.0056272927
89	0x3cc98d9f	0.024603663
90	0xbc08b6d2	-0.008344369
91	0xbc91a3d0	-0.017778307
92	0xbd1cf4a1	-0.038319234
93	0xba82ec7a	-0.0009988688
94	0xba99bef2	-0.001172988
95	0x3c013cc8	0.007888027
96	0xbbfe2097	-0.00775535
97	0x3b8843cc	0.0041584726
98	0xbbf56d85	-0.0074898624
99	0xbcce22a4	-0.025163002
100	0x3c38698a	0.011255631
101	0x3bb64198	0.0055620186
102	0xbc4bdb32	-0.012442397
103	0xbd4489c7	-0.047982957
104	0x3c4ede24	0.012626205
105	0x3d08ec5a	0.033428527
106	0x3c9f62ab	0.019456228
107	0xbc4635c1	-0.012097777
108	0x3d06819a	0.03283844
109	0xbc04f680	-0.008115411
110	0xbcba3e57	-0.022734804
111	0x3cb35c6a	0.021894652
112	0x39cb4079	0.00038767213
113	0x3c6f9b61	0.014624448
114	0xbcce6476	-0.025194388
115	0xbce8deba	-0.028426517
116	0xbd546af9	-0.05185983
117	0x3b1d1b64	0.0023972625
118	0xbd848882	-0.06471349
119	0x3cfea4b1	0.03108439
120	0xba5f8d93	-0.0008527871
121	0x3c84e398	0.016221806
122	0xbc981ced	-0.01856848
123	0xbbb07036	-0.0053844703
124	0xbcc2c3e4	-0.023775049
125	0x3ce9bb29	0.028531628
126	0xbb13ae8d	-0.002253446
127	0x3ca6e278	0.02037166
128	0x3c8698c5	0.016430268
129	0x3b5913eb	0.0033123444
130	0xbca1f6eb	-0.01977106
131	0xbbe8922f	-0.0070975046
132	0xbb44fa93	-0.003005658
133	0x3c5ada94	0.013357777
134	0xbd0f8f63	-0.035048854
135	0xbbc33dee	-0.0059583103
136	0xbd24fbfe	-0.04027938
137	0x3b5f567b	0.0034078646
138	0xbd0c1d01	-0.034207348
139	0xbc0e6720	-0.008691579
140	0x3a1f0af2	0.00060669996
141	0x3cafb721	0.021449627
142	0x3d0fe0a1	0.035126332
143	0xbc9e1c7f	-0.019300697
144	0xbc63e9fe	-0.013910769
145	0x3d8041a4	0.0626252
146	0xbd2f819a	-0.042848207
147	0x3cc38505	0.02386714
148	0xbcf174a6	-0.029474568
149	0x3c05368a	0.008130679
150	0xbcebf04e	-0.02880111
151	0xbd319448	-0.043354303
152	0xbc07c859	-0.008287513
153	0x3cb55f2c	0.022140108
154	0xbd1268a2	-0.035744317
155	0x3aadc9d6	0.0013259004
156	0x3d91b13c	0.07113883
157	0xbba8b69f	-0.0051487233
158	0xbd113ade	-0.03545653
159	0x3d1b34ab	0.037892025
160	0xbd0d1b52	-0.034449883
161	0x3b2289ef	0.0024801453
162	0x3cbaa76e	0.022784915
163	0x3d58da27	0.05294242
164	0xbcddbef9	-0.027068602
165	0x3d7fd9b9	0.062463496
166	0xbd4339df	-0.047662612
167	0x3c0f7fe2	0.008758517
168	0x3baf0372	0.005340987
169	0xbc43b5d1	-0.011945204
170	0xbd3ee7c3	-0.046607744
171	0xbaf26db8	-0.0018495834
172	0x3bfd58ec	0.0077315476
173	0x3ceb26dd	0.028705055
174	0xbace5010	-0.0015740413
175	0xbc99364c	-0.018702649
176	0x3d907aab	0.07054647
177	0xbc961674	-0.018321253
178	0xbd1f99e1	-0.03896511
179	0x3d009649	0.031393323
180	0x3c05895b	0.008150424
181	0xbc93b883	-0.018032318
182	0x3a221b93	0.00061839184
183	0x3ca4976c	0.020091735
184	0xbba5070d	-0.005036241
185	0xbcb928bf	-0.022602437
186	0x3c126039	0.008934074
187	0x3c096ea9	0.0083882
188	0xbc994029	-0.018707352
189	0xb751ba77	-1.25007855e-05
190	0x3c8a2ddc	0.01686757
191	0xbb270cce	-0.002548981
192	0xbce99ddc	-0.028517656
193	0xbd54eba7	-0.051982548
194	0xbc097ff8	-0.0083923265
195	0x3d015d5e	0.031583183
196	0xbc274756	-0.010209879
197	0x3c0c9248	0.008579798
198	0xbd271c91	-0.040798727
199	0xbd462361	-0.048373584
200	0xbb703313	-0.0036651536
201	0x3da0b30a	0.07846649
202	0x3d0529ba	0.032510497
203	0xbd282137	-0.0410473
204	0x3c0165cb	0.0078978045
205	0x3c49f366	0.012326097
206	0x3c8d211d	0.017227704
207	0xbd19cb1b	-0.037547212
208	0xbb80a1bf	-0.0039255316
209	0x3c3d9213	0.011570471
210	0xbcaffa80	-0.021481752
211	0x3d03ce13	0.03217895
212	0xbd03bde8	-0.03216353
213	0x3d61445c	0.054996833
214	0xbccf78a2	-0.025326077
215	0x3cb240a4	0.021759339
216	0x3ce4f0b8	0.027946815
217	0xbb93d874	-0.004511887
218	0xbb2449a3	-0.0025068305
219	0x3c037bb4	0.008025099
220	0xbb571a0c	-0.0032821922
221	0x3b78fdce	0.0037993076
222	0x3b2df178	0.0026541632
223	0xba2d3546	-0.00066073646
224	0xbcc41a5d	-0.023938352
225	0x3cd49c28	0.025953367
226	0xbd0e3bc6	-0.034724973
227	0xbb58451a	-0.0033000172
228	0xbd15d319	-0.03657827
229	0xbcdb1137	-0.026741607
230	0xbce317a2	-0.02772123
231	0xbba2d353	-0.0049690395
232	0x3d40c70c	0.047064826
233	0xbc9f6807	-0.019458784
234	0x3d0758f3	0.033043813
235	0x3c86d07a	0.016456831
236	0xbcf862b6	-0.030320507
237	0xbcb142b9	-0.021638261
238	0xbcb69eae	-0.022292461
239	0x3c244858	0.010027014
240	0xbd564971	-0.052316133
241	0xbccc10b6	-0.024910312
242	0x3c6ebee8	0.014571883
243	0x3d2bdf75	0.041961152
244	0xbd24b9cf	-0.040216263
245	0xbd2a27a4	-0.04154171
246	0xbaf35916	-0.0018565978
247	0xbcd6c6d2	-0.026217852
248	0x3d3c9937	0.046044555
249	0xbb46a309	-0.003030958
250	0x3cd4ac53	0.025961077
251	0x3d230511	0.039799754
252	0x3c9d8fc0	0.019233584
253	0xbcf2d0cb	-0.029640576
254	0xbd0bb7a5	-0.034110684
255	0xbcad4701	-0.021152021
