results/TEINet_0123_4.pth (torch, 730642 bytes, 11 tensors)

conv1.att_src f4 [1, 8, 16]
-0.06118938 -0.16074707 -0.26913616 -0.33423218 -0.17881286 0.2445019 -0.14237519 -0.14568688
-0.30060196 -0.2572659 0.4368396 0.38630906 0.20259921 -0.098478235 -0.15687104 -0.012733652
-0.09764257 -0.044580102 0.34238166 0.039001577 0.19833106 0.14080527 -0.30462453 0.46778318
-0.40480942 -0.23662357 -0.00096305064 0.45210245 -0.45359817 -0.23080893 0.1272361 -0.037013672
-0.38672602 -0.19494522 -0.16618586 -0.054396216 0.35268965 -0.028747343 -0.00024786915 0.038747605
0.46493384 -0.27155173 0.049546197 0.07873377 0.40339863 -0.19527966 0.36342877 0.3628236
-0.23763213 0.22826877 0.007075156 -0.16657604 0.19914645 0.18939 -0.3934758 0.16339868
-0.34272298 0.3671088 -0.018595073 0.10599527 0.18119293 -0.18591027 -0.28570986 0.18017738
0.16200186 -0.23658036 -0.28453276 0.25839463 -0.049652994 0.39172602 -0.418201 -0.43326613
0.38309383 0.31028253 0.3976011 -0.1688925 -0.19751558 -0.1682628 0.2798326 -0.3816542
0.07051424 0.36121053 -0.33317208 -0.32507908 -0.30778712 0.16834386 0.09310708 -0.31800756
0.1342541 -0.003897317 -0.18191788 0.071326345 0.3683797 0.30337918 -0.17548355 -0.4608786
-0.23644264 -0.060576078 0.36628664 0.41039616 0.28582352 -0.3619443 0.12620574 0.16625006
-0.12114805 -0.3243472 0.33617014 0.09723332 -0.2300844 -0.022095356 -0.011242576 0.40397596
-0.21475391 -0.2034731 -0.10589726 -0.27114537 0.02489939 0.33070797 -0.2120796 0.18485266
-0.17923346 -0.0003861066 -0.26061618 0.12563227 0.38006827 -0.081705496 0.21405312 0.3174551
00000000: b7a1 7abd e19a 24be 37cc 89be 7b20 abbe
00000010: b81a 37be b55e 7a3e cdca 11be f12e 15be
00000020: 80e8 99be 5bb8 83be 71a9 df3e 4dca c53e
00000030: 2b76 4f3e f5ae c9bd cda2 20be cfa0 50bc
00000040: d4f8 c7bd a099 36bd a64c af3e 1ec0 1f3d
00000050: 4c17 4b3e 422f 103e bff7 9bbe 4781 ef3e
00000060: 2e43 cfbe 734d 72be 3c75 7cba f979 e73e
00000070: 053e e8be 2d59 6cbe 2e4a 023e a69b 17bd
00000080: f400 c6be b89f 47be a02c 2abe 91ce 5ebd
00000090: bd93 b43e 8c7f ebbc 6ff4 81b9 cfb5 1e3d
000000a0: cf0b ee3e d408 8bbe f4f0 4a3d 2c3f a13d
000000b0: 448a ce3e 64f7 47be 5613 ba3e 04c4 b93e
000000c0: d655 73be 4abf 693e b6d6 e73b e992 2abe
000000d0: 0ced 4b3e 74ef 413e a975 c9be fc51 273e
000000e0: 6379 afbe aff5 bb3e b254 98bc 0c14 d93d
000000f0: a48a 393e 435f 3ebe 9048 92be 6b80 383e
00000100: d1e3 253e 1f42 72be 47ae 91be 4d4c 843e
00000110: f060 4bbd 5090 c83e 711e d6be 0fd5 ddbe
00000120: e024 c43e 5add 9e3e 5f92 cb3e 28f2 2cbe
00000130: 8641 4abe 154d 2cbe 3846 8f3e 2e68 c3be
00000140: c569 903d 96f0 b83e 8895 aabe c470 a6be
00000150: 4696 9dbe 5562 2c3e edae be3d e3d1 a2be
00000160: e879 093e 216a 7fbb ae48 3abe 8c13 923d
00000170: 449c bc3e 8454 9b3e f6b1 33be 48f8 ebbe
00000180: 051e 72be 9f1e 78bd ec89 bb3e 721f d23e
00000190: 7657 923e c350 b9be 143c 013e 753d 2a3e
000001a0: 781c f8bd d610 a6be 7e1e ac3e 4322 c73d
000001b0: 3f9b 6bbe 5201 b5bc c832 38bc f0d5 ce3e
000001c0: 73e8 5bbe 415b 50be aae0 d8bd 91d3 8abe
000001d0: cef9 cb3c 8e52 a93e 652b 59be 044a 3d3e
000001e0: fa88 37be 5a6e cab9 7c6f 85be bfa5 003e
000001f0: 4f98 c23e 3655 a7bd be30 5b3e 7a89 a23e

conv1.att_dst f4 [1, 8, 16]
-0.2964713 -0.38951984 -0.03056168 0.061053928 -0.31493676 -0.20470765 0.20544074 0.119907595
-0.2925114 -0.18608755 0.19312921 0.03349848 0.14019564 0.15094334 0.0600084 -0.0841047
-0.27111053 0.16977772 0.21398799 -0.09672102 0.39481953 0.15357184 0.2689782 0.1503687
0.11596821 -0.275496 -0.07785567 0.3569143 -0.22398569 -0.2701384 0.19553788 -0.32576966
-0.12783259 0.0041819694 -0.03652256 -0.22551002 0.0070285643 -0.044072576 -0.03721336 0.18204418
-0.17742193 0.12569445 0.03650984 0.1970813 0.12143813 -0.097791746 -0.21059261 -0.19978602
-0.2179379 0.19834217 0.28279468 -0.26722375 -0.3468765 0.20650125 0.060967438 -0.2882777
0.17154482 0.122537464 -0.2571576 -0.39490807 0.2977604 -0.020109748 -0.04619045 0.35415158
0.003493148 0.12501973 -0.089230195 0.0011654194 0.07997077 0.13157354 0.26728338 0.071418084
0.035341393 -0.12839006 -0.19689316 0.030203354 -0.057198875 -0.22321266 0.28682235 -0.10910318
-0.32423472 -0.10283773 0.15459198 -0.120431006 -0.24531862 0.34214893 -0.39656967 0.2850235
0.224007 -0.16309029 0.104898594 0.11685063 0.34680238 -0.081914194 -0.20101108 0.08170546
-0.0019207663 0.20402707 -0.028655235 0.006582054 -0.18573393 -0.0015784992 -0.21509428 0.01882582
0.0916313 0.036653724 0.02406483 0.068998456 -0.003612763 0.20247357 -0.19161871 -0.04004502
-0.0071433834 -0.08664806 -0.100884445 -0.013504713 0.021832215 0.00886753 -0.11582183 -0.013846368
0.0065223943 0.11769835 -0.13853537 -0.03155992 0.0139407655 -0.009146167 -0.23417899 -0.04249242
00000000: 16cb 97be 256f c7be 7d5c fabc af13 7a3d
00000010: 643f a1be e29e 51be 0f5f 523e 1d92 f53d
00000020: 0ec4 95be bc8d 3ebe aac3 453e b435 093d
00000030: 728f 0f3e e490 1a3e 5ecb 753d 163f acbd
00000040: 00cf 8abe 36da 2d3e ab1f 5b3e ac15 c6bd
00000050: c925 ca3e f041 1d3e 83b7 893e 41fa 193e
00000060: be80 ed3d d00d 8dbe cb72 9fbd 79bd b63e
00000070: 815c 65be 954f 8abe 153b 483e 48cb a6be
00000080: 8ce6 02be e708 893b ae98 15bd 19ec 66be
00000090: df4f e63b 7285 34bd 096d 18bd ca69 3a3e
000000a0: 18ae 35be 0cb6 003e 588b 153d aecf 493e
000000b0: 8eb4 f83d 0a47 c8bd 97a5 57be b594 4cbe
000000c0: 1d2b 5fbe 361a 4b3e 77ca 903e 8dd1 88be
000000d0: cc99 b1be 1075 533e feb8 793d 2299 93be
000000e0: 72a9 2f3e ecf4 fa3d 29aa 83be 6431 cabe
000000f0: 0d74 983e 33bd a4bc 3332 3dbd 5b53 b53e
00000100: 4ced 643b 2c05 003e 52be b6bd fcc0 983a
00000110: b7c7 a33d 37bb 063e 5ed9 883e a543 923d
00000120: 23c2 103d af78 03be 5c9e 49be 066d f73c
00000130: 5e49 6abd dc91 64be 61da 923e 7d71 dfbd
00000140: 1802 a6be 969c d2bd 5c4d 1e3e 88a4 f6bd
00000150: ce34 7bbe 252e af3e 2e0b cbbe 9aee 913e
00000160: 1762 653e 2401 27be 13d5 d63d 624f ef3d
00000170: 1590 b13e a1c2 a7bd d9d5 4dbe 3155 a73d
00000180: 39c2 fbba 79ec 503e 62be eabc 45ae d73b
00000190: 0931 3ebe a5e5 ceba ad41 5cbe 9b38 9a3c
000001a0: 31a9 bb3d 3722 163d 9b23 c53c 104f 8d3d
000001b0: 1bc4 6cbb 3b55 4f3e b237 44be 3f06 24bd
000001c0: 0b13 eabb 8a74 b1bd 819c cebd df42 5dbc
000001d0: 79d9 b23c 1e49 113c ff33 edbd e0db 62bc
000001e0: cfb9 d53b d50b f13d 37dc 0dbe fa44 01bd
000001f0: cf67 643c ced9 15bc 9ecc 6fbe 880c 2ebd

conv1.bias f4 [128]
0.0025400096 -0.004907935 0.0010755411 -0.0028879296 -0.013604053 0.0061261742 0.0057629696 0.008846628
-0.0072345133 0.010746865 -0.0019215818 -0.0031279488 -0.012759187 0.015245855 0.014121328 -0.0041712844
0.029233878 0.0067754816 0.0068156817 0.00429457 0.0047966084 0.001953968 -0.0013713036 -0.0067515625
0.004955718 0.020131087 -0.008504652 -0.001202835 -0.005851252 0.0077415206 0.041584924 0.004858522
0.008027541 0.022808515 0.026907 -0.0056164307 0.0033716273 0.0034171732 -0.0012711344 0.0063128527
-0.002822881 0.02025226 0.013435353 -0.0051274304 -0.0019333899 -0.004004072 0.008497358 -0.005225521
0.0023241225 0.018789742 -0.0004292618 0.011561605 0.0007249337 0.017079797 0.010706116 -0.0064033866
0.0037043688 0.01630189 -0.00092323835 0.011588859 0.018147198 0.0057934127 0.023038913 0.0064829295
0.007263396 -0.00064550544 -0.004991858 0.0039352337 0.020818153 -0.0095329825 -0.001887293 -0.0032776424
0.0043343594 0.00025492252 0.0034463974 0.005047894 0.0031543488 -0.0013532377 -0.00072207145 -0.00046829015
0.0029842053 0.01284001 0.01664021 -0.0036548239 -0.0079716705 0.012823742 0.010261653 -0.005829991
0.010036871 -0.002408186 0.00083565345 0.016335377 0.021538718 0.021075187 0.019685797 0.008534508
0.016470183 0.013496528 0.007067119 0.011345182 -0.016138088 -0.0028561468 0.023547875 -0.0004792257
0.014593352 -0.005742491 -0.004632413 0.0057447525 -0.0012565718 -0.009339695 -0.0112016965 0.0060375277
0.0062377565 0.0023748947 -0.0033794134 0.018329399 0.0135819465 0.013171476 -0.003865511 0.0049038776
0.009684384 0.0088932095 0.00032515055 -0.010465784 0.007873447 -0.0045193844 -0.0044914796 -0.008173497
00000000: 4a76 263b bed2 a0bb 2cf9 8c3a 6b43 3dbb
00000010: 89e3 5ebc 13be c83b 4bd7 bc3b 72f1 103c
00000020: 7f0f edbb 9e13 303c 96dd fbba 46fe 4cbb
00000030: e90b 51bc c0c9 793c 245d 673c 45af 88bb
00000040: e37b ef3c dc04 de3b 1556 df3b 77b9 8c3b
00000050: de2c 9d3b 250e 003b 50bd b3ba 363c ddbb
00000060: 9363 a23b f3e9 a43c 1957 0bbc 72a8 9dba
00000070: dcbb bfbb 95ac fd3b f454 2a3d 3d34 9f3b
00000080: f385 033c ecd8 ba3c 126c dc3c 090a b8bb
00000090: 85f6 5c3b a7f2 5f3b 319c a6ba 0cdc ce3b
000000a0: 1600 39bb 11e8 a53c f41f 5c3c 0104 a8bb
000000b0: cd69 fdba 9734 83bb 8138 0b3c d93a abbb
000000c0: 4e50 183b f2ec 993c 8b0e e1b9 e36c 3d3c
000000d0: 7a09 3e3a eeea 8b3c b568 2f3c 80d3 d1bb
000000e0: ffc4 723b 8b8b 853c 7a05 72ba 33df 3d3c
000000f0: 6fa9 943c abd6 bd3b 1abc bc3c c16e d43b
00000100: c801 ee3b 2337 29ba bd92 a3bb 22f3 803b
00000110: d58a aa3c 3a30 1cbc 0b5f f7ba b7cd 56bb
00000120: 3e07 8e3b 1fa7 8539 f4dc 613b ce68 a53b
00000130: 31b9 4e3b 1f5f b1ba 6549 3dba d784 f5b9
00000140: a892 433b e85e 523c 0d51 883c c585 6fbb
00000150: 9c9b 02bc ac1a 523c 7e20 283c 8209 bfbb
00000160: b071 243c a8d2 1dbb c10f 5b3a c5d1 853c
00000170: f771 b03c dfa5 ac3c 1c44 a13c 52d4 0b3c
00000180: 7aec 863c 8b20 5d3c 4a93 e73b 24e1 393c
00000190: 0634 84bc 312e 3bbb 79e7 c03c 9640 fbb9
000001a0: f418 6f3c 822b bcbb 7fcb 97bb 7a3e bc3b
000001b0: 8eb3 a4ba 8505 19bc 5287 37bc 74d6 c53b
000001c0: 1866 cc3b 1fa4 1b3b 2679 5dbb 8927 963c
000001d0: d086 5e3c 2dcd 573c 8354 7dbb b5b0 a03b
000001e0: 40ab 1e3c d3b4 113c f878 aa39 ae78 2bbc
000001f0: a1ff 003c 5817 94bb 432d 93bb 22ea 05bc

conv1.lin.weight f4 [128, 768]
-0.044259798 -0.01986835 -0.020229649 0.051803008 -0.03498455 -0.0030591744 0.080422185 -0.02072661
0.0016750275 -0.034896165 -0.049809646 -0.06228318 0.0047801826 -0.009189989 0.04132889 -0.03160674
-0.038448237 -0.016164495 -0.033982057 0.009513223 0.013825324 0.025482329 -0.0429869 0.0018693726
0.013763849 -0.007768688 -0.0072814734 -0.06076505 0.031852357 -0.03627386 0.03140931 -0.009691467
-0.016878612 0.004635462 0.014487412 0.0073824967 -0.0008407789 -0.07153425 0.034297984 -0.0037033367
0.053517886 -0.010011753 0.011496477 0.016707322 -0.040642764 -0.018576732 0.022280816 -0.017941553
0.0153156975 0.0013991003 -0.023865188 -0.040450037 -0.017858103 0.023468638 0.034513533 0.0108054355
-0.0062616626 -0.050364394 0.035248533 -0.015998468 0.006792794 -0.009458716 0.00993515 0.009847069
-0.01638931 -0.01807085 0.041731533 0.05167003 -0.0057435106 0.010371409 -0.023007542 -0.0001383578
-0.041548546 0.070024036 0.010903865 -0.028006382 -0.03130604 -0.060579658 -0.0005610849 -0.027996352
0.052980967 0.0055247187 -0.009930396 0.02141026 -0.0038129708 -0.011215118 0.00025286508 0.06928463
-0.010017371 -0.045987938 -0.026905 -0.0149713075 -0.0028339115 0.017727511 -0.008688772 0.023042068
-0.005115293 0.005738256 -0.046628363 -0.026147587 -0.0034880142 0.0016325184 0.0052754027 -0.027393471
-0.019155568 -0.00045323017 -0.048545502 -0.016905146 -0.03717384 0.0062119025 0.015920915 0.06338483
-0.022804929 0.02484904 0.0041423147 0.010548002 0.03294827 0.014535698 0.08605711 -0.00874208
-0.020036364 -0.003682268 0.019858036 -0.0005951284 -0.0077850395 -0.038050286 0.023447204 -0.008045703
-0.07542104 -0.020779125 -0.03200282 0.010934184 2.3420114e-05 -0.031416927 0.016019316 0.026706599
-0.024240436 0.04489872 -0.0076897833 -0.046694107 -0.010204274 0.0046076686 -0.035809476 -0.051944427
0.007866335 -0.0084736245 -0.0018134385 -0.025076918 0.0026578412 -0.042012833 -0.05300139 0.0051616128
-0.01669961 0.0018815867 0.0059614843 0.0075285505 0.0009079735 0.0064901826 0.040144578 0.03576168
0.031200659 -0.025567655 -0.004554251 0.016875552 -0.024981156 -0.04353487 -0.022832902 0.032108743
0.06539069 -0.046371996 -0.0019759135 0.025636084 -0.0008554051 0.061168723 -0.021698648 0.023886757
-0.007620557 0.01072992 -0.00029760372 0.050414283 0.045890074 0.004123052 0.009786124 -0.028422978
-0.026549008 0.044327814 -0.043831117 0.024966365 -0.024474457 0.006421551 -0.01646046 -0.051713556
-0.0014493796 -0.001092012 -0.0156011935 -0.017737582 -0.024987713 -0.042816546 -0.023007477 0.04076801
0.01919212 -0.05955626 0.04011087 -0.039301805 0.05585521 0.016278677 0.045847863 0.025398979
-0.02793285 -0.028237429 -0.0015649286 0.06446904 -0.02834551 0.0059105875 0.0076835454 0.048995566
-0.033854652 -0.0025026791 0.0030193774 -0.05443488 0.019066358 0.047831878 -0.016440123 0.011752161
0.0063492884 -0.0239485 -0.028703474 0.0067086625 0.021968877 -0.0021053343 -0.049036697 -0.045603227
0.004174401 0.03978194 -0.017462252 -0.052637957 -0.0063596303 0.06913928 0.026476303 0.016864326
-0.005927694 0.0014665407 -0.014036334 0.08059011 -0.016266985 0.014943981 -0.026538743 -0.011176439
0.007492147 0.046357457 0.019320983 0.03095991 -0.0069985227 -0.007992873 0.07564812 0.053205207
00000000: c349 35bd f3c2 a2bc a6b8 a5bc 642f 543d
00000010: f64b 0fbd 6e7c 48bb 63b4 a43d daca a9bc
00000020: 998c db3a 48ef 0ebd 3305 4cbd a61c 7fbd
00000030: 14a3 9c3b 9c91 16bc 7b48 293d 1276 01bd
00000040: e67b 1dbd 676b 84bc c530 0bbd 59dd 1b3c
00000050: 9d83 623c 51c0 d03c 0813 30bd bc05 f53a
00000060: c481 613c 7a90 febb 6d99 eebb c6e4 78bd
00000070: 9e77 023d e693 14bd 0ca7 003d f5c8 1ebc
00000080: 0445 8abc 13e5 973b 9c5c 6d3c dfe8 f13b
00000090: b867 5cba 8d80 92bd 0b7c 0c3d aeb3 72bb
000000a0: 9235 5b3d 5608 24bc b85b 3c3c cbdd 883c
000000b0: 0779 26bd 3b2e 98bc 4286 b63c 2afa 92bc
000000c0: b1ee 7a3c 0462 b73a ed80 c3bc f0ae 25bd
000000d0: 284b 92bc 4d41 c03c 105e 0d3d 4809 313c
000000e0: a22e cdbb e54a 4ebd c460 103d 380f 83bc
000000f0: 1696 de3b bbf8 1abc 0ac7 223c 9a55 213c
00000100: e042 86bc 5209 94bc afee 2a3d f4a3 533d
00000110: 0f34 bcbb d8ec 293c 507a bcbc 2414 11b9
00000120: cf2e 2abd c368 8f3d 20a6 323c a46d e5bc
00000130: c33a 00bd 6022 78bd c515 13ba 9b58 e5bc
00000140: 9202 593d b308 b53b 1ab3 22bc 9264 af3c
00000150: 09e3 79bb 9dbf 37bc fa92 8439 1ae5 8d3d
00000160: e61f 24bc d95d 3cbd e067 dcbc 374a 75bc
00000170: 25b9 39bb 4939 913c 5a5b 0ebc b8c2 bc3c
00000180: 309e a7bb fb07 bc3b 62fd 3ebd 7733 d6bc
00000190: 2b97 64bb 3afa d53a 49dd ac3b 4668 e0bc
000001a0: 23ec 9cbc 869f edb9 a6d7 46bd a97c 8abc
000001b0: 9943 18bd 378d cb3b 946c 823c e8cf 813d
000001c0: 67d1 babc 3790 cb3c 41bc 873b 87d1 2c3c
000001d0: c4f4 063d 2327 6e3c b63e b03d f13a 0fbc
000001e0: 4d23 a4bc 3552 71bb 52ad a23c 6402 1cba
000001f0: a519 ffbb 9eda 1bbd 5a14 c03c 20d2 03bc
00000200: 5976 9abd fc38 aabc 6415 03bd 4b25 333c
00000210: 5076 c437 09af 00bd f13a 833c ccc7 da3c
00000220: e193 c6bc b8e7 373d 94fa fbbb 5242 3fbd
00000230: d42f 27bc edfb 963b f5ac 12bd aec3 54bd
00000240: cde1 003c f5d4 0abc e6b0 edba 1c6e cdbc
00000250: 2d2f 2e3b a615 2cbd fc17 59bd bf22 a93b
00000260: 9fcd 88bc 939f f63a 8e58 c33b 0fb2 f63b
00000270: 1205 6e3a 99ab d43b a46e 243d d77a 123d
00000280: 8698 ff3c 4273 d1bc d43b 95bb 993e 8a3c
00000290: 48a5 ccbc 9f51 32bd 110c bbbc 7584 033d
000002a0: 8eeb 853d 90f0 3dbd 547e 01bb c402 d23c
000002b0: 443d 60ba 0e8c 7a3d 5dc1 b1bc 29ae c33c
000002c0: deb5 f9bb 8ccc 2f3c b207 9cb9 357f 4e3d
000002d0: 3bf7 3b3d ab1a 873b fb55 203c 4ed7 e8bc
000002e0: 4e7d d9bc 1591 353d 4288 33bd 4386 cc3c
000002f0: a87e c8bc e06b d23b 16d8 86bc 98d1 53bd
00000300: 1cf9 bdba d821 8fba 269c 7fbc 684e 91bc
00000310: 08b3 ccbc 6760 2fbd 2d7a bcbc 5bfc 263d
00000320: cb38 9d3c 44f1 73bd 4c4b 243d eefa 20bd
00000330: 6fc8 643d dc5a 853c f8ca 3b3d 8511 d03c
00000340: 6fd3 e4bc 2e52 e7bc 4a1e cdba 5808 843d
00000350: d834 e8bc 9aad c13b 40c6 fb3b 93af 483d
00000360: 2dab 0abd fd03 24bb bfe0 453b 1cf7 5ebd
00000370: 0d31 9c3c 5ceb 433d 70ad 86bc 238c 403c
00000380: b10d d03b a52f c4bc 8c23 ebbc 57d4 db3b
00000390: 13f8 b33c a6f9 09bb b4da 48bd 73ca 3abd
000003a0: 6ac9 883b 63f2 223d ff0c 8fbc e69a 57bd
000003b0: 7264 d0bb e598 8d3d d5e4 d83c 0e27 8a3c
000003c0: 1a3d c2bb f138 c03a a7f8 65bc 6d0c a53d
000003d0: 5742 85bc 99d7 743c c767 d9bc 621d 37bc
000003e0: af80 f53b 51e1 3d3d 0a47 9e3c a39f fd3c
000003f0: dd53 e5bb 8af4 02bc 67ed 9a3d b4ed 593d

conv2.att_src f4 [1, 8, 16]
0.38324714 -0.1753353 0.3093118 0.2792743 -0.42677027 -0.03695071 0.282186 -0.2178953
0.21243785 0.35743147 -0.11411304 0.08713368 -0.2197851 0.3227391 0.32437015 -0.39172223
-0.044880643 0.50374687 0.13850185 0.4372486 -0.4181422 0.024389371 0.30137575 0.37838292
0.20990354 -0.29465413 0.16271812 0.09784009 -0.0527961 0.13027911 -0.46537566 0.43829724
0.058766767 -0.01818123 -0.35920045 0.3659871 0.4246528 -0.15091765 -0.14755127 0.16702263
0.36822858 0.44827896 0.1802029 0.07993944 -0.43912426 0.1423992 0.16536509 -0.30271855
-0.25604343 -0.24245532 0.39103156 -0.24916975 0.06434065 0.4298504 -0.42227814 0.034742683
-0.09292665 -0.07551051 0.31416592 -0.0913297 0.28778672 0.38346544 -0.043286733 -0.20557833
-0.19870248 -0.04185281 -0.19850975 -0.29423645 0.4571141 0.38441485 0.35687846 -0.20318486
0.42393735 0.42730102 -0.064481065 -0.12074547 0.023249287 0.23542143 0.054363694 -0.29813287
0.4047685 0.41563764 -0.3900778 0.33742908 0.12967333 -0.44641435 -0.29059398 0.34684253
-0.15990463 0.39542824 -0.40903223 0.33719778 -0.27374834 -0.20625415 0.026362613 -0.28480744
-0.27366745 -0.31520674 0.008929853 -0.12694643 0.31157872 -0.45135146 0.41102532 0.17067093
-0.08668966 -0.12427304 -0.26942533 0.074387796 0.3305964 0.2374434 0.40709475 -0.16970725
0.17748427 0.4748857 0.40649766 -0.16402562 -0.25171694 -0.33361766 0.4336837 0.40320042
-0.15641354 0.37659997 -0.4147938 0.35272145 0.07320235 0.24682938 -0.10208971 0.11275407
00000000: f838 c43e 198b 33be 1e5e 9e3e 0bfd 8e3e
00000010: a281 dabe a159 17bd af7a 903e f21f 5fbe
00000020: 4f89 593e 4201 b73e 19b4 e9bd 2573 b23d
00000030: 580f 61be 0f3e a53e d813 a63e d18f c8be
00000040: c4d4 37bd 8ef5 003f 6ed3 0d3e 0cdf df3e
00000050: bc16 d6be 38cc c73c ec4d 9a3e 68bb c13e
00000060: f4f0 563e e8dc 96be 949f 263e 6360 c83d
00000070: b940 58bd e367 053e b845 eebe 7f68 e03e
00000080: 6cb5 703d cef0 94bc 1fe9 b7be a962 bb3e
00000090: 186c d93e 288a 1abe ae17 17be fb07 2b3e
000000a0: 7588 bc3e d284 e53e 1c87 383e 4ab7 a33d
000000b0: e5d4 e0be 19d1 113e 7755 293e edfd 9abe
000000c0: 2018 83be 3546 78be 4a35 c83e 5b26 7fbe
000000d0: 08c5 833d 5a15 dc3e d734 d8be 584e 0e3d
000000e0: 5450 bebd 41a5 9abd 5bda a03e 110b bbbd
000000f0: c858 933e 9555 c43e 6e4d 31bd 2083 52be
00000100: aa78 4bbe da6d 2bbd 2446 4bbe 29a6 96be
00000110: dc0a ea3e 06d2 c43e c6b8 b63e b10f 50be
00000120: 510e d93e 33c7 da3e a60e 84bd 6749 f7bd
00000130: 4a75 be3c 5112 713e 77ac 5e3d dfa4 98be
00000140: d13d cf3e 75ce d43e 47b8 c7be 81c3 ac3e
00000150: 16c9 043e 6c90 e4be bcc8 94be 5895 b13e
00000160: 0abe 23be 9275 ca3e ac6c d1be 30a5 ac3e
00000170: be28 8cbe 4a34 53be 68f6 d73c 48d2 91be
00000180: 241e 8cbe c762 a1be 854e 123c 3ffe 01be
00000190: 3f87 9f3e 8a17 e7be e971 d23e 5cc4 2e3e
000001a0: 598a b1bd dd82 febd 1ef2 89be a158 983d
000001b0: ee43 a93e 5d24 733e b96e d03e bdc7 2dbe
000001c0: 70be 353e 3824 f33e 7620 d03e 55f6 27be
000001d0: 0be1 80be efcf aabe ca0b de3e 4970 ce3e
000001e0: df2a 20be b6d1 c03e da5f d4be e897 b43e
000001f0: 1deb 953d d7c0 7c3e 6914 d1bd 9beb e63d

conv2.att_dst f4 [1, 8, 16]
0.24999237 -0.24583623 -0.35491598 -0.29349568 0.067849904 -0.40369266 -0.38268474 0.22801664
0.09446779 -0.36274096 0.23568949 0.14240868 -0.2445686 0.09785143 0.008534287 -0.2270974
-0.11002757 -0.07185234 -0.26546824 0.31724533 -0.042563215 -0.1555631 0.35423565 -0.37246236
0.032019004 0.16016604 -0.026153099 0.07848139 -0.30993766 0.061657704 -0.22635292 0.1842957
-0.33766937 0.4634823 -0.122690104 -0.020017972 0.41497144 -0.0447544 -0.02396564 0.026720848
0.34349692 0.49800646 0.34322783 0.14442372 0.14220005 -0.16802575 0.4380874 -0.08326867
-0.13020885 0.18992572 -0.19313471 -0.016786287 0.03765102 -0.067091905 0.35216254 -0.013656138
-0.06888348 -0.2953464 0.3640041 0.033102036 0.09144575 -0.20980226 -0.28351247 -0.074007794
0.4098886 -0.18833618 -0.2013369 0.34544823 -0.34030616 -0.0046682884 -0.07390091 -0.18364081
0.21222192 -0.25353178 -0.23447354 -0.19310212 -0.3172744 -0.113895506 -0.17740203 0.08887143
-0.007447647 0.22941495 -0.12931989 -0.1751195 -0.3460895 0.2161833 -0.17746952 0.35855138
0.45866334 -0.3092443 -0.3870223 0.074883185 0.04117896 0.37146807 0.17494883 -0.18906513
-0.029374927 0.07533887 0.41297397 0.4187553 0.035130084 -0.29162705 0.23545328 -0.13151836
0.05816837 -0.21446227 -0.16148157 -0.32622597 -0.35796922 -0.4598686 0.0017911326 -0.11965609
0.24210328 0.31765875 0.39067987 0.22396815 -0.3141058 -0.42623124 0.03766234 0.24363184
0.059046604 0.39836976 -0.18804725 0.29798934 0.39202142 -0.031320997 -0.015968207 -0.1591251
00000000: 00fe 7f3e 7ebc 7bbe 8cb7 b5be 1145 96be
00000010: e4f4 8a3d ceb0 cebe 41ef c3be 327d 693e
00000020: 5478 c13d 2fb9 b9be 9658 713e 95d3 113e
00000030: 3170 7abe 5566 c83d 65d3 0b3c 398c 68be
00000040: 2256 e1bd 5227 93bd 74eb 87be fb6d a23e
00000050: c456 2ebd ef4b 1fbe 605e b53e 63b3 bebe
00000060: 5c26 033d 9102 243e 063f d6bc daba a03d
00000070: 26b0 9ebe ca8c 7c3d 0fc9 67be 03b8 3c3e
00000080: 00e3 acbe 8d4d ed3e f344 fbbd bbfc a3bc
00000090: 2377 d43e 6450 37bd 9753 c4bc aee5 da3c
000000a0: d4de af3e b4fa fe3e 8fbb af3e d0e3 133e
000000b0: e49c 113e f10e 2cbe fe4c e03e c488 aabd
000000c0: 7855 05be e37b 423e 1bc5 45be 6583 89bc
000000d0: f537 1a3d 7b67 89bd a64e b43e ffbd 5fbc
000000e0: c812 8dbd a537 97be bf5e ba3e 0096 073d
000000f0: e947 bb3d 67d6 56be 8c28 91be 6691 97bd
00000100: ebdc d13e 33db 40be 432b 4ebe 97de b03e
00000110: 9c3c aebe 71f8 98bb 5c59 97bd 560c 3cbe
00000120: b450 593e ebce 81be d519 70be 90bc 45be
00000130: ca71 a2be 0c42 e9bd e1a8 35be 3902 b63d
00000140: 640b f4bb c1eb 6a3e 6f6c 04be 8752 33be
00000150: a532 b1be 285f 5d3e 92ba 35be 0c94 b73e
00000160: ecd5 ea3e 4555 9ebe c927 c6be 5b5c 993d
00000170: 45ab 283d 1031 be3e c925 333e 4a9a 41be
00000180: b0a3 f0bc 444b 9a3d 5371 d33e 1867 d63e
00000190: 90e4 0f3d 2450 95be aa1a 713e c0ac 06be
000001a0: f541 6e3d ff9b 5bbe 6d5b 25be 1707 a7be
000001b0: be47 b7be e673 ebbe 70c4 ea3a 410e f5bd
000001c0: ece9 773e 2ba4 a23e 3107 c83e e857 653e
000001d0: 7ad2 a0be fb3a dabe d343 1a3d a07a 793e
000001e0: dada 713d 1ff7 cb3e 758f 40be 0f92 983e
000001f0: 08b7 c83e 724a 00bd c2cf 82bc b1f1 22be

conv2.bias f4 [128]
0.015148748 0.012923155 0.029550282 -0.0055399123 -7.4485695e-05 0.01522477 0.012579163 -0.018139606
0.0058121793 0.0021474827 0.010423752 0.0148873655 0.028138656 -0.004970963 0.002353808 0.017263038
0.012963928 0.023119794 -0.0075588026 0.0012209107 -0.017375799 0.008237749 0.0012881807 0.008316893
0.021046316 0.012840508 0.010372892 0.015133456 -0.0010503104 0.00820744 0.0013561926 0.000328966
0.06065288 0.006151191 0.00095726876 -0.007793585 -0.0011733364 0.0035746722 -0.0043754824 -0.0024553977
0.00405006 -0.014342138 0.0134864515 -0.00018903882 -0.030000025 -0.016312245 -0.006483831 -0.007132607
0.01382019 0.00792168 -0.0037740283 -0.014604167 0.0071787 -0.0145658115 -0.014181722 0.017867345
0.0036912984 -0.00038555454 0.017409341 0.012478164 0.013944879 0.004106929 -0.009804343 0.009470366
0.008090458 -0.007918123 0.022181878 -0.00013772178 -0.0058844667 -0.04252745 0.004170822 0.009033386
0.007521791 -0.004196872 -0.0028640297 0.004343931 0.006620073 0.0097162295 -0.005946842 0.018184805
0.007515389 0.010053179 0.013572483 0.0029485684 0.006971673 0.011960671 0.0047869748 -0.007216584
0.0035312774 0.03926069 0.016175816 0.038715694 0.009509674 0.020146115 0.0069402233 -0.00068833947
0.0020189162 -0.012150728 -0.021684932 0.010314813 -0.020996628 0.019160265 0.010616343 0.009733149
0.0019725293 -0.0096764555 0.0028007615 0.00930236 0.00033068148 0.015358794 0.0017331194 -0.010435464
-0.002813906 -0.0056378967 0.013961551 0.004209461 0.0116344225 0.005158731 0.0015915689 0.017845275
-0.00021983043 0.016709398 -0.010379642 0.011635877 0.012727485 0.0072065936 -0.0007575311 0.017555349
00000000: 7432 783c a4bb 533c 6f13 f23c 2788 b5bb
00000010: 3435 9cb8 5071 793c d518 4e3c 8399 94bc
00000020: 1874 be3b c8bc 0c3b 62c8 2a3c 23ea 733c
00000030: 0a83 e63c 76e3 a2bb 5842 1a3b 376b 8d3c
00000040: a866 543c b965 bd3c d5af f7bb f706 a03a
00000050: b157 8ebc a0f7 063c 2cd8 a83a 9443 083c
00000060: 5369 ac3c fe60 523c 10f3 293c 51f2 773c
00000070: 92aa 89ba 8078 063c 46c2 b13a 1279 ac39
00000080: 286f 783d ee8f c93b 38f1 7a3a 5461 ffbb
00000090: a3ca 99ba 0c45 6a3b 3560 8fbb bdea 20bb
000000a0: 5eb6 843b 49fb 6abc 47f6 5c3c b938 46b9
000000b0: 9dc2 f5bc 42a1 85bc 5176 d4bb a5b8 e9bb
000000c0: 146e 623c efc9 013c b055 77bb 5146 6fbc
000000d0: 4d3b eb3b 71a5 6ebc 745a 68bc 8a5e 923c
000000e0: b6e9 713b 4124 cab9 099e 8e3c 3771 4c3c
000000f0: 1079 643c 6b93 863b 65a2 20bc 9829 1b3c
00000100: d78d 043c 04bb 01bc c5b6 b53c 6969 10b9
00000110: 7cd2 c0bb 4331 2ebd 64ab 883b c400 143c
00000120: 5b79 f63b ea85 89bb 72b2 3bbb 8957 8e3b
00000130: 33ed d83b d230 1f3c badd c2bb 4df8 943c
00000140: a743 f63b 17b6 243c 1f5f 5e3c c53c 413b
00000150: a272 e43b b1f6 433c 0edc 9c3b 1879 ecbb
00000160: 016d 673b d1cf 203d 2583 843c 5994 1e3d
00000170: 77ce 1b3c 7709 a53c d06a e33b ae71 34ba
00000180: cb4f 043b d913 47bc 99a4 b1bc 76ff 283c
00000190: 1f01 acbc fdf5 9c3c 2bf0 2d3c c977 1f3c
000001a0: 8d45 013b ff89 1ebc fb8c 373b ed68 183c
000001b0: 515f ad39 73a3 7b3c d629 e33a 82f9 2abc
000001c0: 8269 38bb 1bbe b8bb fdbe 643c 85ef 893b
000001d0: 4e9e 3e3c 920a a93b 319c d03a 4130 923c
000001e0: 4882 66b9 26e2 883c 600f 2abc 68a4 3e3c
000001f0: f186 503c 4a25 ec3b 0d95 46ba 3cd0 8f3c

conv2.lin.weight f4 [128, 128]
-0.10856979 -0.05525347 0.029048279 0.014779707 -0.034775555 0.028100636 -0.100671135 0.11542877
0.03715569 -0.08494598 -0.08590041 0.056423903 -0.00036030926 0.1549992 -0.0142521635 0.044188958
-0.06919526 0.003289654 0.06623078 -0.02823916 0.12198607 0.12426539 0.0018891352 -0.15045777
0.004545781 0.090161696 0.015581488 0.0052187117 0.018615993 -0.07852126 0.057132483 -0.12733047
-0.02435484 0.06595349 0.07436989 0.013718622 0.13906074 0.055130903 0.00013169927 0.123656906
0.0061553367 0.09801132 0.11726624 -0.012459287 -0.024560815 -0.1197874 0.14295466 -0.018207716
-7.277586e-05 0.12412786 -7.607311e-06 -0.024369488 0.020452365 -0.094185844 0.15388559 -0.0910977
-0.058595393 0.08226369 -0.010791911 -0.007232178 0.09934931 0.020737031 0.076160386 -0.048669416
0.04452599 -0.07900299 -0.10251468 0.10731419 0.13455679 0.07257081 0.0064401994 -0.0034925498
0.12308093 0.007992074 0.11159362 0.02275074 -0.016709238 0.047939207 -0.047568955 0.00024122902
-0.008823529 0.071953624 0.12669438 0.10038893 -0.054974757 -0.0237666 0.07692859 -0.02906998
-0.07613348 -0.008371581 -0.14000297 0.07762617 0.03166213 0.0058978363 -0.07856858 -0.011238657
0.0647403 0.054881584 0.04819163 0.032174516 0.13012171 0.09373091 -0.10768556 0.022415316
0.15674551 0.08792104 -0.048963275 0.05004994 0.0843009 -0.0023649982 -0.039042767 0.15282217
0.14081599 0.089297965 0.014133304 -0.022180434 -0.088954635 0.13478865 0.03841334 -0.07510316
0.019758519 0.14943442 -0.084869206 -0.10118848 0.11126831 -0.086874805 -0.1479618 -0.0823294
-0.0056734756 0.07546594 -0.10452452 0.086006515 -0.0389316 -0.02917047 -0.11118174 -0.0024197348
-0.07601719 -0.14652494 -0.059407756 -0.0035521004 0.009223723 0.10410734 -0.045244247 0.01331557
-0.006009196 0.018393716 0.008850459 -0.046958093 0.0363947 -0.020139296 -0.022881415 -0.02110695
0.06496378 -0.03783282 -0.0006120118 -0.07783588 -0.03471251 0.0072122603 0.020624468 0.0007222071
0.09272525 0.039770894 -0.0036292288 -0.017840954 -0.046217855 -0.132042 -9.814541e-05 0.06072322
-0.04003137 0.026592959 0.015594817 0.0008117231 -0.019264054 0.029840358 -0.09497138 0.10295839
-0.0018872807 -0.0033091323 4.237947e-05 -0.008198997 0.0065968786 -0.0006799512 0.038351774 -0.037871312
0.08562758 -0.024677223 -0.07800712 0.103137895 0.110206805 -0.01196878 -0.09335853 -0.096802905
-0.02372184 0.0822466 0.037176214 -0.0026673276 0.1136946 -0.013403511 0.03715299 -0.003937272
-0.0053379373 0.024666067 -0.12661737 -0.06470507 -0.020524034 -0.019735677 -0.007679334 -0.0005713719
-0.114458494 -0.107182585 0.15227401 -0.03128158 -0.1264482 0.09481314 0.05301922 -0.012756472
0.006719999 -0.03345658 -0.03014773 0.1403371 -0.053610258 -0.033226643 0.1122178 0.12487417
0.09939139 0.008064942 -0.074662045 -0.09036107 -0.077918686 0.051348887 0.06536911 0.0022560603
0.06806825 0.04435736 -0.050970607 0.14744385 -0.0015527608 0.0009117319 0.042445887 0.13626514
-0.014881801 -0.045710843 0.001415751 0.11046538 0.06366332 0.025525741 -0.036635663 0.030109763
0.012951772 -0.031063378 -0.056257024 -0.11199416 -0.005521394 -0.01976417 -0.058022574 0.120730735
00000000: d759 debd 7651 62bd a8f6 ed3c 9626 723c
00000010: d070 0ebd 4e33 e63c ab2c cebd eb65 ec3d
00000020: 9130 183d 28f8 adbd 8eec afbd c01c 673d
00000030: e4e7 bcb9 1cb8 1e3e e881 69bc 7bff 343d
00000040: 3fb6 8dbd 3c97 573b 01a4 873d d055 e7bc
00000050: d5d3 f93d da7e fe3d dc9c f73a 9a11 1abe
00000060: c6f4 943b b2a6 b83d 7f49 7f3c ba01 ab3b
00000070: 9180 983c c1cf a0bd c003 6a3d eb62 02be
00000080: cd83 c7bc a012 873d 3e4f 983d 12c4 603c
00000090: f065 0e3e f1d0 613d c118 0a39 d53f fd3d
000000a0: b5b2 c93b 29ba c83d 4829 f03d 0a22 4cbc
000000b0: c333 c9bc 1953 f5bd b562 123e 5928 95bc
000000c0: 3e9f 98b8 bf36 fe3d 4e42 ffb6 85a2 c7bc
000000d0: b88b a73c 82e4 c0bd 2f94 1d3e 6e91 babd
000000e0: b901 70bd de79 a83d 8ed0 30bc e8fb ecbb
000000f0: a777 cb3d b5e0 a93c faf9 9b3d 9559 47bd
00000100: e260 363d 52cc a1bd 37f3 d1bd 8bc7 db3d
00000110: 41c9 093e 01a0 943d 4f08 d33b 43e3 64bb
00000120: db11 fc3d 30f1 023c 328b e43d c35f ba3c
00000130: d0e1 88bc e75b 443d aad7 42bd 6cf2 7c39
00000140: 9090 10bc 6c5c 933d 2cbc 013e b698 cd3d
00000150: 362d 61bd 2cb2 c2bc bd8c 9d3d 2b24 eebc
00000160: dfeb 9bbd f528 09bc f05c 0fbe 78fa 9e3d
00000170: 26b0 013d a342 c13b 90e8 a0bd 5822 38bc
00000180: 9096 843d 83cb 603d 9664 453d 6dc9 033d
00000190: a03e 053e fef5 bf3d 3f8a dcbd 53a0 b73c
000001a0: e581 203e f20f b43d b78d 48bd 2a01 4d3d
000001b0: f3a5 ac3d 16fe 1abb 4feb 1fbd 6a7d 1c3e
000001c0: 1132 103e dae1 b63d 608f 673c beb3 b5bc
000001d0: d92d b6bd 0906 0a3e 4e57 1d3d b0cf 99bd
000001e0: 9edc a13c 5605 193e e8cf adbd e83b cfbd
000001f0: a4e0 e33d 6beb b1bd 4c83 17be 519c a8bd
00000200: 90e8 b9bb e38d 9a3d f410 d6bd 2f24 b03d
00000210: be76 1fbd e9f6 eebc 41b3 e3bd 6a94 1ebb
00000220: e7ae 9bbd a20a 16be 8c55 73bd 5bca 68bb
00000230: 191f 173c 3b36 d53d 0852 39bd 8c29 5a3c
00000240: cae8 c4bb 6bae 963c 8401 113c 2157 40bd
00000250: 9c12 153d 2afb a4bc ce71 bbbc 7be8 acbc
00000260: bb0b 853d 96f6 1abd 6b6f 20ba 6b68 9fbd
00000270: b42e 0ebd d354 ec3b a5f4 a83c 8052 3d3a
00000280: bce6 bd3d cee6 223d 5bd8 6dbb 3127 92bc
00000290: ef4e 3dbd 0536 07be 6ad3 cdb8 e9b8 783d
000002a0: eff7 23bd 7ad9 d93c 6781 7f3c d1c9 543a
000002b0: a6cf 9dbc c473 f43c 5b80 c2bd d9db d23d
000002c0: a25e f7ba 07de 58bb 9cc0 3138 1655 06bc
000002d0: a12a d83b c13e 32ba c016 1d3d f31e 1bbd
000002e0: 835d af3d e327 cabc 32c2 9fbd f639 d33d
000002f0: 1bb4 e13d b418 44bc c232 bfbd 9a40 c6bd
00000300: 4e54 c2bc e870 a83d 1646 183d 55ce 2ebb
00000310: b7d8 e83d 669a 5bbc bc2d 183d 3b04 81bb
00000320: dde9 aebb 7e10 ca3c fca7 01be 1784 84bd
00000330: 0522 a8bc b7ac a1bc eca2 fbbb 1ec8 15ba
00000340: 3769 eabd 8b82 dbbd b8ed 1b3e 1d21 00bd
00000350: a37b 01be 642d c23d ae2a 593d 8600 51bc
00000360: 7033 dc3b c409 09bd 5ff8 f6bc 87b4 0f3e
00000370: 6e96 5bbd a918 08bd 72d2 e53d 07be ff3d
00000380: b78d cb3d d222 043c 6ae8 98bd 3a0f b9bd
00000390: d593 9fbd 3653 523d 3de0 853d 69da 133b
000003a0: 5e67 8b3d 10b0 353d 8ec6 50bd 85fb 163e
000003b0: 0286 cbba 4b01 6f3a bddb 2d3d 1789 0b3e
000003c0: ccd2 73bc 4b3b 3bbd b890 b93a ac3b e23d
000003d0: ea61 823d 5c1b d13c 470f 16bd c0a8 f63c
000003e0: ab33 543c a078 febc c46d 66bd 325d e5bd
000003f0: cfec b4bb 78e8 a1bc 14a9 6dbd ad41 f73d

mlp.0.weight f4 [256, 256]
-0.0025415677 0.018390039 0.00056766346 0.010555162 0.036778145 -0.041618317 0.016344424 -0.006417799
0.001015858 0.0132210525 -0.011180758 -0.0039145485 0.009212606 -0.0032046943 0.0009216233 -0.007962293
0.02209507 0.042294964 -0.0038723762 0.001239902 -0.018730512 0.011857323 -0.0027853758 -0.027919495
-0.0049706497 -0.038769882 -0.007724769 -0.006735571 0.005790976 0.024992082 -0.005070828 0.010280344
0.017551063 0.009154479 0.01318677 0.016575044 0.0053584334 0.011352203 0.019929059 -0.021727094
0.0013008445 0.007492511 0.014925478 0.048359163 0.035981774 -0.00030942564 -0.01001855 -0.003050205
0.0051805777 0.00841738 0.004297857 0.014922003 -0.02295729 0.0009751293 -0.0009778853 -0.0051062955
-0.024615226 0.0039093285 0.004662717 0.004041703 0.009920616 -0.008480749 -0.020524783 -0.020028835
-0.018656678 0.013282401 0.009658099 0.009869783 0.024384957 0.016857889 0.022281151 0.038115717
0.016023502 -0.0008492198 0.0025053346 -0.015172434 -0.020807317 0.0037001644 0.0037711544 -0.0020980802
0.0086313505 0.024514923 -0.0021883445 0.02639361 -0.00066220586 0.0046545803 0.0012393078 -0.008610946
0.03003537 -0.0014026988 0.010591267 -0.0044865203 0.020254087 0.01419721 -0.025220018 0.030250369
0.044603113 -0.0051716412 0.02192677 0.013339803 0.00487168 0.037496902 0.004809694 0.0069151665
-0.024009 0.028529832 0.010504897 -0.014587456 0.004449217 -0.01038086 0.0071096364 -0.0021011983
-0.021815477 0.006628415 0.0189603 -0.0066355094 0.0022365216 -0.0078424765 0.027514996 0.00020651436
0.01654711 0.0059143356 -0.021901071 0.02129628 0.018014612 0.020933501 -0.0023809946 0.029742118
-0.014258724 -0.0076884655 -0.02046538 0.01638129 0.05315784 -0.034540758 0.018811531 0.005343664
-0.016535131 -0.017623864 -0.060026538 -0.004015617 -0.002331531 -0.056702968 -0.00052747485 -7.312684e-07
-0.019200161 0.041433934 -0.0013201268 -0.0033453344 -0.03311845 -0.05241337 -0.0035452044 -0.04058871
-0.005264547 -0.049566325 0.0069132084 -0.022424126 0.005888858 0.030734887 -0.015790755 -0.005195259
-0.0021607094 0.019649778 0.03537861 0.02307291 -0.040970873 0.022600818 -0.04596256 -0.012845488
0.013831442 0.00853978 0.03238149 -0.011317428 -0.025086736 0.0025651213 -0.00013665856 -0.007901126
-0.030720387 -0.024280492 -0.019790366 -0.015430182 -0.008910133 -2.5584626e-05 5.7717607e-05 0.001877547
0.0046071075 -0.03375618 -0.014204596 -0.0020673585 0.000118130556 -0.027017219 -0.010764947 0.036591418
-0.0021486094 0.01462078 2.2388558e-06 0.050845712 0.034306437 -0.052456066 0.03494164 -0.052550066
-0.04641559 -0.01221351 -0.015134018 -0.05224588 -0.0004166555 -0.02852936 -0.016788218 -0.00086160965
-0.04275421 0.0086785555 -0.014411405 -0.014586404 0.030157123 -0.00062558905 0.000643121 -0.017348109
0.003957805 -0.011006203 -0.0051009753 -0.0020933487 -0.0027276115 -0.017803546 -0.069817774 0.033633042
-0.0014928936 -0.00040803273 -0.043997318 0.0009648828 -0.0063885073 -0.058539838 -0.036986563 0.027540082
-0.0014361386 -0.029703991 -0.0002724944 -0.020261107 -0.001190871 -0.030145084 -0.0063716606 0.00061379693
-0.0313858 -3.9118288e-05 -0.005345641 0.0011962415 0.04167045 0.015460369 -0.017032815 -0.05191022
-0.005240459 -2.6597922e-07 -0.008079051 -0.009428517 0.018443326 0.040998083 0.022912841 -0.0015930776
00000000: 6e90 26bb b5a6 963c 40cf 143a 8fef 2c3c
00000010: aea4 163d f877 2abd bee4 853c 664c d2bb
00000020: 8a26 853a 1d9d 583c 7f2f 37bc 9d45 80bb
00000030: 78f0 163c d905 52bb 1899 713a 4774 02bc
00000040: b800 b53c 7c3d 2d3d b1c7 7dbb 3584 a23a
00000050: bb70 99bc 3845 423c da8a 36bb 6db7 e4bc
00000060: d5e0 a2bb 2bcd 1ebd 0f20 fdbb 11b6 dcbb
00000070: 3ac2 bd3b 32bc cc3c 3029 a6bb e36e 283c
00000080: 3fc7 8f3c abfc 153c 520d 583c 63c8 873c
00000090: cc95 af3b 97fe 393c 4442 a33c 05fd b1bc
000000a0: 1981 aa3a bd83 f53b fe89 743c 4214 463d
000000b0: a061 133d 683a a2b9 d824 24bc f3e5 47bb
000000c0: d6c1 a93b 0de9 093c 0ad5 8c3b 6b7b 743c
000000d0: ed10 bcbc d29f 7f3a 632c 80ba b652 a7bb
000000e0: dfa5 c9bc d319 803b b5c9 983b 4370 843b
000000f0: 148a 223c d7f2 0abc 9723 a8bc 8313 a4bc
00000100: e4d5 98bc 6d9e 593c 013d 1e3c dfb4 213c
00000110: f6c2 c73c 8e19 8a3c f686 b63c 3a1f 1c3d
00000120: b843 833c 2d9e 5eba 8a30 243b cd95 78bc
00000130: 1b74 aabc 757e 723b 7925 773b f27f 09bb
00000140: 826a 0d3c 85d3 c83c 546a 0fbb 6937 d83c
00000150: e297 2dba 7385 983b 4570 a23a ed14 0dbc
00000160: bc0c f63c c3da b7ba fe86 2d3c a903 93bb
00000170: e6eb a53c 6a9b 683c 369a cebc 9fcf f73c
00000180: c1b1 363d df76 a9bb c59f b33c 308f 5a3c
00000190: 9da2 9f3b 5a96 193d a39a 9d3b 9f98 e23b
000001a0: 86ae c4bc 65b7 e93c bb1c 2c3c 3a00 6fbc
000001b0: bdca 913b 7c14 2abc f4f7 e83b 42b4 09bb
000001c0: 5fb6 b2bc 2d33 d93b a252 9b3c b06e d9bb
000001d0: 9b92 123b bb7d 00bc 2167 e13c c78b 5839
000001e0: ce8d 873c 0bcd c13b e069 b3bc 8975 ae3c
000001f0: 6193 933c bc7c ab3c 760a 1cbb bea5 f33c
00000200: 6c9d 69bc 86ef fbbb 03a7 a7bc 0e32 863c
00000210: 09bc 593d 9c7a 0dbd a41a 9a3c e719 af3b
00000220: af74 87bc ec5f 90bc 63de 75bd 7095 83bb
00000230: 99cc 18bb 5f41 68bd 3d46 0aba 624c 44b5
00000240: a849 9dbc a1b6 293d 1b08 adba 663d 5bbb
00000250: 36a7 07bd 67af 56bd a956 68bb 5940 26bd
00000260: 3982 acbb 0f06 4bbd 3288 e23b cdb2 b7bc
00000270: 52f7 c03b bbc7 fb3c 9d5b 81bc fe3c aabb
00000280: b09a 0dbb 92f8 a03c 29e9 103d 6603 bd3c
00000290: 13d1 27bd 5a25 b93c 3d43 3cbd e275 52bc
000002a0: 469d 623c 6fea 0b3c 74a2 043d bc6c 39bc
000002b0: b382 cdbc 981b 283b 014c 0fb9 b973 01bc
000002c0: 52a9 fbbc e2e7 c6bc 681f a2bc e0ce 7cbc
000002d0: cefb 11bc 919e d6b7 cf15 7238 0618 f63a
000002e0: 38f7 963b ec43 0abd 65ba 68bc 857c 07bb
000002f0: dcbc f738 3753 ddbc 765f 30bc e2e0 153d
00000300: afcf 0cbb ff8b 6f3c 403f 1636 9843 503d
00000310: e884 0c3d 2cdc 56bd f71e 0f3d bd3e 57bd
00000320: 461e 3ebd 2d1b 48bc acf4 77bc c7ff 55bd
00000330: 8e72 dab9 68b6 e9bc 7287 89bc a5dd 61ba
00000340: 0a1f 2fbd 8030 0e3c d01d 6cbc d0fb 6ebc
00000350: 120c f73c 92fe 23ba 1f97 283a 9f1d 8ebc
00000360: 7ab0 813b 5c53 34bc 1526 a7bb 9030 09bb
00000370: bac1 32bb bed8 91bc 9ffc 8ebd cdc2 093d
00000380: 32ad c3ba 3aed d5b9 8836 34bd 30f0 7c3a
00000390: af56 d1bb 78c7 6fbd 397f 17bd bd9b e13c
000003a0: d13c bcba c955 f3bc 94dd 8eb9 9ffa a5bc
000003b0: 0017 9cba d3f2 f6bc 5dc9 d0bb 37e7 203a
000003c0: 668e 00bd f112 24b8 7d2a afbb 34cb 9c3a
000003d0: a2ae 2a3d 7d4d 7d3c 6788 8bbc d09f 54bd
000003e0: 28b8 abbb e8cb 8eb4 ff5d 04bc 117a 1abc
000003f0: 7516 973c 9bed 273d b6b3 bb3c d0ce d0ba

mlp.0.bias f4 [256]
-0.042753022 -0.012781952 -0.03659138 0.003182777 -0.041293986 -0.016059306 -0.043121133 0.018176004
-0.038086776 0.0074496777 0.0076443423 0.022676852 -0.043883033 -0.007157542 -0.0025873927 0.033777647
0.037444424 -0.026562238 0.009011428 -0.0006537203 0.00041236353 -0.00040751894 0.013609261 0.00020911582
-0.05140836 0.03491557 0.014260075 -0.063338816 0.035408102 -0.01754695 0.05318756 -0.0068131466
-0.0043088594 -0.033166494 0.04378803 0.0056413566 -0.02317387 0.021813808 0.050549418 0.00438995
-0.0141289355 -0.0011233012 -0.039176565 -0.00010912237 -0.03237971 -0.013041913 -0.013662362 0.0018191879
-0.024593333 -0.05085491 -0.033666138 0.005561738 0.042708233 0.008919064 -0.0219263 -0.050400104
-0.004877759 0.033265803 -0.021002866 0.002922632 0.016412875 0.026846252 -0.017690888 -0.0044036927
0.019742262 -0.0352821 0.01661051 0.048047904 0.022259425 -0.019600106 -0.008260817 -0.048682477
-0.00094773876 -0.04938426 -0.01699357 0.0069443337 -0.0140055055 0.04798646 -0.010135447 0.010614922
-0.01854916 -0.0063384427 0.042413805 -0.0047662617 -0.011600689 0.054909963 -0.013022444 -0.0043033585
-0.0008810099 0.03539729 -0.03752648 -0.031498834 -0.030162882 -0.033447802 0.01706983 -0.038443014
-0.0023365517 0.005829869 0.001381799 -0.022621138 0.022653164 0.033457257 -0.017653368 -0.043694697
-0.023459313 0.03981285 0.040069375 -0.016872896 0.0124307275 -0.025911257 -0.012255919 0.016222024
0.029346745 -0.0037408073 -0.022930533 -0.019876994 -0.051747493 0.0103657935 -0.047506243 0.052562356
-0.024905158 0.0070399935 -0.040956855 -0.027089497 -0.023116367 0.0054346365 -0.005981121 0.034030333
0.02606024 -0.008518115 -0.0032545025 0.0051480336 0.0005088507 0.030455923 -0.039027058 -0.0006249841
-0.043966677 0.0063863345 -0.042202163 -0.008019606 -0.009511966 0.0021568784 0.04301098 -0.026569739
-0.041660614 0.030121475 -0.011763329 0.010855101 -0.037038743 0.017528212 -0.0266629 -0.039030578
-0.018540476 0.048847362 -0.023543423 0.011192142 0.046052784 -0.016188085 -0.03543845 0.026605729
-0.008354463 0.038417324 0.00076159637 0.03653171 -0.014873732 0.045930088 -0.020098533 0.021908836
0.049090665 -0.012897678 -0.0002672245 0.0008814049 0.03894562 0.04131608 -0.0042684823 0.018824467
0.041074947 -0.016181791 -0.033827208 0.017205594 0.01549 -0.026515823 0.01347446 -0.008587364
-0.0036571177 -0.03409332 0.00020543518 0.0305186 -0.0413843 -0.012435868 0.006688898 -0.012879706
-0.033651408 -0.035464965 -0.02886083 0.040715504 -0.0061779516 0.01737093 -0.032694552 -0.02336946
-0.009608658 0.046672948 0.04384778 -0.03900039 0.009038022 0.004362817 0.032723043 -0.04547769
-0.014875379 0.020379292 -0.027017912 0.015528233 -0.054064058 0.03302853 -0.01994461 0.03881879
0.05205706 -0.03272552 0.030191958 -0.0022435861 -0.008431225 0.00034491727 0.00893841 0.00026984545
-0.029715143 0.017730689 -0.006902552 -0.009672634 -0.05020354 -0.04036901 -0.024807276 -0.03115475
0.0024219055 -0.0070170667 -0.0010442281 0.044001374 -0.009211782 -0.041738525 -0.011086266 -0.0052339574
-0.041947465 -0.04247795 0.040024225 0.022759307 -0.04118077 -0.015444475 0.0013564894 -0.042261954
0.03759731 0.026933126 0.054826617 0.010821659 -0.00627615 -0.043814324 -0.04078512 0.0022031656
00000000: cb1d 2fbd 646b 51bc d8e0 15bd 2396 503b
00000010: e223 29bd ce8e 83bc c99f 30bd d8e5 943c
00000020: e100 1cbd 6d1c f43b 647d fa3b cec4 b93c
00000030: b2be 33bd d089 eabb 3f91 29bb 6e5a 0a3d
00000040: 535f 193d 0d99 d9bc aba4 133c 6d5e 2bba
00000050: 7f32 d839 44a8 d5b9 61f9 5e3c 1a46 5b39
00000060: 9391 52bd a103 0f3d 17a3 693c c8b7 81bd
00000070: 1608 113d 9fbe 8fbc 33db 593d d140 dfbb
00000080: 5531 8dbb 97d9 07bd 145b 333d 21db b83b
00000090: 21d7 bdbc dfb2 b23c e80c 4f3d 92d9 8f3b
000000a0: 0d7d 67bc bc3b 93ba 9b77 20bd a0d8 e4b8
000000b0: 96a0 04bd bfad 55bc 19d8 5fbc d171 ee3a
000000c0: f577 c9bc 3d4d 50bd 81e5 09bd 3d3f b63b
000000d0: d4ee 2e3d 4421 123c c99e b3bc 5770 4ebd
000000e0: 9cd5 9fbb b941 083d 340e acbc a189 3f3b
000000f0: 4b74 863c acec db3c 7bec 90bc da4c 90bb
00000100: 86ba a13c f783 10bd c412 883c e1cd 443d
00000110: 6659 b63c 6790 a0bc 6158 07bc 4767 47bd
00000120: ac71 78ba 2647 4abd 1936 8bbc 4b8d e33b
00000130: 5977 65bc 738d 443d 250f 26bc 36ea 2d3c
00000140: 68f4 97bc b6b2 cfbb 19ba 2d3d 4d2e 9cbb
00000150: d110 3ebc 45e9 603d 175c 55bc 3003 8dbb
00000160: 93f3 66ba c0fc 103d 5eb5 19bd ec04 01bd
00000170: 2618 f7bc 9000 09bd 07d6 8b3c 6c76 1dbd
00000180: d520 19bb 7c08 bf3b 7b1d b53a f74f b9bc
00000190: 2193 b93c 7a0a 093d cc9d 90bc 36f9 32bd
000001a0: bf2d c0bc cd12 233d c91f 243d 0739 8abc
000001b0: 40aa 4b3c d843 d4bc 0dcd 48bc 0de4 843c
000001c0: 9668 f03c 5528 75bb d0d8 bbbc 14d5 a2bc
000001d0: 2ef5 53bd 4ad5 293c e895 42bd a04b 573d
000001e0: e705 ccbc bfaf e63b 60c2 27bd cbea ddbc
000001f0: 895e bdbc 0915 b23b 48fd c3bb 6463 0b3d
00000200: 497c d53c 908f 0bbc 7e49 55bb d6b0 a83b
00000210: 6464 053a b37e f93c d6da 1fbd f9d5 23ba
00000220: 6716 34bd 7544 d13b 2ddc 2cbd aa64 03bc
00000230: 14d8 1bbc 6a5a 0d3b 482c 303d c8a8 d9bc
00000240: 52a4 2abd 50c1 f63c faba 40bc 98d9 313c
00000250: f0b5 17bd 5397 8f3c 276c dabc 87de 1fbd
00000260: 32e2 97bc 2c14 483d 23de c0bc 3f5f 373c
00000270: d8a1 3c3d e09c 84bc e827 11bd 42f4 d93c
00000280: 28e1 08bc 7c5b 1d3d dea5 473a 46a2 153d
00000290: f4b0 73bc 3021 3c3d aea5 a4bc 297a b33c
000002a0: 4b13 493d c850 53bc 441a 8cb9 150e 673a
000002b0: 7185 1f3d 0d3b 293d a0de 8bbb c535 9a3c
000002c0: 343e 283d ad8f 84bc 668e 0abd bff2 8c3c
000002d0: c5c9 7d3c b637 d9bc fbc3 5c3c 04b2 0cbc
000002e0: 41ac 6fbb 70a5 0bbd 166a 5739 2502 fa3c
000002f0: 9582 29bd d0bf 4bbc 8b2e db3b 6705 53bc
00000300: 0fd6 09bd b643 11bd 8c6d ecbc 4dc5 263d
00000310: 6a70 cabb 7b4d 8e3c b9ea 05bd 4f71 bfbc
00000320: a26d 1dbc 222c 3f3d bb99 333d dfbe 1fbd
00000330: 3614 143c f6f5 8e3b 9908 063d d046 3abd
00000340: ddb7 73bc 79f2 a63c ab54 ddbc 216a 7e3c
00000350: 4672 5dbd ed48 073d e162 a3bc 7400 1f3d
00000360: c939 553d 320b 06bd 2055 f73c 2109 13bb
00000370: 1f23 0abc 03d6 b439 6972 123c 0b7a 8d39
00000380: 2c6d f3bc f33f 913c ce2e e2bb f879 1ebc
00000390: 3aa2 4dbd fa59 25bd a138 cbbc 3f38 ffbc
000003a0: d5b8 1e3b 6cef e5bb 7bde 88ba c93a 343d
000003b0: 04ed 16bc 04f6 2abd 2ba3 35bc 9e81 abbb
000003c0: 1bd1 2bbd 5cfd 2dbd 71f0 233d ba71 ba3c
000003d0: 2bad 28bd d30a 7dbc 3bcc b13a df1a 2dbd
000003e0: a3ff 193d dca2 dc3c e091 603d 544d 313c
000003f0: 29a8 cdbb a676 33bd 4c0e 27bd fc62 103b
