results/VDJdb_0123_4.pth (torch, 731033 bytes, 11 tensors)

conv1.att_src f4 [1, 8, 16]
0	0xbda85282	-0.08218862
1	0xbe3751ad	-0.1790225
2	0xbe8d65d8	-0.27616763
3	0xbec3cd88	-0.38242745
4	0xbe49fa8d	-0.19724484
5	0x3e8b58c4	0.2721616
6	0xbe39f983	-0.18161587
7	0xbe06e1bb	-0.13172047
8	0xbeaefd48	-0.34177613
9	0xbe94efa9	-0.29089096
10	0x3edea6de	0.43486685
11	0x3ecfb334	0.4056641
12	0x3e2635c2	0.16231444
13	0xbde13e0d	-0.10998163
14	0xbe397027	-0.18109189
15	0xbb9ebac4	-0.0048440415
16	0xbdde89cd	-0.10866127
17	0xbd8fbb70	-0.07018173
18	0x3eac747c	0.3368262
19	0x3d79d3d0	0.060993016
20	0x3e453b06	0.19260797
21	0x3e28884f	0.16458248
22	0xbea3fd06	-0.3202898
23	0x3ee70b29	0.45125702
24	0xbed09c2e	-0.40744156
25	0xbe6be950	-0.2303822
26	0xbbf85322	-0.0075782696
27	0x3ec61905	0.38690963
28	0xbed7feaf	-0.42186496
29	0xbe63d1d1	-0.22248007
30	0x3e085622	0.13314107
31	0xbd4613bd	-0.048358668
32	0xbeb7e3db	-0.35916027
33	0xbe51567f	-0.20443152
34	0xbe291f24	-0.16515785
35	0xbd301a8a	-0.04299406
36	0x3ebc1be9	0.36740044
37	0xbccdd26a	-0.025124747
38	0x3cb71ef8	0.022353634
39	0x3d35a933	0.044350814
40	0x3ee7fc92	0.45309883
41	0xbe960bd1	-0.2930589
42	0x3d1cd1c3	0.038285982
43	0x3db23aab	0.08702596
44	0x3ece65e1	0.40312102
45	0xbe3aaf81	-0.18231012
46	0x3ec1f035	0.37878576
47	0x3eb6d9bf	0.35713002
48	0xbe804b4a	-0.2505744
49	0x3e5d234b	0.21595494
50	0x3cdb2e75	0.02675555
51	0xbe4bae61	-0.19890739
52	0x3e7a6359	0.2445196
53	0x3e5929f4	0.2120741
54	0xbed1f621	-0.41008094
55	0x3e13e385	0.1444226
56	0xbea36ac4	-0.31917393
57	0x3ec42cca	0.3831542
58	0xbbf647d4	-0.007515887
59	0x3da1736d	0.07883344
60	0x3e40cb34	0.18827516
61	0xbe472aed	-0.19449969
62	0xbea95a99	-0.33076933
63	0x3deb30a7	0.11483889
64	0x3e150bcf	0.14555286
65	0xbe730bb0	-0.23734927
66	0xbe95e5b7	-0.2927682
67	0x3e8d2abf	0.27571675
68	0xbd5eada6	-0.054364823
69	0x3ed32e16	0.41246098
70	0xbee198bf	-0.4406185
71	0xbed462fe	-0.41481775
72	0x3ed1bdeb	0.40965208
73	0x3e8f8717	0.28032753
74	0x3eda1e9b	0.42601475
75	0xbe3bd921	-0.18344547
76	0xbe62eabf	-0.22159861
77	0xbe21fc1c	-0.15818828
78	0x3e95b06c	0.29236162
79	0xbed88046	-0.42285365
80	0x3dc9cbe4	0.09853342
81	0x3eba6c67	0.3641083
82	0xbeabb6a7	-0.3353779
83	0xbeac2f17	-0.33629677
84	0xbec28ff3	-0.3800045
85	0x3e425299	0.18976821
86	0x3dda39f4	0.10655585
87	0xbe97f8e0	-0.29682064
88	0x3e42ddae	0.19029877
89	0xbbfcc16b	-0.007713487
90	0xbe45fbb1	-0.19334294
91	0x3db12d76	0.08651249
92	0x3ed2be4d	0.41160813
93	0x3e97b22a	0.29628116
94	0xbe4b1ecf	-0.19835971
95	0xbef213f2	-0.47280842
96	0xbe8e952a	-0.27848178
97	0xbd813892	-0.06309618
98	0x3ec589a9	0.3858159
99	0x3ec770b1	0.38953164
100	0x3ea311ab	0.31849417
101	0xbea40d5d	-0.32041445
102	0x3e12966a	0.14315191
103	0x3e432028	0.19055235
104	0xbe1b7db7	-0.15184675
105	0xbec3af20	-0.38219547
106	0x3eac9c2a	0.33712894
107	0x3dde679f	0.10859608
108	0xbe994ae1	-0.2993994
109	0xbcd4df81	-0.025985481
110	0xbbeb2276	-0.007175739
111	0x3ec66aa7	0.38753244
112	0xbe62c224	-0.22144371
113	0xbe56af20	-0.20965242
114	0xbded40d5	-0.11584631
115	0xbe8eb8b0	-0.2787528
116	0x3d672c94	0.056438997
117	0x3eb22ec1	0.34801295
118	0xbe5b7d8d	-0.21434613
119	0x3e53e32a	0.20692125
120	0xbe2ef2b2	-0.17084768
121	0x3c376d99	0.011195564
122	0xbe8b367a	-0.2719
123	0x3df23475	0.11826412
124	0x3ebd5ee8	0.3698647
125	0xbdbd4d7b	-0.09243294
126	0x3e3f3e25	0.1867605
127	0x3ea28f78	0.31750083

conv1.att_dst f4 [1, 8, 16]
0	0xbed904f9	-0.42386606
1	0xbeb39728	-0.3507626
2	0xbd556a8a	-0.052103557
3	0x3d4e4b43	0.050364744
4	0xbea9e7d7	-0.33184692
5	0xbe5ad4d1	-0.21370246
6	0x3e586c55	0.21135075
7	0x3e1795bc	0.14803213
8	0xbec29dde	-0.38011068
9	0xbe220dc4	-0.15825564
10	0x3e824ab9	0.25447634
11	0x3d8af9d5	0.06785933
12	0x3e403de2	0.18773606
13	0x3e314024	0.17309624
14	0x3dc923e5	0.098212995
15	0xbe003190	-0.12518907
16	0xbea49f90	-0.32152987
17	0x3e290480	0.16505623
18	0x3e7b64c9	0.24550165
19	0xbde23847	-0.1104589
20	0x3eb4f7c8	0.35345292
21	0x3da18323	0.078863405
22	0x3eba2339	0.36354998
23	0x3e0525f9	0.13002767
24	0x3dcfa4a4	0.101388246
25	0xbe55421d	-0.20826001
26	0xbe4c4ed8	-0.19951952
27	0x3e7651e5	0.24054678
28	0xbe0c2657	-0.136865
29	0xbe90af6f	-0.28258845
30	0x3e0bc96d	0.13651057
31	0xbea4356e	-0.32072014
32	0xbe98f7c8	-0.29876542
33	0x3d0f89de	0.03504359
34	0xbe024f06	-0.12725458
35	0xbe9fc7fe	-0.3120727
36	0x3d8f671d	0.07002089
37	0xbdbac3df	-0.09119391
38	0xbe2ecbe1	-0.17069961
39	0x3eb2c470	0.34915495
40	0xbe83ffe0	-0.25781155
41	0x3e97814d	0.29590836
42	0x3d8aeee7	0.06783848
43	0x3ec92441	0.39285472
44	0x3e830fb6	0.25597924
45	0xbe4bc35c	-0.19898742
46	0xbecc070b	-0.39849123
47	0xbec2a1c9	-0.38014057
48	0xbe79c2b5	-0.24390681
49	0x3e1b2b13	0.1515315
50	0x3e877f73	0.26464424
51	0xbe03a3de	-0.12855479
52	0xbeb9a845	-0.36261192
53	0x3de493e1	0.11161018
54	0x3d217462	0.039417632
55	0xbec42092	-0.383061
56	0x3dbf0791	0.09327615
57	0x3d95fcca	0.07323606
58	0xbe416fa7	-0.18890248
59	0xbeb04fd6	-0.3443591
60	0x3e7d1558	0.24715173
61	0x3ab8dc0a	0.0014103663
62	0x3cb28c9e	0.021795567
63	0x3e3ceeed	0.18450518
64	0x3c5b6016	0.013389608
65	0x3e826a13	0.25471553
66	0xbe77ff66	-0.2421852
67	0xbd131ad5	-0.03591426
68	0x3d9ba1f3	0.07599249
69	0x3e8cc83a	0.2749651
70	0x3ec2d5f1	0.3805385
71	0x3e5984b1	0.21242024
72	0x3de186ba	0.11012025
73	0xbe76151c	-0.2403149
74	0xbebc8a18	-0.36824107
75	0x3daad9f0	0.083423495
76	0xbe124494	-0.14283973
77	0xbea03f3b	-0.3129824
78	0x3ecca87c	0.39972293
79	0xbe175ffe	-0.14782712
80	0xbe8b6bad	-0.27230588
81	0xbdd6b5dc	-0.10483906
82	0x3d8aec4d	0.06783352
83	0xbd9d5201	-0.07681657
84	0xbe86fe3e	-0.26365846
85	0x3e98af56	0.2982127
86	0xbea71ffe	-0.32641596
87	0x3e46430a	0.19361511
88	0x3e482892	0.19546726
89	0xbdfa094e	-0.12208806
90	0x3c223822	0.009901078
91	0x3de5389f	0.1119244
92	0x3e8a90e5	0.2706367
93	0xbcee640e	-0.029100444
94	0xbdb72c88	-0.089440405
95	0x3c2db46b	0.010602097
96	0xbce8f043	-0.028434878
97	0x3e99ca2a	0.3003705
98	0xbde5efbe	-0.11227368
99	0x3dbf0b36	0.0932831
100	0xbe81e792	-0.25371987
101	0x3ba01dde	0.004886373
102	0xbeaf3b31	-0.34224847
103	0x3d9d64f3	0.0768527
104	0x3dfd2bf0	0.12361896
105	0x3dbdcf95	0.09268109
106	0x3da34cde	0.07973646
107	0x3e41edc9	0.18938364
108	0xbda2fb87	-0.07958131
109	0x3e8d44a2	0.27591425
110	0xbe84b93f	-0.25922582
111	0xbe1f5a49	-0.15561785
112	0x3d5eabd2	0.05436308
113	0xbe8d2093	-0.27563915
114	0xbe8b1f41	-0.27172282
115	0xbd3324ee	-0.04373639
116	0x3c67c48e	0.014145983
117	0xbc2642fd	-0.010147807
118	0xbe5ec34f	-0.21754192
119	0xbe24fde4	-0.16112477
120	0xbbe81ff1	-0.007083886
121	0x3e818a9e	0.2530107
122	0xbe7ba109	-0.24573149
123	0xbe15096b	-0.14554374
124	0xbd4a8f16	-0.049452864
125	0xbda2313f	-0.07919549
126	0xbeb46291	-0.3523145
127	0xbe5544e0	-0.20827055

conv1.bias f4 [128]
0	0x3bdbe7ab	0.0067109666
1	0x3c891393	0.016732967
2	0x3b4096df	0.0029386801
3	0x3c2b9bcb	0.010474156
4	0x3938bfba	0.00017619031
5	0x3bab94b7	0.005236234
6	0x3cb19bc3	0.021680718
7	0x3bcefa3d	0.006316452
8	0x3c1706cc	0.009217929
9	0x3bd449d7	0.006478529
10	0xbb737b12	-0.0037152213
11	0xbb340832	-0.0027470705
12	0x3c20eb97	0.009821794
13	0x3c3cad6d	0.011515957
14	0x3c9a8a69	0.018864827
15	0x3c049654	0.008092482
16	0x3c1c4f35	0.009540369
17	0x3c9158e1	0.017742576
18	0x3babbd70	0.0052410886
19	0xbc505309	-0.01271511
20	0x3bb5570b	0.005534058
21	0x3c36da0d	0.011160386
22	0x3c0dfdf6	0.008666506
23	0x3bc5534a	0.0060218917
24	0x39021dfa	0.00012408933
25	0x3ba9204d	0.0051613213
26	0x3bcdfd1a	0.0062862756
27	0x3b33d740	0.0027441531
28	0xbc24d8b0	-0.010061428
29	0x3bbdca9c	0.005791975
30	0x3bd39a12	0.0064575756
31	0x3c62c18d	0.013840091
32	0x3ce5ff86	0.028075945
33	0x3ca80437	0.020509822
34	0x3c87989f	0.016552268
35	0xbc52b4c6	-0.012860483
36	0x3c3f94ea	0.011693219
37	0x3c32f6c8	0.010923095
38	0x3c4042f7	0.011734716
39	0xbab46f69	-0.0013766113
40	0x3c294124	0.010330472
41	0x3b6eba9d	0.0036427148
42	0x3c3eb2c4	0.011639301
43	0x3c60e3f3	0.013726222
44	0x3b9a304d	0.004705465
45	0x3bbbba9a	0.0057290317
46	0x3bf410df	0.0074483003
47	0xba9a8bd9	-0.0011790945
48	0x3af79746	0.0018889687
49	0x3c2783b6	0.010224273
50	0x3c061303	0.008183244
51	0xba773171	-0.00094296696
52	0x3bce6c02	0.0062994966
53	0xbc0c1620	-0.008550197
54	0x3bffacfe	0.0078026047
55	0x3c520a46	0.012819832
56	0xbbbe3336	-0.0058044447
57	0x3c74a586	0.014932042
58	0x3b817944	0.0039512236
59	0x3c17f554	0.009274799
60	0x3bfe3c8e	0.0077586835
61	0x3bfb542d	0.0076699466
62	0x3bfd6935	0.007733489
63	0xbad16429	-0.0015975285
64	0x3c0d391a	0.008619571
65	0xbb074e62	-0.0020646085
66	0xbb0f264d	-0.0021842897
67	0x3c8470ef	0.016167132
68	0x3c28ece9	0.01031039
69	0x3bf57877	0.007491167
70	0x3b83348c	0.004004067
71	0x3ac25790	0.0014827121
72	0xbc456619	-0.012048268
73	0x3c9b9ef4	0.018996693
74	0x3c8b739a	0.017022897
75	0x3c95ace4	0.018270917
76	0xbaa72492	-0.0012751988
77	0x3c09a2ce	0.008400632
78	0xbae482e1	-0.0017434024
79	0x3b126db7	0.0022343227
80	0x3a198f1f	0.00058578135
81	0x3c0bc716	0.0085313525
82	0x3bdc7e51	0.0067289253
83	0x3c6bec80	0.014399648
84	0x3bf85614	0.0075786207
85	0x3c8a55d2	0.016886625
86	0xbac42f1c	-0.0014967653
87	0x3d2fa4d4	0.0428818
88	0x3c63252a	0.013863841
89	0xba7dce31	-0.0009681909
90	0xbc2859d9	-0.010275328
91	0x3c4ea237	0.012611917
92	0xbc2dfa8c	-0.010618817
93	0x3c8b7d72	0.01702759
94	0x3b3d61af	0.0028897335
95	0x3c63e49a	0.013909483
96	0x3cbe44fb	0.023226252
97	0xbb46bb14	-0.003032391
98	0x3a87f17b	0.0010371649
99	0x3c59d87a	0.013296241
100	0xba450502	-0.00075157
101	0xbc2c4de4	-0.010516617
102	0x3bc8cfa2	0.0061282674
103	0xbc12512a	-0.008930484
104	0x3c534c98	0.012896679
105	0x3b004642	0.0019573127
106	0x3c30fea4	0.010802899
107	0x3a297a10	0.0006465027
108	0x3b49cd48	0.0030792523
109	0x3c1affaf	0.009460374
110	0x3c2c5c46	0.010520047
111	0x3c210d57	0.009829841
112	0xbb1099e0	-0.0022064373
113	0x3b084237	0.002079142
114	0x3c12133f	0.008915721
115	0xbc52b835	-0.012861301
116	0x3c37da9d	0.011221555
117	0x3c2c2269	0.010506251
118	0x3c0a489e	0.008440165
119	0x3b45f43e	0.0030205394
120	0x3d06661e	0.03281223
121	0x3b5d1e3e	0.003373995
122	0x3bfa98ea	0.0076476233
123	0xbb9de105	-0.004818084
124	0x3bde570f	0.0067852805
125	0x3b9daef8	0.0048121177
126	0x3ab10301	0.0013504924
127	0x3c3b073f	0.011415302

conv1.lin.weight f4 [128, 768]
0	0xbcb3d7d3	-0.021953499
1	0xbc341f6e	-0.010993822
2	0x3cabbf8e	0.020965364
3	0x3d59e626	0.053198002
4	0x3b3b780a	0.0028605484
5	0xbd5c8074	-0.05383344
6	0x3d9dd4f0	0.0770663
7	0xbd62b57b	-0.055348855
8	0x3cf378ba	0.029720653
9	0xbd0afe86	-0.03393414
10	0xbd3cb571	-0.046071474
11	0xbce65946	-0.02811874
12	0x3cef7904	0.02923251
13	0xbc3c6e42	-0.011500897
14	0x3cd10587	0.025515331
15	0xba2d9229	-0.0006621206
16	0xbc93bff0	-0.018035859
17	0xbafd3d89	-0.0019320707
18	0xbc263249	-0.010143825
19	0x3cb70f7d	0.022346253
20	0x3b3e2648	0.0029014517
21	0x3d9399e4	0.07207087
22	0xbd806dd9	-0.06270952
23	0x3d8aae39	0.067715116
24	0x3d11dc47	0.035610463
25	0xbcc16253	-0.023606455
26	0xbd8022eb	-0.0625666
27	0xbdab2c9c	-0.08358118
28	0xbc05fc30	-0.008177802
29	0xbd4fcbf6	-0.05073162
30	0x3c877764	0.016536422
31	0xbca2caa5	-0.019872019
32	0xbd6eb08f	-0.05827385
33	0xbcd2edbe	-0.02574813
34	0x3cf2f5d8	0.029658243
35	0x3c0a6102	0.00844598
36	0x3d16cbea	0.03681556
37	0xbd08ae2a	-0.03336922
38	0x3d4c85bd	0.04993223
39	0xbc17601f	-0.009239226
40	0x3bfd25fb	0.007725475
41	0xbc1ed708	-0.009694822
42	0xbcebf187	-0.028801693
43	0x3cae8a58	0.021306202
44	0xbceeb77d	-0.029140228
45	0x3aa4f58e	0.0012585388
46	0x3d2997e3	0.041404616
47	0xbbf60514	-0.0075079296
48	0x3b89c248	0.0042040683
49	0x3b8f2d15	0.004369388
50	0xbd33454f	-0.04376727
51	0xbcf70b08	-0.030156627
52	0xbc8accad	-0.0169433
53	0xbc540205	-0.012939935
54	0x3d009dee	0.031400613
55	0x3c96dd23	0.018415993
56	0x3c821678	0.015879855
57	0xb78c186a	-1.670067e-05
58	0x3d34ba08	0.044122726
59	0x3ab0ba32	0.0013483225
60	0x3b44aec3	0.0030011393
61	0x3bbbd756	0.005732457
62	0x3a88c7e9	0.0010435554
63	0xbc0ecf8e	-0.008716477
64	0xbc88b461	-0.016687574
65	0xbca7b564	-0.020472236
66	0x3d436325	0.047701973
67	0x3d77ffe4	0.06054677
68	0xbc370ef8	-0.011173002
69	0xbcc3305f	-0.023826776
70	0x3c86ab68	0.016439155
71	0xba856015	-0.0010175729
72	0xbcc841a8	-0.02444537
73	0x3dac5a3c	0.08415648
74	0x3cbd197f	0.023083447
75	0xbca64fc0	-0.0203017
76	0xbcd614d8	-0.026132986
77	0xbda80ad9	-0.08205194
78	0x3d3bbb3b	0.045832854
79	0x3c393a22	0.011305364
80	0x3d1e4bf2	0.038646646
81	0x3ab807d8	0.0014040424
82	0xbcae3c1a	-0.021268893
83	0x3b05afe8	0.0020399038
84	0x3c825787	0.015910877
85	0xbc9668de	-0.018360551
86	0x3b7a2f39	0.003817512
87	0x3d4d2bec	0.050090715
88	0xbc89245c	-0.01674097
89	0xbd0a2d5a	-0.033734657
90	0xbc9da715	-0.01924471
91	0xbc01cfcf	-0.007923081
92	0xbd26943b	-0.040668707
93	0xbc06be29	-0.008224049
94	0xbd7dd1bc	-0.061967596
95	0xbcf1a0c2	-0.0294956
96	0xbc4bc9d7	-0.012438259
97	0x3ac3499c	0.0014899257
98	0xbd63f6a5	-0.05565514
99	0xbd5121ff	-0.05105781
100	0x3ce30933	0.027714347
101	0xbd4c21ef	-0.04983705
102	0x3d1b357a	0.037892796
103	0x3d94dd92	0.07268824
104	0x3bdd42c9	0.006752346
105	0x3c5f38eb	0.01362441
106	0xbdabe99c	-0.08394167
107	0x3c170610	0.009217754
108	0x371adbc0	9.23028e-06
109	0x3c815173	0.015785908
110	0xbbe94f8d	-0.007120079
111	0x3c66b54b	0.01408131
112	0xbbf3242a	-0.0074200826
113	0x3c9618b6	0.01832233
114	0xbd0a2a95	-0.033732016
115	0x3bb23bdd	0.005439265
116	0x3cedae28	0.029013708
117	0x3cca72c1	0.024712922
118	0x3d7240a4	0.059143677
119	0xbd3d9902	-0.046288498
120	0xbd393ae3	-0.045222174
121	0xbba238ab	-0.004950603
122	0x3b8dbb1c	0.0043252837
123	0x3b5dd9b0	0.0033851676
124	0xbcaff280	-0.021477938
125	0xbd38d632	-0.045126148
126	0x3d28a966	0.041177176
127	0xbca6f24a	-0.020379204
128	0xbd4f82fb	-0.050662022
129	0x3be00ec2	0.006837697
130	0x3bd29c13	0.006427297
131	0xbc8d320e	-0.017235782
132	0xbb9126ff	-0.0044296975
133	0xbd2aa8d0	-0.0416649
134	0x3c59e13a	0.013298327
135	0xbacc1e80	-0.0015573055
136	0xbd2d2a58	-0.04227671
137	0x3d01ee26	0.031721257
138	0x3cc80487	0.024416221
139	0x3ad87e56	0.0016517143
140	0xbb27585e	-0.0025534849
141	0x3d518295	0.051149923
142	0xbd1df234	-0.03856106
143	0xbd92317d	-0.071383454
144	0x3d6e8971	0.058236543
145	0xbb2648a3	-0.0025372885
146	0xbbd156c5	-0.0063885176
147	0xbce9eadc	-0.028554372
148	0xbc12e263	-0.008965108
149	0xbc7e0a77	-0.015505425
150	0xbd7f9a54	-0.06240304
151	0x3d254ed0	0.040358365
152	0x3ca01608	0.019541755
153	0xbc0c59e5	-0.008566354
154	0xbd17a131	-0.03701896
155	0x3a6a93a2	0.00089483906
156	0x3ad8d8d7	0.0016544115
157	0x3ce45e17	0.027876897
158	0x3d1d5f09	0.03842071
159	0x3c7e1d7a	0.015509957
160	0x3d30a0b9	0.043122027
161	0x3bc05b0c	0.0058702286
162	0xbc1e6c7f	-0.009669422
163	0x3c9c8618	0.01910691
164	0xbd09aae5	-0.033610243
165	0xbd6e4ea0	-0.05818045
166	0x3c366326	0.011132037
167	0x3d7e930a	0.062151946
168	0x3da0443d	0.078255154
169	0xbd0a9357	-0.03383192
170	0x3b4dfdd9	0.0031431823
171	0xbbbac7a6	-0.0057000695
172	0xbb9d384b	-0.0047979704
173	0xbb567763	-0.0032724969
174	0x3d05dae7	0.032679465
175	0x3d02e9d4	0.031961277
176	0xbca56524	-0.02018983
177	0xbbf679ff	-0.0075218673
178	0xbc5ba2c3	-0.013405505
179	0x3d7e82d9	0.062136505
180	0x3d072740	0.032996416
181	0xbc19ac8f	-0.00937952
182	0x3cebc1e3	0.028778976
183	0xbd000943	-0.031258833
184	0xbcf6820c	-0.030091308
185	0x3d816ae7	0.06319218
186	0xbc9f5ef0	-0.01945445
187	0x3d1b1a79	0.037867043
188	0xbd07479e	-0.033027284
189	0x3c6fdd58	0.014640175
190	0xbc6692e8	-0.014073111
191	0xbd4ca040	-0.049957514
192	0xbc10c823	-0.008836779
193	0xbcd00af9	-0.025395857
194	0x3d197491	0.037464682
195	0x3bb37325	0.005476373
196	0x3c539f33	0.012916374
197	0xbd2e4443	-0.04254557
198	0x3c04f70f	0.008115544
199	0x3cd9c768	0.026584342
200	0x3cd47a50	0.02593723
201	0xbdb82115	-0.08990685
202	0x3d134442	0.035953768
203	0xbcf70dfe	-0.03015804
204	0x3cde9297	0.027169509
205	0xbb8cb17e	-0.0042936197
206	0xba5cb8f9	-0.0008419897
207	0xbc158230	-0.009125277
208	0xbc819ed4	-0.015822805
209	0x3c9babbc	0.019002788
210	0x3bdb25cf	0.0066878567
211	0x3d8a05e8	0.06739408
212	0xbcf23dd7	-0.029570503
213	0x3d0d2748	0.03446129
214	0x3d1ff7cf	0.039054688
215	0x3d61bc72	0.055111356
216	0xbc8233c6	-0.015893828
217	0x3c382b5f	0.011240809
218	0x3ca3870f	0.019961862
219	0xbd7e61c8	-0.06210497
220	0xbd2a926b	-0.04164354
221	0x3d598928	0.053109318
222	0xbd5567a2	-0.052100785
223	0xbc7c2a6d	-0.0153909745
224	0x3ce38655	0.027774015
225	0x3d0f78b0	0.035027206
226	0xbd879e28	-0.06621963
227	0xbd0f6843	-0.03501154
228	0xbcdcfe8b	-0.026976844
229	0xbd5d32ce	-0.05400353
230	0xbc912532	-0.017717931
231	0xbd3ec5ff	-0.046575543
232	0x3be5ee46	0.00701693
233	0x3d552a2e	0.05204218
234	0xbd40ca97	-0.047068205
235	0xbd08436b	-0.03326742
236	0x3cd5130a	0.026010055
237	0x3d0215ca	0.03175906
238	0x3d0f45fd	0.034978855
239	0x3869c6bf	5.5736626e-05
240	0x3c1ad325	0.009449755
241	0x3d41c670	0.047308385
242	0xbbd82f5a	-0.0065974416
243	0x3d7293fe	0.059223168
244	0xbc109613	-0.008824843
245	0x3bed624d	0.0072443844
246	0xbc424e4b	-0.011859487
247	0xbcaaaf48	-0.020835534
248	0x3d299a71	0.041407052
249	0x3cfe9d7b	0.031080952
250	0x3c87baff	0.016568659
251	0x3d81d8e6	0.06340198
252	0x3bbb91e0	0.0057241768
253	0xbc79a520	-0.015237123
254	0x3dae3189	0.08505542
255	0x3d2299f3	0.0396976

conv2.att_src f4 [1, 8, 16]
0	0x3ecaec58	0.3963344
1	0xbe2c3844	-0.16818339
2	0x3eb321ab	0.34986624
3	0x3e8ab80c	0.27093542
4	0xbee91ba2	-0.45528895
5	0xbd30cf82	-0.043166645
6	0x3e876afe	0.26448816
7	0xbe7fb978	-0.24973094
8	0x3e667cb6	0.22508511
9	0x3ebc0a9e	0.3672685
10	0xbdb699d2	-0.08916058
11	0x3db8557b	0.09000679
12	0xbe651089	-0.22369589
13	0x3e9a080b	0.3008426
14	0x3ea5f356	0.32412213
15	0xbebe4b2c	-0.37166727
16	0xbc1dd5e9	-0.00963352
17	0x3efaaf59	0.48961905
18	0x3e12d9a8	0.14340842
19	0x3ecde196	0.4021117
20	0xbee8265d	-0.4534177
21	0x3d8fa6b5	0.07014219
22	0x3e865462	0.26236254
23	0x3ec3d654	0.38249457
24	0x3e4e194c	0.20126837
25	0xbe88f1fc	-0.2674712
26	0x3e19339d	0.14961095
27	0x3df731a4	0.12070015
28	0xbdb918e4	-0.09037951
29	0x3dfb2fcb	0.12264975
30	0xbeeb2f53	-0.45934543
31	0x3ecf3e64	0.40477288
32	0x3d65ac90	0.05607277
33	0xbc4116e1	-0.01178524
34	0xbeb54c5d	-0.35409823
35	0x3ec6faf8	0.3886335
36	0x3edd1775	0.4318196
37	0xbe118ca4	-0.14213806
38	0xbe2bcddb	-0.16777746
39	0x3e3b5373	0.18293552
40	0x3ec7bafc	0.39009845
41	0x3ef06151	0.46949247
42	0x3e4b8dd7	0.19878326
43	0x3dae3281	0.085057266
44	0xbee3d3b7	-0.44497463
45	0x3e1b5b2f	0.15171503
46	0x3e22b9a8	0.15891135
47	0xbe949ff1	-0.29028276
48	0xbe92587e	-0.2858314
49	0xbe7d28e8	-0.24722636
50	0x3ed47dd9	0.41502264
51	0xbe8c11cc	-0.27357328
52	0x3d29b6d8	0.04143414
53	0x3ec035ea	0.37541133
54	0xbec7e361	-0.39040664
55	0x3d5c337e	0.053760044
56	0xbd77d2c2	-0.06050373
57	0xbdd128b5	-0.102128424
58	0x3ea8ce67	0.32969972
59	0xbd9791b3	-0.07400837
60	0x3e87e6e7	0.26543352
61	0x3ecb1ed0	0.39671946
62	0xbc8ce4c0	-0.01719892
63	0xbe34dc53	-0.17662172
64	0xbe3c2a8b	-0.18375604
65	0xbda03ad8	-0.078237236
66	0xbe52ac87	-0.20573626
67	0xbe9350cf	-0.2877259
68	0x3ee49d53	0.4465128
69	0x3ed21ae2	0.41036135
70	0x3eb75844	0.3580953
71	0xbe42c145	-0.19019039
72	0x3edd5d8b	0.4323543
73	0x3eec4c29	0.46151856
74	0xbd61db2d	-0.055140663
75	0xbdfa1fa5	-0.12213067
76	0x3c4d0026	0.012512242
77	0x3e6f4420	0.23365831
78	0x3d8cce99	0.06875343
79	0xbea93bdc	-0.33053482
80	0x3ece60db	0.4030827
81	0x3ecc88fa	0.39948255
82	0xbec04485	-0.37552276
83	0x3eaea622	0.34111124
84	0x3dd1e1c7	0.10248142
85	0xbed9c440	-0.4253254
86	0xbea23dd6	-0.31687802
87	0x3ea73d86	0.32664126
88	0xbe1f9964	-0.15585858
89	0x3ed5435e	0.4165296
90	0xbed29aa3	-0.41133603
91	0x3eab5419	0.334626
92	0xbe7ce6b2	-0.24697378
93	0xbe4b8c40	-0.1987772
94	0x3c2aeb14	0.010432024
95	0xbe98e287	-0.29860327
96	0xbe9902dc	-0.29884994
97	0xbe982b8b	-0.2972072
98	0x3c4409fe	0.011965273
99	0xbe1d13a8	-0.1533953
100	0x3ea05c95	0.31320634
101	0xbee026b4	-0.43779528
102	0x3ed7a143	0.4211522
103	0x3e2e2381	0.17005731
104	0xbdc0f10b	-0.09420975
105	0xbdfd1870	-0.12358177
106	0xbe89eaf3	-0.26937065
107	0x3d896a87	0.067097716
108	0x3ea4d0a2	0.32190424
109	0x3e7e908e	0.2485983
110	0x3ee92437	0.45535442
111	0xbe41bd5b	-0.1891989
112	0x3e1e254f	0.1544392
113	0x3eefe787	0.4685633
114	0x3eddf79b	0.4335297
115	0xbe494f9c	-0.19659275
116	0xbe8017d2	-0.25018173
117	0xbeb2a7f2	-0.34893757
118	0x3ee82c26	0.45346183
119	0x3ecec844	0.40387166
120	0xbe1d3334	-0.15351564
121	0x3eb6b60e	0.35685772
122	0xbed14af4	-0.40877497
123	0x3eb758d4	0.35809958
124	0x3d6395f3	0.055562925
125	0x3e712a79	0.23551358
126	0xbdea7baa	-0.11449368
127	0x3dc67dd4	0.096919686

conv2.att_dst f4 [1, 8, 16]
0	0x3e7bd0fb	0.24591438
1	0xbeaa759f	-0.33292863
2	0xbef894b8	-0.48550963
3	0xbe9f722b	-0.3114179
4	0x3db30a3a	0.08742185
5	0xbee70e66	-0.45128173
6	0xbeee8f77	-0.4659383
7	0x3eb7c433	0.35891876
8	0x3e0cde96	0.13756785
9	0xbef263f4	-0.47341883
10	0x3e729b90	0.23692155
11	0x3e29332b	0.16523425
12	0xbedbeb35	-0.42952886
13	0x3db42b62	0.08797337
14	0x3cf739e2	0.030178968
15	0xbeb823c8	-0.359648
16	0xbe0e427c	-0.1389255
17	0xbdd32b16	-0.10310952
18	0xbeb5bae4	-0.3549415
19	0x3ed25747	0.41082212
20	0xbcc20e20	-0.023688376
21	0xbe2cf6ec	-0.16891068
22	0x3ec5181c	0.38494956
23	0xbeca7571	-0.39542726
24	0x3d0a3112	0.033738203
25	0x3e511d93	0.20421438
26	0x3cb47881	0.022030117
27	0x3e04b79f	0.12960671
28	0xbee86283	-0.45387658
29	0x3e17363b	0.14766781
30	0xbe9def24	-0.30846512
31	0x3e7fd335	0.24982913
32	0xbe66776f	-0.22506498
33	0x3e790830	0.2431953
34	0xbd881f1c	-0.06646559
35	0x3d3f5dff	0.0467205
36	0x3e8b3ba6	0.27193946
37	0x3ce60a48	0.028081074
38	0xbd1ff092	-0.039047785
39	0x3d8605af	0.06544053
40	0x3e4066b2	0.18789175
41	0x3ea9a874	0.33136332
42	0x3e08b43f	0.13350008
43	0x3d2b6a16	0.04184922
44	0x3d937cee	0.07201563
45	0xbd6b7847	-0.057487752
46	0x3e78bfcd	0.24291916
47	0xbbc695ae	-0.0060603237
48	0xbe844938	-0.2583711
49	0x3e62446f	0.22096418
50	0xbe89dd31	-0.26926568
51	0xbd122675	-0.035681207
52	0x3d01c3f0	0.031681
53	0xbdba5aff	-0.090993874
54	0x3ec21fd1	0.379149
55	0x3c9739fd	0.018460268
56	0xbdd03284	-0.10165885
57	0xbe7e8d1b	-0.24858515
58	0x3e93c47e	0.2886085
59	0x3ccbf8f7	0.02489899
60	0x3d2a0c4b	0.04151563
61	0xbe54a96d	-0.20767756
62	0xbe85c865	-0.2612945
63	0xbd1f8669	-0.038946543
64	0x3ee485d6	0.4463336
65	0xbe57ed28	-0.21086562
66	0xbe51d10b	-0.204899
67	0x3e92ea43	0.28694353
68	0xbeecc76a	-0.4624589
69	0xb9eb2f91	-0.00044858133
70	0xbd84df08	-0.06487852
71	0xbe428b82	-0.1899853
72	0x3ea41905	0.32050338
73	0xbebc7621	-0.36808875
74	0xbe81fff1	-0.2539058
75	0xbe57e3e5	-0.21083029
76	0xbea01e01	-0.3127289
77	0xbdf54498	-0.11975974
78	0xbe515e90	-0.20446229
79	0x3e0c83e1	0.13722183
80	0x3c895818	0.01676564
81	0x3dc01fdb	0.09381076
82	0xbdc4f376	-0.09616749
83	0xbe774d84	-0.24150664
84	0xbeb3fbd5	-0.3515307
85	0x3e89be16	0.26902837
86	0xbe4a62c3	-0.19764237
87	0x3eb390ec	0.35071504
88	0x3ec76900	0.38947296
89	0xbe96866c	-0.2939943
90	0xbec6ffe8	-0.38867116
91	0x3dae6bac	0.085166305
92	0xba8fb00f	-0.0010962504
93	0x3eaf0da5	0.34190097
94	0x3e09cb72	0.13456514
95	0xbe41305f	-0.18866108
96	0xbd560d4c	-0.052258775
97	0x3e33e135	0.17566378
98	0x3eeb1730	0.45916128
99	0x3efc294a	0.4925025
100	0x3d3bcfac	0.04585235
101	0xbe9cab7a	-0.30599576
102	0x3e6062f9	0.21912755
103	0xbdc93903	-0.09825327
104	0x3e180e53	0.14849214
105	0xbe6ed169	-0.23322071
106	0xbe2f07db	-0.1709284
107	0xbea69829	-0.32537964
108	0xbebaba32	-0.3647018
109	0xbef4ccc4	-0.47812474
110	0x3d4e2bf2	0.05033488
111	0xbd9ee17f	-0.07757854
112	0x3e3286e7	0.17434274
113	0x3e91706f	0.28406093
114	0x3ecb1675	0.3966557
115	0x3eac6e03	0.33677682
116	0xbeaafe54	-0.33397162
117	0xbeda9cc2	-0.42697722
118	0x3cd0b34b	0.025476119
119	0x3e859839	0.260927
120	0x3d8137dc	0.063094825
121	0x3eae86cb	0.34087214
122	0xbe15b0b5	-0.1461819
123	0x3ea79598	0.32731318
124	0x3ec8b935	0.39203802
125	0x3c6f642f	0.014611288
126	0x3b8fd480	0.0043893456
127	0xbe0f5924	-0.13998848

conv2.bias f4 [128]
0	0xbc6ac4b7	-0.014329127
1	0xbba3d0cd	-0.004999256
2	0x3cc5b6cf	0.024135021
3	0x3cfb870d	0.030704046
4	0x3c6f7074	0.014614213
5	0x3c1b22a2	0.009468706
6	0x3cb1cb5c	0.021703415
7	0x3cccf6d2	0.025020037
8	0x3be03c4a	0.0068431245
9	0x3c659954	0.014013607
10	0xbb9ff5f5	-0.0048816153
11	0xbc252eff	-0.0100820055
12	0x3cb84e65	0.022498319
13	0xbbcb45be	-0.0062033823
14	0x3a93bab9	0.0011270858
15	0x3c83ca94	0.016087808
16	0x3c753abc	0.014967617
17	0x3bc2d9f9	0.0059463945
18	0x3c45b599	0.012067222
19	0x3cbff740	0.023433328
20	0xbb4e765d	-0.0031503655
21	0x388f96f7	6.846891e-05
22	0xbae69a6c	-0.0017593629
23	0xbc28b594	-0.010297198
24	0x3c89a1ad	0.016800726
25	0xbc302eac	-0.010753315
26	0xbae8a361	-0.0017748886
27	0x3b7eef0d	0.003889981
28	0xbc5a474d	-0.0133226635
29	0x3c048c98	0.008090161
30	0xbb7f09a7	-0.0038915665
31	0x3c2a4d9f	0.010394483
32	0xb5e8e858	-1.7352968e-06
33	0xbc01ee86	-0.007930404
34	0x3c92c7b9	0.0179175
35	0xbba481a3	-0.0050203367
36	0x3a983ebc	0.0011615376
37	0x3c70519f	0.0146678975
38	0x3c06893f	0.008211433
39	0x3b9e5172	0.0048314864
40	0x3c3d483c	0.011552867
41	0x3c001088	0.007816441
42	0x3c73948b	0.014866958
43	0x3ad12428	0.001595621
44	0xbc52ddf9	-0.012870305
45	0xbc28f9b1	-0.010313437
46	0x3bd19012	0.0063953483
47	0x3cc43e04	0.023955353
48	0x39b5c62b	0.00034670657
49	0x3c3c4e59	0.011493289
50	0xbcd515f3	-0.026011443
51	0xb9516f68	-0.00019973295
52	0xbc226db6	-0.009913852
53	0x3cbadb42	0.022809628
54	0x3c1e6206	0.009666925
55	0x3c202007	0.009773261
56	0xbabf3af9	-0.0014589719
57	0x3cd5920a	0.026070613
58	0x3cfa3842	0.030544404
59	0x3c50317c	0.0127071105
60	0xbae3239b	-0.0017329337
61	0x382eb33b	4.1651754e-05
62	0xbb7e01ac	-0.003875832
63	0x3c120ddb	0.008914436
64	0x3c548cc8	0.012973018
65	0x3ce950ad	0.028480852
66	0x3cb8bdc5	0.022551427
67	0x3c0f3f0f	0.008743062
68	0xbc508983	-0.012728098
69	0xbbd6b78c	-0.006552642
70	0x3be71186	0.0070516495
71	0x3c9bd4e6	0.019022416
72	0xb862eb99	-5.4102016e-05
73	0x3cc9671a	0.024585295
74	0x3c2fb8eb	0.01072524
75	0x3a33cd38	0.0006858888
76	0x3c43cd7a	0.011950845
77	0x3ca81ae2	0.020520631
78	0x3c6a010c	0.014282476
79	0x3c17f302	0.009274246
80	0x3becda06	0.007228139
81	0x3cdcbc04	0.026945122
82	0xbbd75be5	-0.006572234
83	0x3c5dcd8b	0.013537775
84	0x3be6c65b	0.007042689
85	0x3be36dfa	0.0069406005
86	0xbc2b7cf0	-0.010466799
87	0xbc1c9297	-0.009556434
88	0xbbff2e46	-0.0077874986
89	0x39721d98	0.00023089943
90	0xbb59ab11	-0.0033213536
91	0x3c77800a	0.0151062105
92	0x3d2d9f39	0.042388175
93	0xbb8c3160	-0.004278347
94	0xbb66ae53	-0.003519912
95	0x39cf4132	0.0003953069
96	0x3cac2495	0.021013537
97	0x3c942706	0.018085014
98	0xbc5b0192	-0.013367074
99	0x3b4bbf4f	0.003108937
100	0xbb4a7933	-0.0030894994
101	0x3ceda36d	0.029008592
102	0x3c567d71	0.013091431
103	0x3c32aeb3	0.010905909
104	0x3b883ec9	0.004157875
105	0x3c805e91	0.015670093
106	0x3d07c02f	0.033142265
107	0xbab6e708	-0.0013954351
108	0x36927dae	4.36577e-06
109	0x3ce7c7a0	0.02829343
110	0x3cc11918	0.023571536
111	0x3c9e8c27	0.01935394
112	0x3ae5b6e0	0.0017525814
113	0x3b7db079	0.0038709922
114	0x3bcb3deb	0.0062024496
115	0xb9ea2876	-0.00044662104
116	0xbc134996	-0.008989712
117	0x3c43d502	0.0119526405
118	0xbbd20bbc	-0.0064100903
119	0xbc6d8bc2	-0.014498653
120	0xbb6869dd	-0.003546349
121	0x3b2d2c22	0.002642401
122	0x3c2e5652	0.010640698
123	0xbc51c00e	-0.012802137
124	0x3ced5d17	0.028975053
125	0xbc1a841c	-0.009430911
126	0x3ba9aa60	0.005177781
127	0xb99b82b5	-0.00029661288

conv2.lin.weight f4 [128, 128]
0	0xbe0a0e6f	-0.13482068
1	0xbd88120a	-0.06644066
2	0x3d33818e	0.043824725
3	0xbc463e00	-0.012099743
4	0xbc9788b8	-0.01849781
5	0x3b0dbc8f	0.0021627282
6	0xbdad787d	-0.08470247
7	0x3deb0e8b	0.11477383
8	0x3b163203	0.0022917993
9	0xbd96d57b	-0.07364937
10	0xbb9740a6	-0.004615861
11	0x3d52f3ea	0.051502146
12	0xbcec8924	-0.028873987
13	0x3da72396	0.08161084
14	0xbd720ade	-0.059092395
15	0xbd1d320e	-0.038377814
16	0xbdd3fa80	-0.103505135
17	0xbd05a60a	-0.03262905
18	0x3d6dff20	0.058104634
19	0xbb1c60a9	-0.0023861325
20	0x3d83feb3	0.064450644
21	0x3de522ac	0.11188254
22	0x3d624964	0.055245772
23	0xbdd2e692	-0.10297884
24	0xbd58e257	-0.05295023
25	0x3db42ab2	0.08797206
26	0x3d069717	0.032858934
27	0xbaf339ef	-0.0018556694
28	0xbc8f4827	-0.01749046
29	0xbd13b8cd	-0.03606491
30	0x3b3198e6	0.0027099191
31	0xbe03f100	-0.12884903
32	0xbc807a41	-0.015683295
33	0x3d91b3e7	0.07114392
34	0x3d075f5d	0.03304993
35	0xbc4b6f02	-0.012416603
36	0x3db0bf6e	0.08630262
37	0x3d07727d	0.03306817
38	0xbd823624	-0.06357983
39	0x3ba9cec1	0.0051821177
40	0x3c945e32	0.018111322
41	0x3daaed8a	0.08346088
42	0x3d87f3be	0.06638287
43	0xbd7424b5	-0.05960532
44	0xbab5fb5c	-0.0013884115
45	0xbddc7007	-0.10763555
46	0x3e197136	0.14984593
47	0x3c7e4b5e	0.015520899
48	0x3d9c9804	0.07646182
49	0x3d9b2d46	0.075769946
50	0xbcd2f1d7	-0.025750084
51	0xbda83306	-0.08212857
52	0x3c874cf1	0.01651618
53	0xbdd50f49	-0.10403306
54	0x3d4fd762	0.050742514
55	0xbd6a767c	-0.0572419
56	0xbda392e9	-0.07987005
57	0x3d34f4fb	0.044178944
58	0xbcea13df	-0.028573928
59	0xbc94266e	-0.018084731
60	0x3d5d5216	0.05403336
61	0x3d4a7dc6	0.049436353
62	0x3c11c543	0.0088971285
63	0xbd1c38c8	-0.03814009
64	0x3d223656	0.0396026
65	0xbd4133cf	-0.04716855
66	0xbdb6a57c	-0.089182824
67	0x3dc1bde3	0.09460046
68	0x3da03d54	0.078241974
69	0x3d2eaa3f	0.042642828
70	0x3c698e5f	0.014255135
71	0xbdc0d6b3	-0.094159506
72	0x3d3c071e	0.045905225
73	0x3bfec7d5	0.0077752867
74	0x3de30727	0.110853486
75	0x3ca85887	0.020550026
76	0xbd2f7220	-0.042833447
77	0x3d2b6aae	0.041849785
78	0xba1cfa49	-0.0005988223
79	0xbc3d064e	-0.011537148
80	0xbd0f8b2c	-0.035044834
81	0x3d710a0d	0.058847476
82	0x3d852e39	0.06502957
83	0x3ab923d3	0.0014125056
84	0xbd4fcc3a	-0.050731875
85	0xbd3d7ff7	-0.046264615
86	0x3d74acbe	0.059735052
87	0xbd122fa1	-0.035689954
88	0xbdba88ac	-0.09108099
89	0xbd78a074	-0.060699895
90	0xbc30c9e3	-0.010790321
91	0x3d2275c7	0.039663102
92	0x3b793dd0	0.0038031228
93	0xbc1da89d	-0.00962272
94	0xbdc9f3e8	-0.098609746
95	0xbd03007d	-0.031982888
96	0x3d06766d	0.032827783
97	0xbcb0676e	-0.021533694
98	0x3d26a5df	0.04068553
99	0x3c9b193f	0.018932937
100	0x3db02690	0.08601105
101	0x3dc048ce	0.093888864
102	0xbd8f3428	-0.0699237
103	0x3c9cc87b	0.019138565
104	0x3e16593c	0.14682478
105	0x3dabd54c	0.083902925
106	0xbcf556c1	-0.029948594
107	0x3d32dae6	0.04366579
108	0x3d7bce61	0.061476115
109	0xbd80db39	-0.062918134
110	0xbda4230a	-0.08014496
111	0x3dfe38e6	0.12413196
112	0x3e13cc17	0.14433323
113	0x3d346584	0.044042125
114	0x3e0b6aad	0.13614912
115	0xbc4990b9	-0.012302571
116	0xbdbc4ba7	-0.09194117
117	0x3db9cb60	0.09071994
118	0x3cc1a05d	0.023636037
119	0xbdb35359	-0.08756132
120	0x3cf2e635	0.029650787
121	0x3e21e9d8	0.1581186
122	0xbd17dd80	-0.037076473
123	0x383f8d64	4.566963e-05
124	0x3ba20004	0.0049438495
125	0xbd8defed	-0.06930528
126	0xbe02ed8b	-0.12785928
127	0xbd86915b	-0.06570693
128	0x3d5d50bc	0.054032072
129	0x3d459589	0.04823831
130	0xbe0f12d9	-0.13972034
131	0x3daf6d36	0.08565752
132	0xbc3214f7	-0.010869256
133	0x3b3bf0a8	0.0028677378
134	0xbdd490c0	-0.10379171
135	0xbd51f901	-0.05126286
136	0xbcd95142	-0.026528005
137	0xbe0cedae	-0.13762543
138	0xba8883ef	-0.0010415296
139	0x3cb1856b	0.021670064
140	0x3c84e059	0.016220259
141	0x3df3ca53	0.11903825
142	0x3ab0375f	0.0013444236
143	0x3ded383e	0.11582993
144	0xbd673141	-0.056443457
145	0xbccc25cd	-0.024920369
146	0x3cbe57c1	0.023235204
147	0x3b48b387	0.0030624585
148	0x3d667a9a	0.056269266
149	0xbd692f36	-0.05692979
150	0x3c6c31cf	0.014416172
151	0xbc9a82c7	-0.018861188
152	0x3d7c7c86	0.061642192
153	0xbd8e84b8	-0.06958908
154	0xbd209181	-0.039201263
155	0x3b4724a4	0.003038683
156	0x395cb32d	0.00021047583
157	0x3c73b243	0.014874044
158	0x3d08254a	0.033238687
159	0xbcd49ef6	-0.025954705
160	0xbb0e6c17	-0.0021731907
161	0x3d60e91e	0.054909818
162	0xbd48f48b	-0.04906134
163	0x3c188bda	0.009310687
164	0xbd337ebd	-0.04382204
165	0xbd8eff48	-0.06982285
166	0x3b564079	0.0032692237
167	0xba2b8179	-0.0006542425
168	0xbd2d8efa	-0.04237268
169	0xbd872c9a	-0.06600304
170	0xbb4598cd	-0.003015089
171	0x3cd0ab17	0.025472207
172	0x3b1b1220	0.0023661926
173	0x3ccf9f57	0.025344534
174	0xbe154c5c	-0.1457991
175	0x3dc69012	0.09695448
176	0xbd8c8614	-0.06861511
177	0xbba71855	-0.005099336
178	0xbdaf348f	-0.08554947
179	0xbd6c9491	-0.05775887
180	0x3c3e9a3d	0.011633453
181	0xbd440c94	-0.047863558
182	0x3d202eea	0.03910724
183	0xbcede624	-0.029040404
184	0x3dcab7e7	0.09898358
185	0xbd5f422c	-0.054506466
186	0xbdf8d572	-0.121500865
187	0x3dd00a47	0.1015821
188	0x3d95711f	0.07296967
189	0xbdfb0516	-0.122568294
190	0xbd095657	-0.033529606
191	0xbd4177f0	-0.047233522
192	0xbd39a82f	-0.045326408
193	0x3cf3b347	0.029748572
194	0x3d258343	0.040408384
195	0x3bcaf17b	0.0061933375
196	0x3dcd1d90	0.10015404
197	0xbce75c74	-0.028242327
198	0x3c81ad67	0.015829755
199	0xbddc6dec	-0.107631534
200	0xbb378239	-0.0028001203
201	0x3bdc58b7	0.006724443
202	0xbded8516	-0.1159765
203	0xbda6cc05	-0.081443824
204	0x3cc54bf1	0.024084063
205	0xbc604c8a	-0.013690123
206	0x388d450b	6.736264e-05
207	0xbd22b574	-0.03972383
208	0xbe191787	-0.14950381
209	0xbdecdfee	-0.11566149
210	0x3df4daaa	0.11955769
211	0x3c31e1c5	0.01085705
212	0xbd4b659d	-0.049657453
213	0x3d8827ad	0.066481926
214	0x3d4a0c13	0.04932792
215	0x3d05adbd	0.032636393
216	0xbd98ffd7	-0.074706726
217	0xbd5427e1	-0.051795844
218	0xb9e4c3ce	-0.00043633435
219	0x3dda90b5	0.10672132
220	0xbd35adb8	-0.044355124
221	0xbce64b55	-0.028112093
222	0x3dc62b1d	0.09676192
223	0x3de1ceec	0.11025795
224	0x3d9cea08	0.076618254
225	0xbb7e733a	-0.0038826005
226	0xbde16620	-0.11005807
227	0xbde67e25	-0.11254529
228	0xbd343dd9	-0.044004295
229	0x3d32c29d	0.04364263
230	0x3d7aa1c8	0.061189443
231	0xbc9af22f	-0.01891431
232	0x3cfdff85	0.03100563
233	0x3cb4c8f9	0.022068487
234	0xbd2df070	-0.042465627
235	0x3df9c467	0.12195664
236	0xbbc41be9	-0.0059847725
237	0x3d9c390c	0.07628068
238	0x3da8d3c2	0.082435146
239	0x3dde898c	0.10866079
240	0xbcfea1f0	-0.031083077
241	0xbd53a4b9	-0.051670764
242	0xbce9af67	-0.028526021
243	0x3ce55962	0.027996723
244	0x3d16cdb1	0.036817256
245	0x3c578146	0.01315338
246	0xbcfc576d	-0.030803407
247	0xbb3170c0	-0.002707526
248	0x3c35764b	0.0110755665
249	0xbd4bcf12	-0.049758025
250	0xbbf628bd	-0.0075121806
251	0xba9d531f	-0.0012002921
252	0x3afd7b21	0.0019339063
253	0xbcdf5bb8	-0.027265415
254	0xbd58220b	-0.05276684
255	0x3dd86820	0.10566735

mlp.0.weight f4 [256, 256]
0	0xbc64f0f4	-0.013973463
1	0xbc1ef459	-0.009701812
2	0x3d0a99e9	0.033838186
3	0xb97a7d70	-0.00023888587
4	0x3d58df8b	0.052947562
5	0xbd155e30	-0.036466777
6	0x3bccfe74	0.006255919
7	0x3c629218	0.013828777
8	0x3cd6f93e	0.026241895
9	0x3c755a8d	0.014975202
10	0x3bb54524	0.005531924
11	0x3c29fedd	0.010375706
12	0xbc42762d	-0.011868996
13	0x3c13685f	0.008997052
14	0x3a29a9a9	0.000647212
15	0xbca5b84b	-0.02022948
16	0xbc2dc666	-0.010606384
17	0x3d1782f3	0.036990117
18	0xbcbfcddc	-0.023413591
19	0x3aa63ceb	0.001268295
20	0xbc160946	-0.009157484
21	0x3ca523dc	0.0201587
22	0xb7830a50	-1.5621219e-05
23	0xbc9399dc	-0.018017702
24	0xbc8d4960	-0.017246902
25	0xbbcd9793	-0.0062741726
26	0xbcfabe72	-0.03060839
27	0x3b2d802b	0.00264741
28	0x3c078370	0.008271083
29	0x3cd22bfa	0.025655735
30	0x3c855df5	0.016280154
31	0x3d329c90	0.04360634
32	0x361c838b	2.332238e-06
33	0x39e89b24	0.00044366077
34	0x3b8777d1	0.0041341563
35	0x3d0d37bd	0.034476984
36	0x3c934a73	0.017979836
37	0x3cb31f40	0.021865487
38	0x3d0fce84	0.035109058
39	0xbc925d2a	-0.01786669
40	0xbc5cbea5	-0.013473188
41	0x3cd4d085	0.025978336
42	0xbbb2785e	-0.005446478
43	0x3d045a5f	0.032312747
44	0xbbd7b9b4	-0.006583417
45	0x3c8b3e39	0.016997444
46	0x392f6b8e	0.00016729368
47	0xbd759336	-0.059954844
48	0x3890451e	6.879329e-05
49	0xbc33742c	-0.0109529905
50	0x3d399442	0.045307405
51	0xbb902966	-0.0043994663
52	0xbc4dfb1c	-0.012572076
53	0xbd0d3262	-0.034471877
54	0xbb05ecc3	-0.002043531
55	0x3c019d8b	0.007911096
56	0xbc5f7ede	-0.013641087
57	0x3bbf58be	0.0058394363
58	0xbca76283	-0.020432716
59	0xbb13e9d7	-0.00225698
60	0x3d807a3e	0.06273316
61	0x3c0c9a10	0.008581653
62	0xbc24bc7f	-0.010054707
63	0xbbd04a4a	-0.006356512
64	0x3d06e8ec	0.032936975
65	0x3c633573	0.013867724
66	0xbbd55a5d	-0.0065110163
67	0xbbe93af1	-0.007117622
68	0x3b139013	0.0022516295
69	0x3ca8bd67	0.020598127
70	0x3cd04059	0.025421308
71	0x3d0a3566	0.03374233
72	0x3cd36931	0.025806995
73	0xbc668e7e	-0.014072059
74	0x3d0abdd7	0.03387245
75	0x3cc93b04	0.024564274
76	0x3b9ae44d	0.0047269226
77	0x3d160fa6	0.036636017
78	0xbba0bac9	-0.004905079
79	0x3cd1dfe1	0.02561945
80	0x3cafd6b7	0.021464689
81	0xbcd484a5	-0.025942156
82	0x3c600ef0	0.013675436
83	0x3cd903e5	0.026491115
84	0x3b01931b	0.001977152
85	0xbc770bae	-0.015078468
86	0x3c9ce689	0.019152896
87	0x3b406307	0.00293559
88	0x3d45f202	0.0483265
89	0xbbad4681	-0.0052879457
90	0xba856f8a	-0.0010180336
91	0x3d2dda93	0.042444777
92	0xbd0f90d1	-0.035050217
93	0x3b326680	0.002722174
94	0xbbc3a5a3	-0.005970673
95	0x3c8c555d	0.017130548
96	0x3d52892c	0.05140035
97	0x3c50d0d7	0.012745104
98	0x3c81492f	0.015781967
99	0x3c9dbe9b	0.019255927
100	0x3c1c0a9c	0.009524014
101	0x3cbae82e	0.02281579
102	0x3c5bd8b0	0.013418362
103	0x3b144c20	0.0022628382
104	0xbcf3a457	-0.02974145
105	0x3d296e30	0.04136485
106	0xbd4bcda6	-0.04975667
107	0xbc774f06	-0.015094524
108	0xb5cb23ae	-1.5135063e-06
109	0x3a36b6bc	0.00069699786
110	0x3cdd28f4	0.026997067
111	0xbac054a7	-0.0014673666
112	0x3d0900eb	0.03344814
113	0x3cd2fb59	0.025754618
114	0x3c4ce5c9	0.012505957
115	0xbd32c9b2	-0.043649383
116	0x3c466d9c	0.012111094
117	0xbc71388e	-0.014722956
118	0x3ca73805	0.020412454
119	0x3c90fad5	0.017697731
120	0x3ce1c903	0.02756167
121	0xbaae4b35	-0.001329756
122	0xbd071b69	-0.032985125
123	0x3c2cdac2	0.010550203
124	0xbd84fb0c	-0.06493196
125	0x3cd0f0db	0.025505474
126	0x3c64e5af	0.013970776
127	0x3ce5ccdf	0.028051792
128	0xba669c7c	-0.00087971217
129	0x39dda0d6	0.00042272237
130	0xba15a801	-0.00057089335
131	0xbcc2f928	-0.023800448
132	0x3c174fa7	0.009235299
133	0xbcd87f32	-0.026427839
134	0xbcb364cd	-0.021898651
135	0x3a410219	0.00073626783
136	0xbc2530e6	-0.010082459
137	0xbc4c95ca	-0.012486884
138	0xbd167787	-0.036735084
139	0xbb630db7	-0.0034645626
140	0x3c69ba67	0.014265633
141	0xbcb4d0ef	-0.022072284
142	0x384a1f9c	4.818999e-05
143	0xbc92be0b	-0.017912885
144	0x3d298018	0.041381925
145	0xbd556936	-0.05210229
146	0x38aee1ae	8.339003e-05
147	0x3c5dcf3a	0.013538176
148	0x3c8bedc3	0.017081147
149	0xbd96b197	-0.07358091
150	0x349444b2	2.761713e-07
151	0x3c9dfaa4	0.019284554
152	0xbce39e17	-0.027785344
153	0xbd3936f7	-0.045218434
154	0x3d0e110c	0.034684226
155	0xbd2fcb9b	-0.042918783
156	0x3d04a69a	0.032385446
157	0xbd54b6c1	-0.0519321
158	0xbd902ea6	-0.070401475
159	0x3d0a55a9	0.0337731
160	0x3532709c	6.6474036e-07
161	0xbbc5997e	-0.0060302606
162	0xbc3ffd06	-0.01171804
163	0xbd2b8567	-0.04187527
164	0xbca90e30	-0.020636648
165	0xbdca0c07	-0.09865575
166	0x3bc506d0	0.006012775
167	0xbca20479	-0.019777523
168	0xbc8d6cba	-0.017263759
169	0x3d8e503a	0.06948896
170	0xbd1f1893	-0.038841795
171	0x3d9c8127	0.07641821
172	0xbc9e2db9	-0.019308912
173	0xbd5ce600	-0.053930283
174	0x3cecf5ff	0.028925894
175	0xbbc1b296	-0.0059111817
176	0x31aa1742	4.9502953e-09
177	0xbd00b824	-0.03142561
178	0xbdaec838	-0.085342824
179	0xba89c920	-0.001051221
180	0x391d1471	0.00014980302
181	0xbad2e35c	-0.0016089487
182	0x3a338cfc	0.00068493164
183	0x3be1b889	0.0068884534
184	0xbaada545	-0.0013248107
185	0x3d2923a3	0.04129375
186	0xbcb27fff	-0.021789549
187	0x3d2f8738	0.042853564
188	0xbdffb045	-0.124847926
189	0x3d39daff	0.045374867
190	0x3b41663d	0.0029510402
191	0xbda441ed	-0.08020387
192	0xbcfaded4	-0.03062383
193	0xbadc4462	-0.0016805048
194	0xbbd2b156	-0.0064298315
195	0x3c56c4fc	0.013108488
196	0x3b2f81da	0.0026780278
197	0xbc99a090	-0.01875332
198	0xbb6350f6	-0.0034685708
199	0xbc82dc85	-0.015974293
200	0xbcfb227f	-0.030656097
201	0x3c0a3a29	0.008436718
202	0xb9b7a023	-0.0003502379
203	0xbc517b05	-0.012785678
204	0xbb018946	-0.001976566
205	0xbd070bab	-0.03297011
206	0xbccd0491	-0.025026591
207	0xbd0aa8e6	-0.03385248
208	0x3d94fb60	0.072745085
209	0x3d009084	0.03138782
210	0xbdeaaa6a	-0.11458285
211	0xbd8e5569	-0.069498844
212	0x3ca372d0	0.019952208
213	0xb949d8ab	-0.00019249569
214	0xbd8ef9ef	-0.06981265
215	0xb5c65c57	-1.4779024e-06
216	0xbe0b729e	-0.13617942
217	0x3d7a94e3	0.061177146
218	0x3d44da0b	0.048059504
219	0xbdfa6c03	-0.12227633
220	0x3d7badc8	0.061445028
221	0x394544ed	0.00018813061
222	0xbd90a491	-0.070626386
223	0x3da9f057	0.08297794
224	0xbcdbcd97	-0.026831431
225	0xbc8b9cc7	-0.01704253
226	0xbd295961	-0.041345004
227	0x3bb7cb59	0.0056089577
228	0xbbd63807	-0.0065374407
229	0xbcf4443d	-0.029817695
230	0xbcdbe66e	-0.026843276
231	0x3ca015a2	0.019541565
232	0xbca73c3c	-0.020414464
233	0xbd0f97b5	-0.03505679
234	0xba71e00d	-0.00092268066
235	0xb8a111ad	-7.6803706e-05
236	0x3464e2e9	2.1316704e-07
237	0xbc593d79	-0.013259285
238	0xbd17b0a0	-0.037033677
239	0x3c3379f4	0.010954369
240	0xbcd7ef8b	-0.02635934
241	0x39b49684	0.00034444418
242	0x3d09df1b	0.033660036
243	0xbc49c601	-0.012315274
244	0x35b5fb47	1.3558682e-06
245	0x3c1232f4	0.008923281
246	0xbc2fa699	-0.010720872
247	0xbc41fbfc	-0.011839863
248	0xbab66049	-0.0013914193
249	0xbb8a4b00	-0.0042203665
250	0xbbd9fa43	-0.006652148
251	0xbb52195f	-0.003205858
252	0x3cebf0c0	0.028801322
253	0x3a96d242	0.0011506754
254	0x3c33598c	0.010946643
255	0x3c802496	0.015642446

mlp.0.bias f4 [256]
0	0xbd15a875	-0.036537606
1	0xbc1c975c	-0.009557571
2	0xbd514424	-0.051090375
3	0x3c76bac0	0.015059173
4	0xbd354ea0	-0.044264436
5	0xbc9da544	-0.019243844
6	0xbd3d8476	-0.046268903
7	0x3c878a16	0.016545337
8	0xbd1a27ae	-0.037635498
9	0x3c812fc9	0.015769856
10	0x3c9b9f85	0.018996963
11	0x3c85fed8	0.01635687
12	0xbd104451	-0.0352214
13	0x37fd22b6	3.0176114e-05
14	0xbc9a5f32	-0.01884422
15	0x3cfec6cb	0.031100651
16	0x3cb404ad	0.021974886
17	0xbb443411	-0.002993826
18	0x3bcdc0f6	0.0062791063
19	0x3d130a53	0.035898518
20	0x3d00e68f	0.031469878
21	0xbd12bc78	-0.03582427
22	0x3c698b44	0.014254395
23	0xbb80bb17	-0.003928553
24	0xbd2411ad	-0.04005592
25	0x3d2be4c8	0.04196623
26	0x3c842dc9	0.016135113
27	0xbd1f45b2	-0.038884826
28	0x3d446a6f	0.047953065
29	0xbcfa44fe	-0.030550476
30	0x3d645f07	0.055754688
31	0xbad3b8fc	-0.0016153152
32	0xbc427cf7	-0.011870614
33	0xbcf412ba	-0.029794086
34	0x3d2e6d61	0.04258478
35	0x3caee734	0.02135048
36	0x378e93f3	1.6996613e-05
37	0x3cc62e5b	0.024192026
38	0x3d29ca78	0.041452855
39	0xbbd11aed	-0.0063813836
40	0xbc6fc1af	-0.01463358
41	0xb99fb5af	-0.00030462208
42	0xbd07b6b6	-0.03313323
43	0x39bf380d	0.0003647212
44	0xb58bb536	-1.0409046e-06
45	0xbc985397	-0.018594546
46	0x3b288cff	0.0025718806
47	0x3c99f2a9	0.018792467
48	0xbcfa5737	-0.030559165
49	0xbd659b01	-0.056056026
50	0xbca82eb6	-0.020530086
51	0x3bba8042	0.005691559
52	0x3d3a5a64	0.04549636
53	0x3c1c656e	0.009545667
54	0xbcf7f905	-0.030270109
55	0xbd6b3769	-0.05742589
56	0xbccf6300	-0.025315762
57	0x3cb5d7a5	0.022197554
58	0xbcc110b8	-0.023567542
59	0xba8c1b16	-0.0010689225
60	0x3b43c4c1	0.0029871913
61	0x3c8be6b0	0.017077774
62	0xbd168cb3	-0.036755275
63	0x39a97031	0.0003231778
64	0x3cf91c5d	0.030409032
65	0xbd2c3536	-0.042042933
66	0xba44c9c8	-0.00075068744
67	0x3d47042f	0.048587974
68	0x3ccc853a	0.024965871
69	0xbce40e11	-0.027838739
70	0xbc122d66	-0.008921957
71	0xbd33aca2	-0.043865807
72	0x3c90ffd1	0.017700108
73	0xbd4b6b09	-0.049662624
74	0xbc48a686	-0.0122467335
75	0x3b9feb1a	0.004880321
76	0xbca7427e	-0.020417448
77	0xbb24acc7	-0.0025127397
78	0xbc97f421	-0.018549027
79	0x3c0f81a7	0.008758939
80	0xbcb3558a	-0.021891374
81	0xbb517725	-0.0031961885
82	0x3cfc8bca	0.030828375
83	0xbc0fa82a	-0.008768121
84	0xbbe0f0de	-0.006864651
85	0x3c9ceb3d	0.01915514
86	0xbc9e8aaf	-0.019353239
87	0xbc4a09db	-0.012331451
88	0x3ad16660	0.0015975945
89	0x3b30bac3	0.0026966787
90	0xbcf8ff78	-0.030395254
91	0xbd092d7f	-0.033490654
92	0xbd177a03	-0.036981594
93	0xbc9381de	-0.018006261
94	0x3c9d47d2	0.019199286
95	0xbcfcb442	-0.030847672
96	0xbc4c6cda	-0.012477124
97	0x3c508796	0.012727639
98	0x3ab1535b	0.001352887
99	0xbc8e25dc	-0.017352037
100	0x3d00dbb4	0.031459525
101	0x3cd265cd	0.025683308
102	0xbb8106cb	-0.0039375774
103	0xbd314faa	-0.043288864
104	0xbc333099	-0.01093688
105	0x3cf10b4a	0.029424328
106	0x3d1f856a	0.038945593
107	0xbcb269c1	-0.021778943
108	0x3c82ff49	0.01599087
109	0xbb00301d	-0.0019559928
110	0xbc4f643c	-0.012658175
111	0x3ce9d4b7	0.028543813
112	0x3ce9797c	0.028500311
113	0xbc19bcd9	-0.009383404
114	0xbcd78efe	-0.026313301
115	0xbcdb882c	-0.02679833
116	0xbd41cb4d	-0.047313023
117	0x3baf69b8	0.005353179
118	0xbd5bb9f7	-0.053644147
119	0x3d4bdace	0.049769215
120	0xbcd6a746	-0.026202809
121	0x3bf618a3	0.007510261
122	0xbb3ae893	-0.0028519973
123	0xbc8f15df	-0.017466484
124	0xbc889329	-0.016671734
125	0x3988e1d6	0.00026108202
126	0xbc6cb3e2	-0.014447184
127	0x3ca1679e	0.019702729
128	0x3cb61681	0.022227528
129	0xbc363baa	-0.011122623
130	0xbb67544c	-0.0035298048
131	0x3b4f576a	0.0031637796
132	0x3cb76c28	0.02239044
133	0x3c2d5695	0.010579725
134	0xbd0a72e4	-0.033800974
135	0x3b19652c	0.002340625
136	0xbd329476	-0.043598615
137	0xbb156f6b	-0.0022802006
138	0xbcf59184	-0.029976614
139	0xbc5fe290	-0.013664857
140	0x3ac08887	0.0014689126
141	0x3b250844	0.0025181929
142	0x3d4a6085	0.049408454
143	0xbc0f4713	-0.008744973
144	0xbd3fab59	-0.04679427
145	0x3d1f8d8a	0.03895334
146	0xbd3f4f3a	-0.046706416
147	0x3d0867bb	0.03330205
148	0xbcdb6712	-0.026782546
149	0xbc9ba178	-0.018997893
150	0xbca1b499	-0.019739436
151	0xbd436367	-0.04770222
152	0xbca38323	-0.019959992
153	0x3d35226f	0.04422229
154	0xbd274b95	-0.040843565
155	0x3c0bb06b	0.008525948
156	0xb8367c3c	-4.3507884e-05
157	0xbc8836f9	-0.016627776
158	0xbc8c9c45	-0.017164359
159	0x3d43ff52	0.047850914
160	0xbd018167	-0.03161755
161	0x3ce68c75	0.028143147
162	0x394b299f	0.00019375094
163	0x3cb7c782	0.022434
164	0xbd395989	-0.045251403
165	0x3d39f469	0.045399103
166	0xbc9e77c5	-0.01934422
167	0x3ce1a3da	0.02754395
168	0x3d3657e2	0.044517405
169	0xbbe73306	-0.007055643
170	0xb699e4d9	-4.5863967e-06
171	0x3c19afec	0.009380322
172	0x3d2782fd	0.040896405
173	0x3d033199	0.032029722
174	0x3b12835e	0.0022356133
175	0x3c7eb1e9	0.015545347
176	0x3d230f3f	0.03980946
177	0xbb8a33ad	-0.004217586
178	0xbd0fe6dd	-0.035132278
179	0x3c82ff5a	0.015990902
180	0x3c8aff65	0.016967485
181	0xbcbe69f7	-0.023243887
182	0x3bda2078	0.0066567026
183	0xbc35a01f	-0.011085539
184	0xbaef8b38	-0.0018275743
185	0xbcfd24d9	-0.03090136
186	0x3ca4486b	0.020054063
187	0x3d19abc6	0.03751733
188	0xbd108fd4	-0.035293415
189	0xbc06a9fa	-0.0082192365
190	0x3c9f19a8	0.019421414
191	0xbc37325c	-0.01118144
192	0xb894499b	-7.0709e-05
193	0xbd09c281	-0.03363276
194	0xbd043e83	-0.03228618
195	0x3d41684b	0.047218602
196	0xbc0ad56b	-0.008473734
197	0x3c365f0b	0.011131058
198	0xbcfdac99	-0.03096609
199	0xbcfba9cf	-0.03072062
200	0x3c13724f	0.008999421
201	0x3d514db6	0.0510995
202	0x3d7eea33	0.06223507
203	0xbd316468	-0.043308645
204	0xbafde667	-0.0019371033
205	0x3a88eefa	0.0010447197
206	0x3cb36615	0.021899262
207	0xba56dcaf	-0.00081963366
208	0xbc4b49ef	-0.012407764
209	0xbb9c7be7	-0.0047755125
210	0xbce179f9	-0.027523981
211	0x3d3b2bc4	0.045696035
212	0xbd5204a0	-0.051273942
213	0x3d1493c0	0.036273718
214	0xbc960363	-0.018312162
215	0x3d217bae	0.03942459
216	0x3ced0279	0.028931843
217	0xbcbdcd4c	-0.023169182
218	0x3c3d9c51	0.011572913
219	0x3bdc5464	0.0067239273
220	0xbc390364	-0.011292312
221	0x3c7852c7	0.015156454
222	0x3c41834a	0.011811087
223	0xbb97ef32	-0.0046366686
224	0xbc91aa4a	-0.017781395
225	0x3cd9a9b0	0.026570171
226	0xbc43710b	-0.011928807
227	0xbc1d9830	-0.009618804
228	0xbd3cbd72	-0.046079107
229	0xbd03ff89	-0.03222612
230	0xbca56a78	-0.02019237
231	0xbc8113d4	-0.015756525
232	0x3d3c9961	0.04604471
233	0xbc2ce4af	-0.010552569
234	0x3c1c49b0	0.009539053
235	0x3d2257fb	0.039634686
236	0x3c213dfb	0.009841437
237	0xbd0e6d1b	-0.03477202
238	0xbc4b5b47	-0.012411899
239	0xbaf7df82	-0.0018911215
240	0xbca3bc67	-0.019987298
241	0xbd2f2310	-0.042758048
242	0x3cecd6b5	0.028910974
243	0x3c9a8f25	0.018867085
244	0xbd1e8b40	-0.038707018
245	0xbd63d13d	-0.055619467
246	0x3c62cff5	0.013843526
247	0xbd3c35ef	-0.045949873
248	0x3d2bf82e	0.04198473
249	0x3cc2f03b	0.023796191
250	0x3d3c4da5	0.045972485
251	0x3c299b62	0.010351988
252	0xbc36fa85	-0.011168127
253	0xbd1e6704	-0.038672462
254	0xbd2da587	-0.042394187
255	0x3bd52952	0.00650517
